workspace/results/ascad/KAN_ASCADf_snr/2/KAN-1Hidden.ckpt (torch, 5622 bytes, 15 tensors)

biases.1.weight f4 [1, 2]
00000000: 5597 edbc 64bd 10be
-0.029002825 -0.14134747

act_fun.0.grid f4 [2, 4]
00000000: f22a 35c0 1062 89bf 8823 2f3f cc42 1c40
00000010: 0f2b 2dc0 a41a 81bf ac41 303f 27ae 1840
-2.8307462 -1.0733051 0.6841359 2.441577 -2.705753 -1.0086255 0.6885021 2.3856294

act_fun.0.coef f4 [2, 6]
00000000: c54e bebe a136 8dbe 1e8e 20be 7fcb e83d
00000010: a683 99be ae43 68bf fe88 1dbf 1b8f cdbe
00000020: bf12 7cbe f885 76bd 7674 37be ddbc 21bf
-0.3716947 -0.2758074 -0.15679213 0.11366939 -0.29983252 -0.9072827 -0.6153716 -0.40148243
-0.24616526 -0.060186356 -0.1791552 -0.6317881

act_fun.0.scale_base f4 [2]
00000000: 86b9 193f b594 b33e
0.6004871 0.35074392

act_fun.0.scale_sp f4 [2]
00000000: bcce cc3f 542a ba3f
1.600059 1.4544168

act_fun.0.mask f4 [2]
00000000: 0000 803f 0000 803f
1.0 1.0

act_fun.1.grid f4 [2, 4]
00000000: feba 00bf 805b cb3e 3f0b a63f ce9f 0c40
00000010: feba 00bf 805b cb3e 3f0b a63f ce9f 0c40
-0.5028533 0.39718246 1.2972182 2.1972537 -0.5028533 0.39718246 1.2972182 2.1972537

act_fun.1.coef f4 [2, 6]
00000000: e413 013f dc11 593d 87e2 c2bd e01a cabd
00000010: 61a1 00be eabd b6bd b9d4 f8bc 92e8 a33e
00000020: be68 493b 78b1 3dbf 8960 ccbe 4398 d5bd
0.50420976 0.052995548 -0.09515863 -0.09868407 -0.12561561 -0.08922942 -0.030374872 0.32013375
0.0030732597 -0.7409892 -0.399174 -0.10429432

act_fun.1.scale_base f4 [2]
00000000: 546b 5a3f 9f6a 343f
0.8532002 0.7047519

act_fun.1.scale_sp f4 [2]
00000000: 80c9 ad3f f9fa cc3f
1.3577118 1.6014091

act_fun.1.mask f4 [2]
00000000: 0000 803f 0000 803f
1.0 1.0

symbolic_fun.0.mask f4 [1, 2]
00000000: 0000 0000 0000 0000
0.0 0.0

symbolic_fun.0.affine f4 [1, 2, 4]
00000000: 0000 0000 0000 0000 0000 0000 0000 0000
00000010: 0000 0000 0000 0000 0000 0000 0000 0000
0.0 0.0 0.0 0.0 0.0 0.0 0.0 0.0

symbolic_fun.1.mask f4 [2, 1]
00000000: 0000 0000 0000 0000
0.0 0.0

symbolic_fun.1.affine f4 [2, 1, 4]
00000000: 0000 0000 0000 0000 0000 0000 0000 0000
00000010: 0000 0000 0000 0000 0000 0000 0000 0000
0.0 0.0 0.0 0.0 0.0 0.0 0.0 0.0
