workspace/results/simulation/KAN_All/0/grid17/KAN-1Hidden.ckpt (torch, 6134 bytes, 15 tensors)

biases.1.weight f4 [1, 2]
000000 a7 d7 39 3d ed d3 0c be
       0.045371678 -0.13752718

act_fun.0.grid f4 [2, 18]
000000 1f 85 eb 3d 24 24 24 3e b9 85 52 3e a7 73 80 3e
       0.115 0.16029412 0.20558824 0.25088236
000010 71 a4 97 3e 3c d5 ae 3e 06 06 c6 3e d1 36 dd 3e
       0.29617646 0.3414706 0.3867647 0.43205884
000020 9b 67 f4 3e 33 cc 05 3f 98 64 11 3f fd fc 1c 3f
       0.47735295 0.5226471 0.5679412 0.6132353
000030 62 95 28 3f c7 2d 34 3f 2d c6 3f 3f 92 5e 4b 3f
       0.6585294 0.7038235 0.7491177 0.7944118
000040 f7 f6 56 3f 5c 8f 62 3f 1f 85 eb 3d ac ab 2b 3e
       0.8397059 0.885 0.115 0.16764706
000050 c8 94 61 3e f2 be 8b 3e 80 b3 a6 3e 0f a8 c1 3e
       0.22029412 0.27294117 0.32558823 0.3782353
000060 9d 9c dc 3e 2b 91 f7 3e dc 42 09 3f 24 bd 16 3f
       0.43088236 0.48352942 0.53617644 0.58882356
000070 6b 37 24 3f b2 b1 31 3f f9 2b 3f 3f 40 a6 4c 3f
       0.6414706 0.69411767 0.7467647 0.7994118
000080 87 20 5a 3f ce 9a 67 3f 15 15 75 3f ae 47 81 3f
       0.8520588 0.9047059 0.95735294 1.01

act_fun.0.coef f4 [2, 20]
000000 00 00 00 00 00 00 00 00 00 00 00 00 00 00 00 00
       0.0 0.0 0.0 0.0
000010 00 00 00 00 00 00 00 00 00 00 00 00 00 00 00 00
       0.0 0.0 0.0 0.0
000020 00 00 00 00 00 00 00 00 00 00 00 00 00 00 00 00
       0.0 0.0 0.0 0.0
000030 00 00 00 00 00 00 00 00 00 00 00 00 00 00 00 00
       0.0 0.0 0.0 0.0
000040 00 00 00 00 00 00 00 00 00 00 00 00 00 00 00 00
       0.0 0.0 0.0 0.0
000050 9d e0 9a a9 8c 8c 0a ab 2b 79 71 aa 05 95 7f a6
       -6.877938e-14 -4.9222497e-13 -2.1447138e-13 -8.8672856e-16
000060 00 00 00 00 00 00 00 00 00 00 00 00 00 00 00 00
       0.0 0.0 0.0 0.0
000070 00 00 00 00 00 00 00 00 00 00 00 00 00 00 00 00
       0.0 0.0 0.0 0.0
000080 00 00 00 00 00 00 00 00 00 00 00 00 00 00 00 00
       0.0 0.0 0.0 0.0
000090 00 00 00 00 00 00 00 00 00 00 00 00 00 00 00 00
       0.0 0.0 0.0 0.0

act_fun.0.scale_base f4 [2]
000000 7e 51 6a 3f 51 65 0c 3f
       0.915306 0.54842097

act_fun.0.scale_sp f4 [2]
000000 00 00 80 3f 00 00 80 3f
       1.0 1.0

act_fun.0.mask f4 [2]
000000 00 00 00 00 00 00 00 00
       0.0 0.0

act_fun.1.grid f4 [2, 18]
000000 a9 00 1a be 9e a4 f6 bd ea 47 b9 bd 6c d6 77 bd
       -0.15039314 -0.12043117 -0.0904692 -0.060507223
000010 0c 3a fa bc 00 e7 18 ba 98 ab f0 3c 30 0f 73 3d
       -0.030545257 -0.00058327615 0.029378697 0.059340656
000020 4c e4 b6 3d 02 41 f4 3d db ce 18 3e 35 7d 37 3e
       0.08930263 0.11926462 0.14922659 0.17918856
000030 8f 2b 56 3e e7 d9 74 3e 20 c4 89 3e 4e 1b 99 3e
       0.20915054 0.23911248 0.26907444 0.29903644
000040 7a 72 a8 3e a8 c9 b7 3e a9 00 1a be 9e a4 f6 bd
       0.3289984 0.3589604 -0.15039314 -0.12043117
000050 ea 47 b9 bd 6c d6 77 bd 0c 3a fa bc 00 e7 18 ba
       -0.0904692 -0.060507223 -0.030545257 -0.00058327615
000060 98 ab f0 3c 30 0f 73 3d 4c e4 b6 3d 02 41 f4 3d
       0.029378697 0.059340656 0.08930263 0.11926462
000070 db ce 18 3e 35 7d 37 3e 8f 2b 56 3e e7 d9 74 3e
       0.14922659 0.17918856 0.20915054 0.23911248
000080 20 c4 89 3e 4e 1b 99 3e 7a 72 a8 3e a8 c9 b7 3e
       0.26907444 0.29903644 0.3289984 0.3589604

act_fun.1.coef f4 [2, 20]
000000 da 1d b0 3d af d6 79 3f ef 31 10 3f 92 81 b0 3e
       0.08599444 0.97593206 0.5632619 0.34473854
000010 43 ce 28 3e 15 aa ce 3d 33 b2 22 ba ab db b9 bd
       0.16484933 0.10091034 -0.00062063633 -0.090751015
000020 ff 7d 1b be 7a a8 4a be 87 84 45 be 09 96 39 be
       -0.15184782 -0.19790831 -0.19288836 -0.1812364
000030 a3 fc 31 be 7d 0f f0 bd c1 11 f3 3a 85 bd 81 3d
       -0.1738153 -0.11721704 0.001854472 0.06334976
000040 34 06 39 3e 3a 50 a3 3e 15 ff 06 3e 0d 7a ae 3f
       0.18068773 0.31897146 0.13183244 1.3630997
000050 7b 7e 25 bf 2c 7f 11 bf d9 89 ad be ef b5 10 be
       -0.6464612 -0.56834674 -0.33894232 -0.14131902
000060 ef 3e 0a bd cb ed a9 ba 70 de 77 3d df e5 e1 3d
       -0.033751424 -0.0012964545 0.060514867 0.110301726
000070 7d 90 10 3e 7a 79 22 3e 79 d5 0a 3e d4 4e de 3d
       0.14117618 0.15866652 0.13557996 0.10854879
000080 48 62 a2 3d 57 01 8c 3c c1 c7 d6 bd 07 2e 2e be
       0.07928902 0.017090483 -0.10487319 -0.17009746
000090 a0 99 93 be 8e de c6 be 27 62 03 bf 43 68 2a bf
       -0.28828144 -0.3884167 -0.51321644 -0.6656534

act_fun.1.scale_base f4 [2]
000000 5a 30 52 3f 13 b6 80 3f
       0.8210503 1.0055565

act_fun.1.scale_sp f4 [2]
000000 56 35 9c 3f 8c 3e c9 3f
       1.2203777 1.5722213

act_fun.1.mask f4 [2]
000000 00 00 80 3f 00 00 80 3f
       1.0 1.0

symbolic_fun.0.mask f4 [1, 2]
000000 00 00 80 3f 00 00 80 3f
       1.0 1.0

symbolic_fun.0.affine f4 [1, 2, 4]
000000 ba 2c b1 c0 db 5f 9e c0 44 98 81 bd 1d 8c 17 bf
       -5.53671 -4.949201 -0.063278705 -0.5919817
000010 6e 21 0f c1 53 43 b2 c0 8e 65 2a bd d7 f8 7c be
       -8.945662 -5.5707183 -0.041600756 -0.247043

symbolic_fun.1.mask f4 [2, 1]
000000 00 00 00 00 00 00 00 00
       0.0 0.0

symbolic_fun.1.affine f4 [2, 1, 4]
000000 00 00 00 00 00 00 00 00 00 00 00 00 00 00 00 00
       0.0 0.0 0.0 0.0
000010 00 00 00 00 00 00 00 00 00 00 00 00 00 00 00 00
       0.0 0.0 0.0 0.0
