workspace/results/simulation/KAN_All/0/grid17/KAN-1Hidden.ckpt (torch, 6134 bytes, 15 tensors)

biases.1.weight f4 [1, 2]
000000 e3 f6 8e 3c 94 36 21 be
       0.01745171 -0.15743476

act_fun.0.grid f4 [2, 18]
000000 0a d7 23 bc ae ae 2e 3d 90 29 c3 3d e4 7d 17 3e
       -0.01 0.042647056 0.09529412 0.14794117
000010 00 67 4d 3e 0f a8 81 3e 9d 9c 9c 3e 2b 91 b7 3e
       0.20058823 0.2532353 0.30588236 0.35852942
000020 b9 85 d2 3e 48 7a ed 3e 6b 37 04 3f b2 b1 11 3f
       0.41117647 0.46382356 0.5164706 0.56911767
000030 f9 2b 1f 3f 40 a6 2c 3f 87 20 3a 3f ce 9a 47 3f
       0.6217647 0.6744118 0.7270588 0.7797059
000040 15 15 55 3f 5c 8f 62 3f 0a d7 23 bc cc cc 4c 3d
       0.83235294 0.885 -0.01 0.049999997
000050 ae 47 e1 3d 7b 14 2e 3e 1e 85 6b 3e e2 7a 94 3e
       0.11 0.17 0.22999999 0.29000002
000060 34 33 b3 3e 85 eb d1 3e d7 a3 f0 3e 15 ae 07 3f
       0.35000002 0.41 0.47 0.53000003
000070 3e 0a 17 3f 67 66 26 3f 90 c2 35 3f b8 1e 45 3f
       0.59000003 0.65000004 0.71000004 0.77
000080 e1 7a 54 3f 0a d7 63 3f 33 33 73 3f ae 47 81 3f
       0.83 0.89 0.95 1.01

act_fun.0.coef f4 [2, 20]
000000 69 e1 0a 18 39 9e 54 19 1f 44 34 99 2b 12 32 9c
       1.7949885e-24 1.0992096e-23 -9.319539e-24 -5.891874e-22
000010 b6 96 5e 9c b6 96 5e 9a 00 00 00 00 23 4b a9 a2
       -7.364843e-22 -4.6030267e-23 0.0 -4.5887096e-18
000020 e6 93 64 a4 cf 9a 3c a4 47 3b 56 a6 d8 4a af a6
       -4.9564894e-17 -4.089713e-17 -7.43265e-16 -1.2163351e-15
000030 f2 24 4d 24 07 de 59 26 a0 94 4f a5 15 d8 fd a7
       4.4483583e-17 7.55879e-16 -1.8004744e-16 -7.0455883e-15
000040 21 a1 d6 a7 d3 41 3d a5 df 3c 77 24 10 30 0a 23
       -5.957163e-15 -1.6415439e-16 5.3611147e-17 7.491173e-18
000050 cb 97 94 ad 2d f6 f6 ae fd 7d 49 ae c4 28 18 aa
       -1.6893062e-11 -1.12305144e-10 -4.581401e-11 -1.3514455e-13
000060 00 00 00 00 00 00 00 00 00 00 00 00 00 00 00 00
       0.0 0.0 0.0 0.0
000070 00 00 00 00 00 00 00 00 00 00 00 00 00 00 00 00
       0.0 0.0 0.0 0.0
000080 00 00 00 00 00 00 00 00 00 00 00 00 00 00 00 00
       0.0 0.0 0.0 0.0
000090 00 00 00 00 00 00 00 00 00 00 00 00 00 00 00 00
       0.0 0.0 0.0 0.0

act_fun.0.scale_base f4 [2]
000000 7e 51 6a 3f 51 65 0c 3f
       0.915306 0.54842097

act_fun.0.scale_sp f4 [2]
000000 00 00 80 3f 00 00 80 3f
       1.0 1.0

act_fun.0.mask f4 [2]
000000 00 00 00 00 00 00 00 00
       0.0 0.0

act_fun.1.grid f4 [2, 18]
000000 fe 3f c9 bd 6a 91 64 bd 60 8b 5a bc 78 97 ee 3c
       -0.09826659 -0.05580274 -0.013338894 0.02912496
000010 26 9d 92 3d 70 94 e9 3d dd 45 20 3e 81 c1 4b 3e
       0.0715888 0.11405265 0.1565165 0.19898035
000020 25 3d 77 3e 66 5c 91 3e 38 1a a7 3e 0a d8 bc 3e
       0.24144419 0.28390807 0.3263719 0.36883575
000030 dc 95 d2 3e ae 53 e8 3e 80 11 fe 3e a9 e7 09 3f
       0.4112996 0.45376343 0.49622726 0.5386911
000040 92 c6 14 3f 7b a5 1f 3f fe 3f c9 bd 6a 91 64 bd
       0.58115494 0.6236188 -0.09826659 -0.05580274
000050 60 8b 5a bc 78 97 ee 3c 26 9d 92 3d 70 94 e9 3d
       -0.013338894 0.02912496 0.0715888 0.11405265
000060 dd 45 20 3e 81 c1 4b 3e 25 3d 77 3e 66 5c 91 3e
       0.1565165 0.19898035 0.24144419 0.28390807
000070 38 1a a7 3e 0a d8 bc 3e dc 95 d2 3e ae 53 e8 3e
       0.3263719 0.36883575 0.4112996 0.45376343
000080 80 11 fe 3e a9 e7 09 3f 92 c6 14 3f 7b a5 1f 3f
       0.49622726 0.5386911 0.58115494 0.6236188

act_fun.1.coef f4 [2, 20]
000000 90 4c 44 3f 41 59 ec 3e 93 98 f7 3e 0d 7a 6c 3e
       0.76679325 0.46161845 0.48358592 0.23093434
000010 80 71 1a 3e fb 2b 80 3c a8 fe a2 bd 37 89 35 be
       0.1508236 0.015645972 -0.07958728 -0.17728125
000020 48 db 13 be e3 3f 33 be 1f 7a 68 be da 5e 45 be
       -0.14439118 -0.1750484 -0.22702836 -0.19274464
000030 c1 1f 0a be 99 19 fd bc b5 80 0a 3c 19 b0 20 3e
       -0.13488676 -0.030895995 0.008453538 0.15692176
000040 ba fe 5a 3e 6c 1d 9b 3e fb 72 cd 3e fa da 19 3e
       0.21386233 0.30295885 0.40126786 0.15024939
000050 54 7a 0d bf 36 5b a6 be ce 67 7f be 38 ac e7 bd
       -0.5526478 -0.32491463 -0.24941942 -0.11312145
000060 a4 25 65 bd c9 d0 fe 3c 58 86 ab 3d d8 17 12 3e
       -0.0559441 0.031105416 0.083752334 0.14266908
000070 02 cd ad 3d ad 6f a5 3d 49 b5 c2 3d c5 13 1b 3d
       0.08486368 0.08077941 0.09507234 0.03786065
000080 ce 35 35 bd 42 d3 27 be 25 1e 6b be 28 ee c6 be
       -0.044240765 -0.16389182 -0.22960718 -0.38853574
000090 e7 8a f2 be 6d 95 0f bf c9 b5 26 bf 26 db 0a bf
       -0.473716 -0.5608738 -0.6512113 -0.54240644

act_fun.1.scale_base f4 [2]
000000 57 98 52 3f 5f 6c 82 3f
       0.822637 1.0189322

act_fun.1.scale_sp f4 [2]
000000 80 e1 b3 3f 14 d1 d5 3f
       1.4053192 1.670443

act_fun.1.mask f4 [2]
000000 00 00 80 3f 00 00 80 3f
       1.0 1.0

symbolic_fun.0.mask f4 [1, 2]
000000 00 00 80 3f 00 00 80 3f
       1.0 1.0

symbolic_fun.0.affine f4 [1, 2, 4]
000000 ea a5 79 bf 2e 21 12 c1 05 49 00 bf bf 00 95 c0
       -0.9751879 -9.1331005 -0.5011142 -4.656341
000010 d6 f9 80 c0 ec e3 00 41 70 5d fc bd 40 f5 51 3f
       -4.0304976 8.055645 -0.12322509 0.82014847

symbolic_fun.1.mask f4 [2, 1]
000000 00 00 00 00 00 00 00 00
       0.0 0.0

symbolic_fun.1.affine f4 [2, 1, 4]
000000 00 00 00 00 00 00 00 00 00 00 00 00 00 00 00 00
       0.0 0.0 0.0 0.0
000010 00 00 00 00 00 00 00 00 00 00 00 00 00 00 00 00
       0.0 0.0 0.0 0.0
