workspace/results/ascad/KAN_ASCADf_snr/6/KAN-1Hidden.ckpt (torch, 5622 bytes, 15 tensors)

biases.1.weight f4 [1, 2]
-0.035717398 -0.09521913
00000000: 684c 12bd 3f02 c3bd

act_fun.0.grid f4 [2, 4]
-2.8307462 -1.0733051 0.6841359 2.441577 -2.705753 -1.0086255 0.6885021 2.3856294
00000000: f22a 35c0 1062 89bf 8823 2f3f cc42 1c40
00000010: 0f2b 2dc0 a41a 81bf ac41 303f 27ae 1840

act_fun.0.coef f4 [2, 6]
0.32708538 0.49216288 0.17756428 -0.26573166 -0.314623 -0.4993353 -0.341799 -0.17049123
-0.17335887 -0.11112609 -0.42065072 -0.5211199
00000000: bc77 a73e c6fc fb3e 69d3 353e fb0d 88be
00000010: 4416 a1be e0a8 ffbe 4700 afbe 4195 2ebe
00000020: fd84 31be 1396 e3bd 885f d7be 1d68 05bf

act_fun.0.scale_base f4 [2]
0.6008257 0.21175717
00000000: b7cf 193f dfd6 583e

act_fun.0.scale_sp f4 [2]
1.7132782 1.5259409
00000000: b34c db3f 0852 c33f

act_fun.0.mask f4 [2]
1.0 1.0
00000000: 0000 803f 0000 803f

act_fun.1.grid f4 [2, 4]
-0.50418794 0.3962925 1.296773 2.1972532 -0.50418794 0.3962925 1.296773 2.1972532
00000000: 7612 01bf dae6 ca3e a8fc a53f cc9f 0c40
00000010: 7612 01bf dae6 ca3e a8fc a53f cc9f 0c40

act_fun.1.coef f4 [2, 6]
0.21407524 0.16652389 -0.01114131 -0.17017102 -0.18984434 -0.098625064 0.26589638 0.22854152
-0.11613297 -0.53005826 -0.19379438 -0.10325065
00000000: 8a36 5b3e 3d85 2a3e 0b8a 36bc 5041 2ebe
00000010: 8e66 42be f0fb c9bd 9223 883e ca06 6a3e
00000020: 1fd7 edbd e6b1 07bf 0972 46be 1475 d3bd

act_fun.1.scale_base f4 [2]
0.8559975 0.7548276
00000000: a722 5b3f 623c 413f

act_fun.1.scale_sp f4 [2]
1.2635847 1.448683
00000000: 25bd a13f 726e b93f

act_fun.1.mask f4 [2]
1.0 1.0
00000000: 0000 803f 0000 803f

symbolic_fun.0.mask f4 [1, 2]
0.0 0.0
00000000: 0000 0000 0000 0000

symbolic_fun.0.affine f4 [1, 2, 4]
0.0 0.0 0.0 0.0 0.0 0.0 0.0 0.0
00000000: 0000 0000 0000 0000 0000 0000 0000 0000
00000010: 0000 0000 0000 0000 0000 0000 0000 0000

symbolic_fun.1.mask f4 [2, 1]
0.0 0.0
00000000: 0000 0000 0000 0000

symbolic_fun.1.affine f4 [2, 1, 4]
0.0 0.0 0.0 0.0 0.0 0.0 0.0 0.0
00000000: 0000 0000 0000 0000 0000 0000 0000 0000
00000010: 0000 0000 0000 0000 0000 0000 0000 0000
