workspace/results/ascad/KAN_ASCADv_snr/0/KAN-1Hidden.ckpt (torch, 5622 bytes, 15 tensors)

biases.1.weight f4 [1, 2]
00000000: 74d3 903d 2f40 8ebe
0.070715815 -0.27783343

act_fun.0.grid f4 [2, 4]
00000000: 3f44 55c0 d2c2 a5bf b405 3e3f 43e4 3140
00000010: 164f 15c0 7a8e 17bf b20f 933f 50f3 3840
-3.3322904 -1.295008 0.7422745 2.779557 -2.332952 -0.59201777 1.1489165 2.8898506

act_fun.0.coef f4 [2, 6]
00000000: 971e d7be 0dbd 0dbf 3f28 acbe eaf9 843e
00000010: 4494 dfbe 214f 4bbf 333b 9cbd 7a27 09bf
00000020: 19e4 83be 8525 333e 69fb e2be 055a b5be
-0.42015526 -0.55366594 -0.33624455 0.2597192 -0.43667805 -0.79417616 -0.07628479 -0.5357586
-0.25759962 0.17494781 -0.44332436 -0.35420242

act_fun.0.scale_base f4 [2]
00000000: 07ee 073f b23c 943e
0.53097576 0.28952557

act_fun.0.scale_sp f4 [2]
00000000: b588 d23f fcaa bc3f
1.644797 1.473968

act_fun.0.mask f4 [2]
00000000: 0000 803f 0000 803f
1.0 1.0

act_fun.1.grid f4 [2, 4]
00000000: a3e7 01bf c5a8 1c3f 969c dd3f 6572 3640
00000010: a3e7 01bf c5a8 1c3f 969c dd3f 6572 3640
-0.50744075 0.6119502 1.7313411 2.850732 -0.50744075 0.6119502 1.7313411 2.850732

act_fun.1.coef f4 [2, 6]
00000000: 52cd 733f cffa afbe 965a 423c 9ece 8b3e
00000010: e76f d03d 5a0a 91be 42f7 0dbf 82ce 203f
00000020: 3965 38be 0e95 84bf 6af3 b3be c0aa 38be
0.9523517 -0.3437104 0.011862418 0.27306074 0.10177594 -0.2832821 -0.5545541 0.62815106
-0.18007363 -1.0357988 -0.35146648 -0.18033886

act_fun.1.scale_base f4 [2]
00000000: 73cb 883f c879 193f
1.0687088 0.5995145

act_fun.1.scale_sp f4 [2]
00000000: 8811 0240 2be1 1240
2.03232 2.2949932

act_fun.1.mask f4 [2]
00000000: 0000 803f 0000 803f
1.0 1.0

symbolic_fun.0.mask f4 [1, 2]
00000000: 0000 0000 0000 0000
0.0 0.0

symbolic_fun.0.affine f4 [1, 2, 4]
00000000: 0000 0000 0000 0000 0000 0000 0000 0000
00000010: 0000 0000 0000 0000 0000 0000 0000 0000
0.0 0.0 0.0 0.0 0.0 0.0 0.0 0.0

symbolic_fun.1.mask f4 [2, 1]
00000000: 0000 0000 0000 0000
0.0 0.0

symbolic_fun.1.affine f4 [2, 1, 4]
00000000: 0000 0000 0000 0000 0000 0000 0000 0000
00000010: 0000 0000 0000 0000 0000 0000 0000 0000
0.0 0.0 0.0 0.0 0.0 0.0 0.0 0.0
