workspace/results/ascad/MLP_ASCADv/MLP.pt (torch, 115360 bytes, 6 tensors)

0.weight f4 [20, 1400]
00000000: 6f8e d5bd 3d18 7ebe aa39 0ebe c904 15bd
00000010: 44fd acbc c2e5 3cbc abb5 38bd c652 8abd
00000020: 7cad 2bbd db13 32be 0af1 1d3d 3699 1ebd
00000030: 0fee ad3d 647c 3c3d e7e0 81bd b37e 3fbe
00000040: 2898 96bd 6d64 07be 8b9f 023d 0638 8cbc
00000050: 7d56 bd3d acc6 8cbd 9b56 25bc d9c6 0cbd
00000060: baeb b03d 8391 643d 56aa 773c 0202 3dbe
00000070: b209 62bd 4a4a 2c3e 3a1c 9abd 28f8 76bc
00000080: 41c7 cb3d 448c 983d 9b58 5cbd 8470 d8bd
00000090: de9d a43c ed34 4a3c d1ba e53d d959 70bd
000000a0: 776f 933d 7441 7dbd e895 8cbd 3945 3a3d
000000b0: e969 fb3c 5655 193e 900c 8f3d 91f3 2dbe
000000c0: e4b7 313c d5aa 9fbd 57df e23b 310f c8bc
000000d0: 97ee 1e3d 799a f83c 84b6 443e 4b76 bcbd
000000e0: 746f 26bd 1d14 023e 6f05 683d a644 3bbd
000000f0: 29ca 0b3d cdf4 d63c debf 9fbc 8568 1cbe
00000100: 6295 4bbd 2116 d43b f82c 75bd 9417 a03b
00000110: 4f46 df3d 94b4 a93d 5faa d73d a5b2 063e
00000120: 272f 133c 8d02 bcbd 5bbe a63c 163a 963c
00000130: 113e 20bd a1e7 153d 64f5 9c3a 0357 ab3d
00000140: 1b67 9a3c 4ae5 8a3d 5e58 b0bc 5988 60be
00000150: 5057 afbd 7302 65bd 5bf3 d43d bcb2 ac3d
00000160: b3e5 a6bd 6fb3 593d a850 d4bb b626 c13d
00000170: b0ee 27bd 5081 543c 8b0a ecbc caa6 7bbd
00000180: 6fbc b33d 5472 27be f7a9 0dbd 33e6 8cbd
00000190: 3b51 3ebd 4034 233b 6f2a bebd 675b c0bd
000001a0: 262f da3c 0174 e9bd 7491 023d 1a31 0fbd
000001b0: b934 a43c 4af3 cabd 3d73 f6bd bc34 153d
000001c0: c20a 913d 7f22 57bd 094e 163e e87f 33bd
000001d0: bd34 6e3d 6fad 3c3e b735 fc3d 5c63 f0bc
000001e0: 9b21 96bd 972a 173e 030e 6f3e cdf6 6a3e
000001f0: 9b40 ae3d 7aca ad3e 0d74 193e 67a5 8d3e
00000200: a60c 523e eb86 9b3e 847c 4b3e 80e1 fb3d
00000210: 6c31 463e 492d b73c f620 223e 3696 e43c
00000220: 7d74 0f3e 10e0 da3d 9315 d03d ce30 e03d
00000230: 3833 09be efc2 003d d1fa 77bc 8006 a2bd
00000240: bc09 883d 2a0f 09be b5f3 7fbc 1507 083e
00000250: 1caa e53d 2992 26be 8fe3 e0bb 00ed ec3d
00000260: 85f4 8cbd d96c a0bb b121 9ebd 891f f73c
00000270: f1d0 ff3d b281 c13c 204d f5bd 4d99 2e3d
00000280: d5d5 25bd b130 093d 16dc 10bd 7c6c 3abe
00000290: 3b5f 1ebe fa16 25be aeee 073e 867e 9abd
000002a0: 196a 063c 64bb 19bc 82c0 01be 23ea 84ba
000002b0: 0130 26bd e587 f23d 46d3 5dbd 3751 9a3c
000002c0: 4b9d bb3d 5e88 83be 288b 1cbd f73f 8a3c
000002d0: e920 023e 40e8 153d ce57 dd3e 1ea5 55be
000002e0: 88ca 1dbf 901e f2be f7cd 05bf 8568 20bf
000002f0: 445c 68bf 77ba d6be 02b8 efbc 7db7 12be
00000300: f0c1 d03d 729d 813e 9a19 9f3e cad5 653e
00000310: b838 313d c9b6 b2bd 1e17 3ebe ef7c e2be
00000320: 7cbe 43be 7d39 bcbe 6e98 83be 9c7c 8fbd
00000330: 3ee5 85bc 497e 4d3e 2d51 a43d 88e1 f43d
00000340: 61b1 8e3e a8e8 433d 1b2c a6bd 0626 403e
00000350: 220a 87bc fd34 51bd 31b4 563c 750d 8d3d
00000360: 2cf0 c3bd 8c43 48bc eaad 193d fcdc 523d
00000370: d1f4 173d 8aff da3d cc94 cebd 4936 c43d
00000380: d8d1 bc3d b586 07bd 2ce4 8ebc 066c c23b
00000390: 95eb 66bd 6384 493d dddb c4bd 7e9f 9b3d
000003a0: 382f 27be 14a3 0b3e 2d1d 703d bad1 cebd
000003b0: af13 19bc c99c 4fbd 6d87 12be acde 79bd
000003c0: 16bc 2ebc bf79 a5bd 35a8 033e 16f3 d5bc
000003d0: 73d5 7fbd e978 0f3c 8d7c b13d b8a0 753e
000003e0: 2d28 813e 06a9 273e e199 203e bd7f 883e
000003f0: 02c6 d03a 9679 743e 0d71 173e 8d24 56bd
-0.10427558 -0.24813934 -0.13889185 -0.036381517 -0.02111686 -0.011529388 -0.045095127 -0.06754069
-0.041913494 -0.17390387 0.03855995 -0.038720332 0.08492672 0.046017066 -0.06341725 -0.18700676
-0.0735324 -0.13221903 0.031890433 -0.017116558 0.09245012 -0.06873831 -0.010091449 -0.034369323
0.08638711 0.055802833 0.015116295 -0.18457797 -0.055185027 0.16825214 -0.07524915 -0.0150738135
0.09950114 0.074486285 -0.05379544 -0.10568336 0.020094808 0.01234172 0.11217273 -0.058679435
0.071989946 -0.06183 -0.0686453 0.045476172 0.03069015 0.1497396 0.06984818 -0.16987444
0.010847066 -0.077962555 0.006923597 -0.024421306 0.038801756 0.030347096 0.19210249 -0.0920225
-0.040633634 0.12702985 0.056645807 -0.045719765 0.03412834 0.026239777 -0.01950067 -0.15274246
-0.04970301 0.0064723645 -0.05985734 0.004885623 0.10902082 0.08286396 0.105305426 0.13154085
0.00898341 -0.09180174 0.02035444 0.018338244 -0.03912169 0.03659785 0.0011974988 0.083662055
0.018847993 0.06782015 -0.021526512 -0.21927013 -0.085615754 -0.05591054 0.10397979 0.084325284
-0.081492804 0.053149637 -0.0064793415 0.09431212 -0.040999115 0.012970284 -0.028813621 -0.06143836
0.08776175 -0.16352206 -0.03458592 -0.068798445 -0.046464186 0.002490297 -0.09285437 -0.093924336
0.02663381 -0.11399079 0.031876996 -0.034958936 0.020044671 -0.09909685 -0.12033699 0.036427245
0.0708213 -0.052523132 0.14678206 -0.043823153 0.058155764 0.18425535 0.12314933 -0.029344253
-0.073306285 0.1476234 0.23345189 0.2294571 0.08508416 0.3394354 0.14985676 0.27665254
0.20512637 0.30376372 0.19871718 0.1229887 0.1935479 0.02236046 0.15832886 0.027903657
0.1400928 0.10687268 0.10160365 0.10946809 -0.13398445 0.031435903 -0.015135483 -0.07911396
0.06642482 -0.13384691 -0.015622069 0.13283952 0.112140864 -0.16266693 -0.0068630646 0.11568642
-0.06882576 -0.004895788 -0.0772127 0.030166404 0.12491024 0.023621414 -0.11977601 0.042626668
-0.04048713 0.0334937 -0.03536614 -0.18205446 -0.15466015 -0.16122046 0.13274643 -0.07543664
0.008204007 -0.009383056 -0.12671092 -0.0010140579 -0.040573124 0.11842326 -0.054156564 0.018837554
0.09160861 -0.25689977 -0.038218647 0.016876204 0.12707867 0.036598444 0.43231052 -0.20863768
-0.61637163 -0.47288942 -0.522674 -0.62659484 -0.90765786 -0.41939136 -0.029262546 -0.14327808
0.10193241 0.25315434 0.3107422 0.22444835 0.04326698 -0.0872627 -0.18563506 -0.44235942
-0.19115633 -0.3676261 -0.25702232 -0.07006189 -0.016344663 0.20067705 0.080232956 0.11957079
0.27869704 0.0478293 -0.08113881 0.18764505 -0.016484324 -0.051075924 0.013104484 0.06887332
-0.095672935 -0.012223136 0.037519373 0.05148028 0.03709871 0.106932715 -0.100869745 0.095806666
0.09219712 -0.03308745 -0.017442785 0.0059332876 -0.056377012 0.04919852 -0.09612248 0.0759878
-0.16326606 0.13636428 0.058621574 -0.10098596 -0.009343072 -0.05068663 -0.14309473 -0.061003372
-0.01066496 -0.08079862 0.12857135 -0.026116889 -0.06245942 0.008756855 0.08666334 0.2398709
0.25225964 0.16373071 0.156837 0.26659957 0.0015928152 0.23874506 0.14789219 -0.05228095

0.bias f4 [20]
00000000: 8fd5 b2be b621 8b3c 0bc9 c0bd d8ab b7bd
00000010: 91c6 67bd 8a78 1fbe e8de 55be afaa e8be
00000020: 7923 06bf da68 de3d b25e d6be e8b5 f33c
00000030: 5758 13bf 8eef 7cbe e0db 04be 00b3 0bbf
00000040: 903b 8bbe d332 76bd 25ac 21bf ba32 4dbd
-0.34928557 0.016983848 -0.09413346 -0.089683235 -0.056585852 -0.15573326 -0.20885813 -0.4544272
-0.52397877 0.108598426 -0.41869122 0.029749826 -0.5755667 -0.24700758 -0.129745 -0.5457001
-0.2719388 -0.060107064 -0.63153297 -0.050097205

2.weight f4 [10, 20]
00000000: 5ef3 88be 95b1 2b3e ebb7 9d3c 368a b6be
00000010: 254e d43d 584c b2bc 9109 863d 0d89 a9be
00000020: 9630 923e 1c19 c3be aa6d 13be 85d5 1ebe
00000030: 4fee 643e 9774 903e caff 963e 252e 623e
00000040: bfd6 00bf 9748 e83c 7273 9c3e 1181 ebbd
00000050: 8ba6 b53e a000 a9bd 2be1 d7bc e870 463e
00000060: 22f1 34be 6203 08be db23 4cbd ab45 223e
00000070: 83d2 89be 6ded 1e3e 0e56 853c 8322 963e
00000080: 1832 1abf 9ada 01bf bea2 8fbe a606 74be
00000090: b6b3 a93d 3f55 e43d 2f9a 08bd 67d0 383e
000000a0: 5ec9 603e 7041 f43d 1681 0bbe afc3 ff3d
000000b0: bc93 99be 147d 0dbf 88da 48be cbc8 9abd
000000c0: 155e ab3e ed42 283e 3687 263e f6d5 373e
000000d0: 259c a6bd 12f3 99bd 76bd aebd 37dd 42be
000000e0: 4906 e7be 648a 863e 0da4 30bc 3f88 633d
000000f0: 789e 483e 09ed a73e 919c c03e 8559 eebe
00000100: a1ee afbe db86 dfbe 3ffc cf3d 47aa 4dbe
00000110: 6dfd fbbd 0e71 953c 1e38 4cbf 1838 cdbe
00000120: ae43 0bbe c42e 133e 1b4d e3bc dbaa 7dbe
00000130: 00b2 f3bd 2307 b93c c8e6 70bd b948 10bf
00000140: de75 d33d 98dd e33d 3dd3 e63c 3b7e 44bd
00000150: f849 1c3e 453b 933d 2513 a33d ad2a f73d
00000160: e1be 24bc c322 103e 9308 71bd f554 083e
00000170: f28a 19bd 94a1 3abd 09c2 fbbd db65 b3bd
00000180: f2d4 843d 8f71 12be 0b6b b7bd c10d aabd
00000190: 5166 c03e 48b4 743c 5bcd 19be 2213 1e3a
000001a0: 2508 54be f464 eb3d 652e 08be 8d49 803e
000001b0: 49bb 8c3d 0ef0 933e 67f2 9abc 0a61 b43d
000001c0: faaa 36be 8ff8 61be c0ca 8dbe 7251 45be
000001d0: 5a77 363e bc2d c63d d4bd e43e 15f9 383c
000001e0: 7807 a2bd 320a f3bd b648 8cbe f20d ba3e
000001f0: 2afe 933e 8e4b c7bd 038e eebe a725 cf3e
00000200: 9fc2 b03d a888 05be a2b2 0ebd 8e67 ae3e
00000210: 686b 75be f589 bbbe 6bdc 16be 2f14 d43e
00000220: d563 1a3e 833d acbe fe5a a13d fa41 903e
00000230: 8ca3 92bd aca1 a13d 7e0d 923e bd14 97bd
00000240: 46a2 aabe 033c eb3d 09be 153e 8e09 f9bd
00000250: 428b a5be 2dfa 2b3e 223d 923d 9cb0 afbd
00000260: 972e 36be 80ea e43d 39e9 9c3e 33bd d33d
00000270: f9a0 373e 4c3f ac3e 96db 5abe 815a 853e
00000280: c543 e33d 7bb8 533e c426 3fbe cbc6 393e
00000290: 3a73 213e 2ba0 d63d f14e 0c3e 5338 1cbe
000002a0: a3c0 9a3d 9c05 97be cb3e 3d3e eafc 43be
000002b0: 3a5d b2be 01d5 313e d096 2bbe 6851 d9be
000002c0: 602c c3be 20ae 3f3e 8ce7 1a3e 981f 31bc
000002d0: 8659 9d3e 90ef 343e 547f 323d ecea 773e
000002e0: 9aff 7fbe 1dd4 4cbc 0c1a ba3d 6547 5a3e
000002f0: 27f0 9cbd 0dd4 c7be 3517 59be b1cf 2cbe
00000300: b9f0 d5be ee5f babe 291c d5bc 27bb 50bd
00000310: 139e aa3e 895f 083e ddd3 5d3e 467b e53d
-0.26748174 0.16766961 0.019252738 -0.35652322 0.103664674 -0.02176492 0.065447934 -0.33112374
0.28552693 -0.38105094 -0.14397302 -0.15511139 0.22356533 0.2821395 0.29492027 0.22087915
-0.50327677 0.028354926 0.30556828 -0.11499227 0.35478625 -0.08252072 -0.026352486 0.19379008
-0.1767011 -0.1328254 -0.049838882 0.15846889 -0.2691842 0.15520258 0.016276386 0.29323205
-0.60232687 -0.50724185 -0.2805385 -0.23830661 0.0828623 0.11149072 -0.033350166 0.18048249
0.21951815 0.11926544 -0.13623461 0.124884956 -0.29995525 -0.5526898 -0.19614613 -0.075578295
0.33470216 0.1643178 0.16262516 0.17952713 -0.08135251 -0.07517065 -0.085322306 -0.190297
-0.45121983 0.2627746 -0.0107813 0.055549856 0.19591701 0.3279803 0.3761945 -0.46552673
-0.34361747 -0.43657574 0.10155534 -0.20084487 -0.123041965 0.018242385 -0.7977313 -0.4008186
-0.13600037 0.14373308 -0.027746728 -0.24772207 -0.11899185 0.02258641 -0.05881384 -0.56360966
0.10325216 0.1112625 0.028176898 -0.047971945 0.15262592 0.07189039 0.07962636 0.12068687
-0.010055275 0.1407576 -0.058846068 0.13313659 -0.037486024 -0.04556425 -0.12292869 -0.08759662
0.064859286 -0.14301132 -0.08955964 -0.083034046 0.3757806 0.0149355605 -0.15019743 0.00060300727
-0.20706232 0.11493865 -0.13298948 0.25056115 0.06871659 0.28894085 -0.018914415 0.08807571
-0.1783866 -0.22067474 -0.27693748 -0.1926935 0.17818967 0.09676692 0.44676077 0.0112898545
-0.07911581 -0.11867179 -0.27399224 0.36338764 0.2890485 -0.09731208 -0.4659272 0.40458414
0.08630871 -0.13040411 -0.034838326 0.3406338 -0.23966753 -0.3662869 -0.1473252 0.4142165
0.15077145 -0.3364068 0.078786835 0.28175336 -0.071601 0.078921646 0.2852592 -0.073770024
-0.3332693 0.11486056 0.14623274 -0.121600255 -0.32332808 0.16794653 0.071405664 -0.085786074
-0.1779121 0.1117754 0.30646685 0.10338821 0.179325 0.33642042 -0.21372828 0.26045612
0.110969104 0.20675842 -0.18667132 0.1814224 0.15766612 0.10479768 0.13701989 -0.15255861
0.07556274 -0.29496467 0.18480985 -0.19139448 -0.3483675 0.17366411 -0.16756749 -0.4244492
-0.38119793 0.18718767 0.1512739 -0.010810755 0.30732363 0.17669511 0.04357846 0.2421071
-0.24999848 -0.012501744 0.09086999 0.21316297 -0.07662993 -0.3902897 -0.21200259 -0.16876103
-0.4178522 -0.36401314 -0.026014404 -0.050959732 0.33323726 0.13317694 0.2166285 0.11205153

2.bias f4 [10]
00000000: a61e 88be 1d8d 64be 961b 263e c4d6 d73e
00000010: 41ba c13e 9372 5ebe b6f9 963e 6be8 613e
00000020: 8415 603d f239 2f3e
-0.26585883 -0.22319455 0.1622146 0.4215604 0.37837413 -0.21723394 0.2948739 0.22061317
0.05470802 0.17111948

4.weight f4 [2, 10]
00000000: 4652 1dbf 833a 18bf 284b bebe 53c1 793f
00000010: e6c6 3bbd 64a7 afbe 197a 353f 5d0d 8b3e
00000020: 4d20 8a3e 8fee d4be 2d8d 1e3f fd58 173f
00000030: 5a55 c03e e18f 7abf bba8 763d 00bb ae3e
00000040: 3084 34bf 32c1 88be eab1 89be 5adc d53e
-0.61453664 -0.5946428 -0.37166715 0.97560614 -0.04584398 -0.34307396 0.7088943 0.27158633
0.2697777 -0.41588256 0.6193417 0.5912016 0.37565118 -0.9787579 0.060219508 0.34127045
-0.705142 -0.26709896 -0.2689355 0.41769677

4.bias f4 [2]
00000000: 34dd c23d 1fa2 07be
0.095148474 -0.13245438
