workspace/results/ascad/KAN_ASCADf/6/KAN-2Hidden.ckpt (torch, 259902 bytes, 23 tensors)

biases.0.weight f4 [1, 5]
-0.028703243 -0.032987345 -0.029848428 -0.023135344 -0.029117245
00000000: 1023 ebbc bd1d 07bd b184 f4bc 5586 bdbc
00000010: 4a87 eebc

biases.2.weight f4 [1, 2]
0.004277332 -0.017534453
00000000: dd28 8c3b 6aa4 8fbc

act_fun.0.grid f4 [3500, 4]
-2.545021 -0.8454721 0.85407686 2.5536256 -2.5363858 -0.7789854 0.978415 2.7358153
-2.5615292 -0.7429862 1.0755568 2.8940997 -2.5832357 -0.8347337 0.9137683 2.66227
-2.7364957 -0.9313644 0.8737669 2.678898 -2.704703 -0.9685757 0.76755166 2.503679
-2.447887 -0.8199011 0.8080847 2.4360704 -2.3023553 -0.69827294 0.9058094 2.5098915
-2.2530813 -0.6753843 0.90231276 2.4800096 -2.1725655 -0.68492365 0.80271816 2.29036
-2.1242533 -0.6043272 0.91559887 2.435525 -2.5592258 -0.7280221 1.1031816 2.934385
-3.0280764 -1.17659 0.6748965 2.5263827 -2.9866586 -1.1403681 0.70592237 2.5522127
-3.078343 -1.3153129 0.4477172 2.2107472 -2.5887034 -0.79771376 0.9932759 2.7842653
-2.2696753 -0.79941285 0.67084956 2.1411119 -1.9596926 -0.5286237 0.9024452 2.3335142
-2.0620837 -0.58840334 0.88527703 2.3589573 -2.141403 -0.7121242 0.7171545 2.146433
-2.2713652 -0.8183986 0.634568 2.0875344 -2.7343674 -1.0703918 0.5935838 2.2575593
-2.6783915 -0.83060765 1.0171762 2.8649597 -2.574309 -0.59993196 1.3744452 3.3488224
-2.535797 -0.7451408 1.0455155 2.8361716 -2.4749355 -0.83570147 0.8035326 2.4427667
-2.1323154 -0.5443139 1.0436876 2.6316888 -2.4754958 -0.87847996 0.7185359 2.3155518
-2.512442 -0.7443831 1.0236759 2.7917347 -2.8784037 -0.94020605 0.99799156 2.9361892
-2.755342 -0.9681494 0.81904316 2.6062355 -2.4459639 -0.6792178 1.0875282 2.8542743
-2.7629025 -0.9691148 0.82467294 2.6184604 -2.348642 -0.73363864 0.8813648 2.4963682
-2.2922347 -0.8844094 0.5234158 1.9312408 -2.3082309 -0.8045536 0.6991236 2.2028008
-2.4281754 -0.84667706 0.7348213 2.3163195 -2.4905453 -0.8655267 0.7594919 2.3845105
-2.4004414 -0.7391515 0.92213845 2.5834281 -2.0725691 -0.38942623 1.2937167 2.9768593
-2.0245488 -0.49461687 1.035315 2.5652468 -2.04012 -0.6031817 0.83375645 2.2706945
-2.2558923 -0.76273465 0.730423 2.2235804 -2.5714257 -1.0127968 0.54583216 2.104461
-3.0803547 -1.3629987 0.35435724 2.071713 -2.6477983 -0.9298619 0.7880745 2.5060108
-2.8489258 -1.0115385 0.8258488 2.663236 -2.3157427 -0.63771856 1.0403056 2.7183297
-2.7494187 -1.0586245 0.6321697 2.3229637 -2.9748626 -1.1799033 0.61505604 2.410015
-2.9453883 -1.3078123 0.32976365 1.9673395 -2.731151 -1.1651525 0.400846 1.9668446
-2.690894 -0.9431045 0.8046849 2.5524743 -2.3993309 -0.7319362 0.9354584 2.602853
-2.8039389 -0.87968826 1.0445623 2.968813 -2.4115567 -0.53676283 1.338031 3.2128248
-2.5085554 -0.624385 1.2597854 3.1439557 -2.3857377 -0.6178659 1.1500058 2.9178774
-2.395283 -0.6516161 1.0920508 2.8357174 -2.2368665 -0.6296526 0.97756124 2.584775
-2.305847 -0.6737313 0.9583843 2.5904996 -2.5244944 -0.8914833 0.7415278 2.3745387
-2.7048826 -0.7625085 1.1798656 3.1222396 -2.3099036 -0.8096838 0.690536 2.1907558
00000000: a0e1 22c0 dc70 58bf c8a4 5a3f 9a6e 2340
00000010: 2554 22c0 966b 47bf 6879 7a3f 9917 2f40
00000020: 18f0 23c0 5834 3ebf d8ab 893f ee38 3940
00000030: bc53 25c0 1cb1 55bf b8ec 693f a262 2a40
00000040: bf22 2fc0 e66d 6ebf 30af 5f3f 1173 2b40
00000050: db19 2dc0 94f4 77bf 447e 443f 473c 2040
00000060: 2eaa 1cc0 0ae5 51bf a4de 4e3f 94e8 1b40
00000070: ca59 13c0 04c2 32bf 20e3 673f 10a2 2040
00000080: 7c32 10c0 fce5 2cbf f8fd 663f 7ab8 1e40
00000090: 500b 0bc0 2857 2fbf f07e 4d3f 4295 1240
000000a0: c4f3 07c0 30b5 1abf b064 6a3f a4df 1b40
000000b0: 5bca 23c0 a85f 3abf 0e35 8d3f f7cc 3b40
000000c0: 01cc 41c0 809a 96bf 04c6 2c3f 41b0 2140
000000d0: 6a25 3fc0 95f7 91bf 54b7 343f 7457 2340
000000e0: 9203 45c0 2c5c a8bf 303b e53e e27c 0d40
000000f0: 51ad 25c0 f836 4cbf 5447 7e3f 6731 3240
00000100: 5c42 11c0 52a6 4cbf ccbc 2b3f fa07 0940
00000110: 35d7 fabf e253 07bf a606 673f 4c58 1540
00000120: 2ef9 03c0 9aa1 16bf 84a1 623f 28f9 1640
00000130: bf0c 09c0 c64d 36bf 7097 373f 295f 0940
00000140: 0c5e 11c0 9282 51bf 0c73 223f 2a9a 0540
00000150: e0ff 2ec0 9902 89bf 1cf5 173f da7b 1040
00000160: c46a 2bc0 b4a2 54bf d432 823f 805b 3740
00000170: 7bc1 24c0 2495 19bf d2ed af3f 1b53 5640
00000180: 804a 22c0 8cc1 3ebf 74d3 853f d683 3540
00000190: 5865 1ec0 88f0 55bf 50b4 4d3f 4a56 1c40
000001a0: db77 08c0 2858 0bbf 8e97 853f 976d 2840
000001b0: 866e 1ec0 10e4 60bf f8f1 373f 0032 1440
000001c0: dacb 20c0 e48f 3ebf d007 833f c8ab 3240
000001d0: c437 38c0 58b1 70bf 607c 7f3f 86ea 3b40
000001e0: 8657 30c0 a4d8 77bf d0ac 513f 90cc 2640
000001f0: ac8a 1cc0 38e1 2dbf 2034 8b3f 6eac 3640
00000200: 65d3 30c0 e817 78bf c41d 533f db94 2740
00000210: 2750 16c0 becf 3bbf 20a1 613f 7fc4 1f40
00000220: f9b3 12c0 a868 62bf 94fe 053f e632 f73f
00000230: 0eba 13c0 3af7 4dbf c4f9 323f b0fa 0c40
00000240: 3a67 1bc0 d4bf 58bf 401d 3c3f 943e 1440
00000250: 1865 1fc0 2893 5dbf 106e 423f d29b 1840
00000260: d5a0 19c0 0839 3dbf 4411 6c3f e356 2540
00000270: f9a4 04c0 e062 c7be 8298 a53f dd84 3e40
00000280: 3592 01c0 6c3e fdbe 3485 843f 012d 2440
00000290: 5391 02c0 1e6a 1abf 1071 553f 0f53 1140
000002a0: 8a60 10c0 9442 43bf 00fd 3a3f 244f 0e40
000002b0: 3d92 24c0 53a3 81bf a8bb 0b3f 7daf 0640
000002c0: 8824 45c0 be76 aebf 506e b53e f296 0440
000002d0: 8775 29c0 6e0b 6ebf 40bf 493f 7b62 2040
000002e0: cd54 36c0 187a 81bf d46a 533f 7572 2a40
000002f0: 2135 14c0 8641 23bf bc28 853f 1df9 2d40
00000300: 7af6 2fc0 0281 87bf e0d5 213f 70ab 1440
00000310: 2664 3ec0 1207 97bf 5074 1d3f b03d 1a40
00000320: 3e81 3cc0 6566 a7bf c8d6 a83e c8d1 fb3f
00000330: 2ecb 2ec0 b823 95bf b03b cd3e 90c1 fb3f
00000340: 9b37 2cc0 4c6f 71bf d4ff 4d3f bd5b 2340
00000350: a38e 19c0 2c60 3bbf 347a 6f3f 2595 2640
00000360: bc73 33c0 4033 61bf 38b4 853f 0801 3e40
00000370: f256 1ac0 4a69 09bf 9a44 ab3f ec9e 4d40
00000380: 2c8c 20c0 b2d7 1fbf a640 a13f 9236 4940
00000390: edaf 18c0 762c 1ebf 6433 933f 81be 3a40
000003a0: 514c 19c0 50d0 26bf 52c8 8b3f 657c 3540
000003b0: d228 0fc0 ea30 21bf 7441 7a3f f46c 2540
000003c0: ff92 13c0 a879 2cbf ac58 753f bfca 2540
000003d0: 5191 21c0 4038 64bf c4d4 3d3f 71f8 1740
000003e0: cc1c 2dc0 c233 43bf d605 973f c6d2 4740
000003f0: 76d5 13c0 7047 4fbf f8c6 303f 5835 0c40

act_fun.0.coef f4 [3500, 6]
-0.12697235 -0.12797728 -0.06370643 0.114580944 -0.15823251 0.047453854 -0.46892187 -0.10154044
-0.012175851 0.05761774 -0.17115754 -0.20577863 -0.1431089 -0.049849525 -0.04126604 0.045869417
-0.15897638 -0.36928403 -0.16397412 -0.09274318 -0.047151256 0.03511598 -0.15118267 0.13671008
-0.09800068 -0.045644503 -0.01205622 -0.017919227 -0.122910425 0.06713973 -0.09120538 -0.17807738
-0.06951303 0.018548464 0.015224259 0.21059473 -0.12436781 -0.20635055 0.014859231 0.007872354
-0.06681693 0.18511085 0.03328555 -0.18830712 -0.010279019 0.05660949 -0.13341714 0.16693085
-0.12829506 -0.09841945 -0.051952463 0.038265992 -0.03759893 0.121376336 -0.115411974 -0.08601276
-0.13093226 0.032199845 0.14018391 0.0073774206 0.034508772 -0.26574397 -0.08384575 0.12239321
0.043367084 -0.118508376 0.025869034 -0.046492394 -0.08440313 0.068892315 -0.09070561 -0.26124597
-0.022464931 -0.20727448 0.047097683 -0.020422127 -0.10531791 0.18797334 -0.25766337 -0.15033959
-0.02131597 -0.030415257 0.05832277 -0.18110569 -0.18099007 -0.41266143 0.020722637 0.041744772
-0.10294424 -0.065940715 -0.0913643 0.2549012 -0.026517492 -0.11058 -0.09314822 -0.13881548
-0.35467842 -0.11719966 -0.0020528478 -0.0042710206 -0.008201876 0.007936843 0.44870827 0.16901965
-0.10268243 -0.038383424 -0.13564955 -0.021395363 0.05343401 0.097277634 -0.022256386 -0.038118966
-0.14793842 -0.17699061 -0.05194535 -0.021008294 0.014413385 -0.046363316 -0.04406113 0.043525014
0.19444017 -0.094161466 0.014196926 0.009822634 -0.16491604 -0.12304829 0.30774808 -0.01939297
-0.06533932 0.029774241 -0.043607894 -0.21397065 -0.16930774 -0.08577167 -0.09521978 0.14034852
-0.07063068 -0.008491091 0.028074166 -0.14429322 0.032404173 0.018171754 -0.23463297 -0.05081973
-0.012115826 0.09355835 -0.08992529 -0.022637777 0.14106026 -0.19098191 -0.11747999 0.009118641
0.057364594 -0.0033201436 -0.21520047 -0.08947995 0.0422604 0.042981256 -0.047646236 0.023709595
-0.12744027 0.14953694 -0.13577557 0.051904198 -0.028950468 -0.016359735 -0.07834971 0.046458937
0.023587238 0.009869814 -0.102816 0.02719808 0.031158416 0.118631355 -0.23910704 -0.102536745
-0.040270586 0.024863504 -0.048306108 0.21474804 -0.18821716 -0.22617887 -0.012486836 0.035561744
-0.13342568 0.07702935 -0.13340107 -0.1848162 -0.041984886 0.05514602 -0.052194964 0.1788995
-0.41216668 -0.04394844 -0.05444878 -0.00094068586 0.013474794 -0.06874732 -0.005653476 -0.26055863
-0.0012149704 0.013500759 0.010037348 0.4544253 -0.2397183 -0.14566629 -0.08742784 -0.0061255908
0.09954479 0.3114287 -0.35199234 -0.08496257 0.0070805456 -0.005089265 0.04787814 -0.10070571
-0.16715738 -0.09355795 0.018562205 -0.058519572 0.059605133 0.08594333 -0.008581038 -0.043594472
-0.053418353 0.024447702 -0.044357933 -0.191897 -0.0042062304 -0.15573256 -0.092407435 -0.030184483
0.31415808 0.12734406 -0.18730994 -0.17109957 -0.089186065 0.13495468 0.21524073 -0.2116556
0.055506617 -0.0141832745 -0.16851853 0.07294724 0.29354784 0.19130953 -0.20937331 0.09318621
-0.07671457 -0.07769429 0.17395258 -0.041948617 -0.16100481 0.10823269 -0.077043734 -0.020266121
00000000: 0a05 02be 7a0c 03be 8478 82bd 6aa9 ea3d
00000010: b407 22be f95e 423d 8716 f0be 6ff4 cfbd
00000020: 387d 47bc 9400 6c3d ec43 2fbe a2b7 52be
00000030: 248b 12be 042f 4cbd 9406 29bd 92e1 3b3d
00000040: b4ca 22be cc12 bdbe d5e8 27be 23f0 bdbd
00000050: ad21 41bd c6d5 0f3d a1cf 1abe bafd 0b3e
00000060: 95b4 c8bd bbf5 3abd 7487 45bc 58cb 92bc
00000070: 76b8 fbbd 8e80 893d e3c9 babd eb59 36be
00000080: d95c 8ebd f3f2 973c 2c6f 793c 25a6 573e
00000090: 8db4 febd 8f4d 53be 2274 733c 0cfb 003c
000000a0: 51d7 88bd b38d 3d3e 6e56 083d 95d3 40be
000000b0: 5569 28bc 5adf 673d 819e 08be ecef 2a3e
000000c0: c85f 03be 2390 c9bd 1bcc 54bd cdbc 1c3d
000000d0: 5601 1abd 2894 f83d 1d5d ecbd 7527 b0bd
000000e0: 1b13 06be fce3 033d 5f8c 0f3e 4abe f13b
000000f0: 1259 0d3d 980f 88be 52b7 abbd 4ba9 fa3d
00000100: afa1 313d 85b4 f2bd 4ceb d33c cf6e 3ebd
00000110: 8cdb acbd 6a17 8d3d ddc3 b9bd 08c2 85be
00000120: 6008 b8bc c33f 54be 80e9 403d 4e4c a7bc
00000130: ebb0 d7bd 157c 403e 74ec 83be 9ff2 19be
00000140: d49e aebc 6b29 f9bc dbe3 6e3d c573 39be
00000150: 7655 39be 5c48 d3be 85c2 a93c 91fc 2a3d
00000160: 6ed4 d2bd ed0b 87bd 351d bbbd 6982 823e
00000170: 363b d9bc c477 e2bd 7ec4 bebd a525 0ebe
00000180: 6998 b5be 6006 f0bd 1289 06bb ebf3 8bbb
00000190: 2961 06bc 8809 023c 17bd e53e 7d13 2d3e
000001a0: 2a4b d2bd f037 1dbd b7e7 0abe 5445 afbc
000001b0: 9fdd 5a3d 7f39 c73d 0653 b6bc a222 1cbd
000001c0: 2b7d 17be 073d 35be a6c4 54bd 9619 acbc
000001d0: 1e26 6c3c 76e7 3dbd 7279 34bd 4947 323d
000001e0: 531b 473e bad7 c0bd 399a 683c 1def 203c
000001f0: c0df 28be be00 fcbd 2891 9d3e 01de 9ebc
00000200: 9fd0 85bd 1ce9 f33c 319e 32bd 1f1b 5bbe
00000210: 025f 2dbe 0fa9 afbd 9702 c3bd 86b7 0f3e
00000220: d1a6 90bd 381e 0bbc cbfb e53c 9ac1 13be
00000230: 3dba 043d eedc 943c a043 70be 5928 50bd
00000240: 7581 46bc 859b bf3d c02a b8bd dc72 b9bc
00000250: 1a72 103e c390 43be 5999 f0bd 5a66 153c
00000260: 23f7 6a3d c496 59bb 835d 5cbe 4441 b7bd
00000270: 3e19 2d3d 1d0d 303d b328 43bd a03a c23c
00000280: b47f 02be 3620 193e c008 0bbe 7f99 543d
00000290: 8829 edbc da04 86bc d075 a0bd ba4b 3e3d
000002a0: 063a c13c 00b5 213c 3291 d2bd 82ce de3c
000002b0: ef3f ff3c fff4 f23d 7ad8 74be c9fe d1bd
000002c0: c5f2 24bd 8cae cb3c a0dc 45bd e9e6 5b3e
000002d0: 00bc 40be 6f9b 67be 9695 4cbc 31a9 113d
000002e0: bea0 08be 90c1 9d3d 4a9a 08be 7540 3dbe
000002f0: 58f8 2bbd cbe0 613d 63ca 55bd 6e31 373e
00000300: 8307 d3be 4803 34bd af05 5fbd 5c98 76ba
00000310: 62c5 5c3c 65cb 8cbd cb40 b9bb f167 85be
00000320: a43f 9fba 4a32 5d3c b073 243c 6faa e83e
00000330: b778 75be 8b29 15be 5e0d b3bd 2eb9 c8bb
00000340: 24de cb3d 9573 9f3e 5738 b4be db00 aebd
00000350: ec03 e83b d9c3 a6bb de1b 443d cc3e cebd
00000360: 4e2b 2bbe 4f9b bfbd c40f 983c 38b2 6fbd
00000370: 8324 743d 0e03 b03d 7b97 0cbc 1e90 32bd
00000380: 34cd 5abd 8c46 c83c aab0 35bd a680 44be
00000390: 6bd4 89bb 5b78 1fbe 1c40 bdbd 7345 f7bc
000003a0: 54d9 a03e 7b66 023e 2dce 3fbe ba34 2fbe
000003b0: 2fa7 b6bd 8f31 0a3e 1168 5c3e 3fbc 58be
000003c0: e85a 633d f760 68bc 1f90 2cbe 5d65 953d
000003d0: e74b 963e a5e6 433e f565 56be 69d8 be3d
000003e0: 871c 9dbd 2f1e 9fbd a020 323e 50d2 2bbd
000003f0: 72de 24be 1aa9 dd3d 1bc9 9dbd 2305 a6bc

act_fun.0.scale_base f4 [3500]
-0.28917834 -0.37813702 -0.18845649 -0.17177008 0.055207483 0.17243169 -0.1262265 -0.52729094
0.032104313 -0.15518898 0.11345826 -0.03224938 -0.109159656 0.19582495 0.078343265 -0.20849337
-0.31710845 -0.47582522 -0.053864695 0.07625804 -0.058991216 -0.41792986 -0.042593665 0.16164215
0.20317292 -0.37700394 -0.13015686 -0.051755052 0.33898646 0.29262763 0.09708752 -0.17855799
-0.13916187 0.069316305 0.030359557 0.005258174 0.02654431 -0.09038329 0.3536854 0.27463773
0.24917631 0.2291903 -0.0487661 -0.055160616 0.13147524 0.29582328 -0.36695668 -0.30050737
-0.28801385 0.086247504 -0.11391258 -0.16695486 -0.32313526 -0.13541274 0.019360472 -0.10032182
-0.18418297 0.06678015 0.2518008 0.6526743 -0.37657452 -0.37368605 0.51113105 -0.1082616
-0.13077934 0.08494883 0.17829688 0.2568897 -0.2989337 0.54699945 -0.09970824 0.17019369
-0.19589251 -0.003350698 -0.15433604 0.009622167 -0.111282416 0.30998987 -0.022264447 0.09931073
-0.0817847 0.08983512 -0.014153536 -0.09171061 0.19247511 -0.057742372 0.19676536 0.17796355
-0.103042215 0.5309555 -0.41213372 -0.04238296 -0.2750972 -0.22152726 0.021184357 0.13273372
0.2824463 -0.2367399 0.19224635 0.20897423 -0.3733403 -0.27725327 -0.025887284 -0.0145019945
-0.01644693 0.13849907 0.23939417 0.09398454 0.08692362 -0.087591484 0.11254574 -0.21549927
-0.21874811 -0.5485488 -0.14549041 -0.11229768 0.24120556 0.068292364 -0.33947465 -0.2017326
-0.044128235 0.07170125 0.42598024 -0.03513821 -0.011639639 0.16972998 0.2693883 0.2693499
-0.041472793 -0.11166294 0.01482389 0.30091783 0.22321665 0.30771238 0.40008587 -0.34504715
0.14278497 -0.08317765 -0.24308343 -0.3758823 0.06026611 -0.32799146 0.005400729 0.029810132
-0.03971487 0.051133215 0.05006862 0.3235551 0.13830686 0.19092582 -0.034759726 -0.093526624
0.013924591 -0.04396261 -0.27640906 0.018123096 -0.077289924 0.054094065 -0.038948983 0.0077589815
0.2001275 -0.21476142 -0.014470088 -0.09008573 0.14227332 -0.16645831 0.23059799 0.1262615
-0.12773988 0.032951612 -0.16772388 -0.063929625 -0.17986292 -0.306971 0.054403577 -0.37437132
-0.06439754 -0.019539544 -0.32025892 0.024081456 0.3652428 -0.032311685 0.20121577 0.16794838
-0.19319738 -0.26234248 0.17197913 0.022902653 0.12128933 -0.3255668 -0.14250183 -0.23991635
-0.12925918 -0.009989158 -0.013974576 -0.08601243 -0.017992 0.18108344 -0.01673342 0.22291505
-0.13419199 -0.29319075 -0.09266229 -0.06474669 0.08018261 -0.3069741 0.092338465 -0.1365693
0.1993836 0.10226781 0.017639415 0.04616522 -0.233477 0.14357284 -0.1657364 -0.32968667
0.17043215 0.20429482 -0.12365247 0.048285466 -0.007739034 -0.12518288 0.005273287 0.111278825
0.081423156 0.32633832 0.12693852 0.0513814 -0.07350049 0.10228716 -0.10226 -0.31814954
0.039020482 -0.08336386 -0.09965512 0.14663689 -0.3043591 -0.045742847 0.26781455 -0.40808988
-0.3280196 -0.35203138 0.007080675 -0.16390921 0.2293 -0.044350483 -0.06745326 -0.30467963
-0.06908822 0.061137255 0.10912915 -0.19877093 -0.20495096 -0.07057106 0.46305206 0.007896628
00000000: 2f0f 94be 2d9b c1be bdfa 40be 7fe4 2fbe
00000010: 3e21 623d ef91 303e 8541 01be 8afc 06bf
00000020: d07f 033d dce9 1ebe ce5c e83d ed17 04bd
00000030: 198f dfbd 5686 483e 6f72 a03d 497f 55be
00000040: 0a5c a2be 5d9f f3be 3aa1 5cbd 2d2d 9c3d
00000050: c6a0 71bd e7fa d5be b276 2ebd 8585 253e
00000060: 900c 503e a906 c1be d747 05be 1bfd 53bd
00000070: a28f ad3e 4ad3 953e d2d5 c63d e8d7 36be
00000080: 7380 0ebe b5f5 8d3d 9bb4 f83c c34c ac3b
00000090: 7473 d93c e01a b9bd 4116 b53e 519d 8c3e
000000a0: 1328 7f3e ddb0 6a3e f6be 47bd 19f0 61bd
000000b0: 72a1 063e 2676 973e bfe1 bbbe 1adc 99be
000000c0: 8d76 93be 88a2 b03d 004b e9bd 37f6 2abe
000000d0: fc71 a5be a3a9 0abe da99 9e3c 8775 cdbd
000000e0: 769a 3cbe 08c4 883d 09ec 803e aa15 273f
000000f0: 60ce c0be c753 bfbe 7cd9 023f 42b8 ddbd
00000100: 05eb 05be a7f9 ad3d 7593 363e 0c87 833e
00000110: d70d 99be 2808 0c3f d533 ccbd 4147 2e3e
00000120: 0c98 48be 6297 5bbb 440a 1ebe 4ba6 1d3c
00000130: 09e8 e3bd feb6 9e3e ee63 b6bc 6d63 cb3d
00000140: bd7e a7bd 7afb b73d 3ce4 67bc c6d2 bbbd
00000150: 3218 453e 4483 6cbd dc7c 493e 143c 363e
00000160: cc07 d3bd b3ec 073f 3103 d3be c199 2dbd
00000170: 8ad9 8cbe 0bd8 62be d18a ad3c 59eb 073e
00000180: cd9c 903e f26b 72be 3adc 443e 57fd 553e
00000190: 7626 bfbe 24f4 8dbe 9211 d4bc c699 6dbc
000001a0: b6bb 86bc b3d2 0d3e bf23 753e f77a c03d
000001b0: 0305 b23d 2a63 b3bd 627e e63d d7ab 5cbe
000001c0: 81ff 5fbe b26d 0cbf 70fb 14be 53fc e5bd
000001d0: 97fe 763e dedc 8b3d 9fcf adbe fe92 4ebe
000001e0: cfbf 34bd 1bd8 923d 151a da3e 15ed 0fbd
000001f0: 2fb4 3ebc b2cd 2d3e 43ed 893e 3be8 893e
00000200: 60df 29bd 8aaf e4bd e7df 723c e711 9a3e
00000210: e892 643e 7a8c 9d3e 0ed8 cc3e 05aa b0be
00000220: 3936 123e 0b59 aabd ddea 78be a573 c0be
00000230: 99d9 763d 7fee a7be 99f8 b03b 6134 f43c
00000240: 0fac 22bd 1071 513d c114 4d3d 04a9 a53e
00000250: 50a0 0d3e 0f82 433e 3760 0ebd e38a bfbd
00000260: f823 643c 2312 34bd 7d85 8dbe e376 943c
00000270: 2e4a 9ebd bd91 5d3d f888 1fbd 0e3f fe3b
00000280: 39ee 4c3e 6bea 5bbe f313 6dbc de7e b8bd
00000290: 19b0 113e 0c74 2abe e121 6c3e b24a 013e
000002a0: 3ece 02be 45f8 063d cfbf 2bbe 89ed 82bd
000002b0: fc2d 38be 4e2b 9dbe 49d6 5e3d 99ad bfbe
000002c0: dce2 83bd 6511 a0bc faf8 a3be 7946 c53c
000002d0: 1b01 bb3e 4259 04bd 820b 4e3e a9fa 2b3e
000002e0: 89d5 45be c151 86be 4c1b 303e 589e bb3c
000002f0: 8a66 f83d b1b0 a6be 00ec 11be a2ac 75be
00000300: 855c 04be 91a9 23bc 9ff5 64bc 4927 b0bd
00000310: f563 93bc f06d 393e 8614 89bc d843 643e
00000320: a069 09be 191d 96be bac5 bdbd ea99 84bd
00000330: c836 a43d b62b 9dbe f31b bd3d d3d8 0bbe
00000340: 372b 4c3e c971 d13d 8980 903c be17 3d3d
00000350: 9814 6fbe c204 133e ceb6 29be b1cc a8be
00000360: c485 2e3e a932 513e 823d fdbd fbc6 453d
00000370: b997 fdbb f12f 00be 8acb ac3b 27e6 e33d
00000380: 2fc1 a63d d115 a73e 2cfc 013e 4e75 523d
00000390: 6d87 96bd ee7b d13d b16d d1bd 7fe4 a2be
000003a0: f1d3 1f3d acba aabd fc17 ccbd fb27 163e
000003b0: f5d4 9bbe da5c 3bbd fd1e 893e 28f1 d0be
000003c0: 2ff2 a7be 753d b4be 0205 e83b d1d7 27be
000003d0: 9fcd 6a3e daa8 35bd ef24 8abd f8fe 9bbe
000003e0: 207e 8dbd 0f6b 7a3d 1b7f df3d 9b8a 4bbe
000003f0: aade 51be 8f87 90bd 2915 ed3e dc60 013c

act_fun.0.scale_sp f4 [3500]
0.9911203 1.0052953 0.89892477 0.9410624 0.8194371 0.9391726 0.9368065 0.97225285
0.8406138 0.99033123 1.0835516 0.972812 0.97355443 0.86635673 1.1475123 1.0795431
0.8330215 1.1443063 0.90258616 0.7404856 0.9374032 0.89623904 1.0655867 0.97874254
0.9397108 0.81885946 0.7100986 0.81655663 0.8618091 0.8155814 1.0278043 0.99288106
0.7588855 1.01098 1.0103834 0.7503651 0.82378197 0.7730815 1.1462878 1.1319324
1.1560692 1.081665 0.9482429 0.7709058 0.98618585 1.1488352 0.9829506 0.96301967
1.0621091 0.79462856 1.3236139 1.3484614 1.1144409 0.8076465 0.76069534 0.696676
0.7221111 0.82804286 0.7319224 0.71743596 0.83237845 0.9470678 0.9984428 1.0783676
0.92547554 1.0382456 0.88955724 0.87431175 0.9752607 0.7916228 0.87680465 0.96337944
1.050665 0.9616252 0.7117251 1.060334 1.088247 1.1188531 0.79245913 1.23103
0.7725811 0.86141443 0.99927515 0.65276 0.707639 0.7860465 0.84615517 1.0741663
0.60168356 0.96076804 1.2958694 0.9336081 0.94433075 0.8834305 0.8818306 0.80821896
0.793783 0.8614473 1.2001942 1.2869623 1.214576 0.95051533 0.86216044 0.77360624
1.0499227 1.067072 1.1402386 0.97520906 0.87332475 0.95307225 0.7770831 0.80152
0.79781944 0.86454177 1.0219668 1.0695794 0.95476085 0.89830357 0.8865121 1.3813041
0.97059244 0.9921238 0.8245875 0.92307943 1.0406011 0.7704153 0.96903276 1.0061913
1.1162901 0.9970243 1.0468026 1.1628568 1.0482696 1.0751057 1.0780065 0.8470484
1.0271608 0.7933856 0.9523704 0.9160874 1.1207836 0.8145633 1.197605 0.95323825
0.7903087 0.7381304 0.8522503 0.92565495 1.1170012 1.1484152 0.91732997 0.7276623
0.8368197 0.9953123 1.1306348 1.100755 1.1711977 1.2974944 0.84046644 0.85719264
0.81061345 0.79081196 0.65173984 0.7886331 0.5669795 1.0558846 1.2073805 0.9660989
1.0544983 0.9015929 0.93249595 0.85883033 0.8491448 0.80526614 0.89917684 0.8907994
0.7466648 0.8533148 0.92408425 1.0910337 1.2647988 1.0015014 0.8435435 0.81883746
0.96732336 0.83750117 0.92378926 0.7612827 0.8244343 0.6926747 0.93894184 0.8813987
0.8696362 1.0849401 1.039225 0.75585383 1.0536228 0.84814113 1.057979 0.80754644
0.9660944 0.81851447 0.9398496 0.8459906 0.72346914 0.90226233 0.91257936 1.0982893
1.0076988 1.1199275 0.9838924 0.8640554 0.8368346 0.77475303 0.8197713 0.56987005
0.6997782 0.7810489 0.9678991 0.8749846 0.92210585 0.85742843 1.1141324 1.0473553
1.0950447 1.1510328 1.1737853 0.91988796 0.7164988 0.60800624 0.8537959 0.7077697
0.9429982 1.0065866 0.7084059 0.85034925 1.0035183 0.85291845 0.6260657 0.6623019
0.8657994 0.9053044 1.0750425 1.0627446 0.719493 0.8373295 1.1408826 0.9816219
0.71487844 0.8791888 0.68006206 0.6645916 1.0527278 0.9124107 0.9969884 0.9405795
00000000: 0fba 7d3f 84ad 803f ef1f 663f 77e9 703f
00000010: a1c6 513f 9e6d 703f 8dd2 6f3f 90e5 783f
00000020: 7732 573f 5986 7d3f d2b1 8a3f 350a 793f
00000030: dd3a 793f 8ec9 5d3f afe1 923f 782e 8a3f
00000040: e640 553f a178 923f e30f 673f 7790 3d3f
00000050: a8f9 6f3f ec6f 653f 2565 883f df8e 7a3f
00000060: e390 703f c6a0 513f 06c9 353f db09 513f
00000070: 859f 5c3f f1c9 503f 178f 833f 742d 7e3f
00000080: 5246 423f cb67 813f 3e54 813f ed17 403f
00000090: 60e3 523f abe8 453f 8fb9 923f 29e3 903f
000000a0: 13fa 933f 0074 8a3f 0cc0 723f 155a 453f
000000b0: ad76 7c3f 080d 933f a7a2 7b3f 7588 763f
000000c0: 31f3 873f c76c 4b3f 2e6c a93f 629a ac3f
000000d0: 00a6 8e3f ecc1 4e3f eebc 423f 5c59 323f
000000e0: 46dc 383f 9efa 533f 445f 3b3f e2a9 373f
000000f0: c116 553f 0973 723f f399 7f3f f307 8a3f
00000100: f7eb 6c3f 3be5 843f 06ba 633f e5d2 5f3f
00000110: afaa 793f cba7 4a3f 4576 603f 09a0 763f
00000120: 317c 863f 122d 763f 9e33 363f 06b9 873f
00000130: ad4b 8b3f 9436 8f3f 9ade 4a3f 6492 9d3f
00000140: e0c7 453f a885 5c3f 7fd0 7f3f 481b 273f
00000150: d427 353f 583a 493f a09d 583f 487e 893f
00000160: ef07 1a3f e5f4 753f 0cdf a53f f100 6f3f
00000170: a9bf 713f 8028 623f a6bf 613f 70e7 4e3f
00000180: 5d35 4b3f cf87 5c3f f79f 993f 2ebb a43f
00000190: 3a77 9b3f f954 733f 8cb6 5c3f 0f0b 463f
000001a0: de63 863f d195 883f 57f3 913f 4da7 793f
000001b0: 3692 5f3f 8bfc 733f ebee 463f 6a30 4d3f
000001c0: e53d 4c3f 9c52 5d3f cfcf 823f fae7 883f
000001d0: 356b 743f 39f7 653f 75f2 623f 93ce b03f
000001e0: bf78 783f d3fb 7d3f 2b18 533f ef4e 6c3f
000001f0: 6b32 853f f039 453f 8812 783f e0ca 803f
00000200: 98e2 8e3f fc3c 7f3f a1fd 853f 7ed8 943f
00000210: b32d 863f 109d 893f 1efc 893f 2ad8 583f
00000220: 017a 833f 521b 4b3f 8cce 733f b484 6a3f
00000230: d675 8f3f 3887 503f 1f4b 993f 6c07 743f
00000240: ac51 4a3f 1df6 3c3f 132d 5a3f b9f7 6c3f
00000250: e5f9 8e3f 45ff 923f 23d6 6a3f 1448 3a3f
00000260: d139 563f c9cc 7e3f a4b8 903f 8ae5 8c3f
00000270: cee9 953f 4c14 a63f cf28 573f fa70 5b3f
00000280: 5d84 4f3f a772 4a3f 6cd8 263f dce3 493f
00000290: 9225 113f 3a27 873f 728b 9a3f 4252 773f
000002a0: cdf9 863f cbce 663f 0eb8 6e3f 4edc 5b3f
000002b0: 8e61 593f ec25 4e3f 7430 663f 6e0b 643f
000002c0: 6d25 3f3f d772 5a3f c990 6c3f fea6 8b3f
000002d0: ede4 a13f 3331 803f 78f2 573f 559f 513f
000002e0: 81a2 773f 7a66 563f 747d 6c3f 6ce3 423f
000002f0: 200e 533f 2153 313f 7e5e 703f 58a3 613f
00000300: 7aa0 5e3f 51df 8a3f 5305 853f a37f 413f
00000310: 1ddd 863f c71f 593f db6b 873f 5dbb 4e3f
00000320: f651 773f 2a8a 513f fc99 703f d792 583f
00000330: 4635 393f aafa 663f cd9e 693f be94 8c3f
00000340: 46fc 803f c959 8f3f 5fe0 7b3f bc32 5d3f
00000350: cb3a 563f 3756 463f 88dc 513f 01e3 113f
00000360: aa24 333f d2f2 473f 3cc8 773f fefe 5f3f
00000370: 210f 6c3f 6e80 5b3f e49b 8e3f bd0f 863f
00000380: 6d2a 8c3f 0b55 933f 993e 963f c77d 6b3f
00000390: 776c 373f 4ca6 1b3f 5e92 5a3f 6530 353f
000003a0: 5468 713f d4d7 803f 175a 353f 7db0 593f
000003b0: 4a73 803f dd58 5a3f d745 203f 9e8c 293f
000003c0: 08a5 5d3f 07c2 673f fe9a 893f 0408 883f
000003d0: b130 383f 3a5b 563f 7108 923f 934b 7b3f
000003e0: 4602 373f 8412 613f 8c18 2e3f ad22 2a3f
000003f0: c9bf 863f bf93 693f a23a 7f3f d1c9 703f

act_fun.0.mask f4 [3500]
1.0 1.0 1.0 1.0 1.0 1.0 1.0 1.0
1.0 1.0 1.0 1.0 1.0 1.0 1.0 1.0
1.0 1.0 1.0 1.0 1.0 1.0 1.0 1.0
1.0 1.0 1.0 1.0 1.0 1.0 1.0 1.0
1.0 1.0 1.0 1.0 1.0 1.0 1.0 1.0
1.0 1.0 1.0 1.0 1.0 1.0 1.0 1.0
1.0 1.0 1.0 1.0 1.0 1.0 1.0 1.0
1.0 1.0 1.0 1.0 1.0 1.0 1.0 1.0
1.0 1.0 1.0 1.0 1.0 1.0 1.0 1.0
1.0 1.0 1.0 1.0 1.0 1.0 1.0 1.0
1.0 1.0 1.0 1.0 1.0 1.0 1.0 1.0
1.0 1.0 1.0 1.0 1.0 1.0 1.0 1.0
1.0 1.0 1.0 1.0 1.0 1.0 1.0 1.0
1.0 1.0 1.0 1.0 1.0 1.0 1.0 1.0
1.0 1.0 1.0 1.0 1.0 1.0 1.0 1.0
1.0 1.0 1.0 1.0 1.0 1.0 1.0 1.0
1.0 1.0 1.0 1.0 1.0 1.0 1.0 1.0
1.0 1.0 1.0 1.0 1.0 1.0 1.0 1.0
1.0 1.0 1.0 1.0 1.0 1.0 1.0 1.0
1.0 1.0 1.0 1.0 1.0 1.0 1.0 1.0
1.0 1.0 1.0 1.0 1.0 1.0 1.0 1.0
1.0 1.0 1.0 1.0 1.0 1.0 1.0 1.0
1.0 1.0 1.0 1.0 1.0 1.0 1.0 1.0
1.0 1.0 1.0 1.0 1.0 1.0 1.0 1.0
1.0 1.0 1.0 1.0 1.0 1.0 1.0 1.0
1.0 1.0 1.0 1.0 1.0 1.0 1.0 1.0
1.0 1.0 1.0 1.0 1.0 1.0 1.0 1.0
1.0 1.0 1.0 1.0 1.0 1.0 1.0 1.0
1.0 1.0 1.0 1.0 1.0 1.0 1.0 1.0
1.0 1.0 1.0 1.0 1.0 1.0 1.0 1.0
1.0 1.0 1.0 1.0 1.0 1.0 1.0 1.0
1.0 1.0 1.0 1.0 1.0 1.0 1.0 1.0
00000000: 0000 803f 0000 803f 0000 803f 0000 803f
00000010: 0000 803f 0000 803f 0000 803f 0000 803f
00000020: 0000 803f 0000 803f 0000 803f 0000 803f
00000030: 0000 803f 0000 803f 0000 803f 0000 803f
00000040: 0000 803f 0000 803f 0000 803f 0000 803f
00000050: 0000 803f 0000 803f 0000 803f 0000 803f
00000060: 0000 803f 0000 803f 0000 803f 0000 803f
00000070: 0000 803f 0000 803f 0000 803f 0000 803f
00000080: 0000 803f 0000 803f 0000 803f 0000 803f
00000090: 0000 803f 0000 803f 0000 803f 0000 803f
000000a0: 0000 803f 0000 803f 0000 803f 0000 803f
000000b0: 0000 803f 0000 803f 0000 803f 0000 803f
000000c0: 0000 803f 0000 803f 0000 803f 0000 803f
000000d0: 0000 803f 0000 803f 0000 803f 0000 803f
000000e0: 0000 803f 0000 803f 0000 803f 0000 803f
000000f0: 0000 803f 0000 803f 0000 803f 0000 803f
00000100: 0000 803f 0000 803f 0000 803f 0000 803f
00000110: 0000 803f 0000 803f 0000 803f 0000 803f
00000120: 0000 803f 0000 803f 0000 803f 0000 803f
00000130: 0000 803f 0000 803f 0000 803f 0000 803f
00000140: 0000 803f 0000 803f 0000 803f 0000 803f
00000150: 0000 803f 0000 803f 0000 803f 0000 803f
00000160: 0000 803f 0000 803f 0000 803f 0000 803f
00000170: 0000 803f 0000 803f 0000 803f 0000 803f
00000180: 0000 803f 0000 803f 0000 803f 0000 803f
00000190: 0000 803f 0000 803f 0000 803f 0000 803f
000001a0: 0000 803f 0000 803f 0000 803f 0000 803f
000001b0: 0000 803f 0000 803f 0000 803f 0000 803f
000001c0: 0000 803f 0000 803f 0000 803f 0000 803f
000001d0: 0000 803f 0000 803f 0000 803f 0000 803f
000001e0: 0000 803f 0000 803f 0000 803f 0000 803f
000001f0: 0000 803f 0000 803f 0000 803f 0000 803f
00000200: 0000 803f 0000 803f 0000 803f 0000 803f
00000210: 0000 803f 0000 803f 0000 803f 0000 803f
00000220: 0000 803f 0000 803f 0000 803f 0000 803f
00000230: 0000 803f 0000 803f 0000 803f 0000 803f
00000240: 0000 803f 0000 803f 0000 803f 0000 803f
00000250: 0000 803f 0000 803f 0000 803f 0000 803f
00000260: 0000 803f 0000 803f 0000 803f 0000 803f
00000270: 0000 803f 0000 803f 0000 803f 0000 803f
00000280: 0000 803f 0000 803f 0000 803f 0000 803f
00000290: 0000 803f 0000 803f 0000 803f 0000 803f
000002a0: 0000 803f 0000 803f 0000 803f 0000 803f
000002b0: 0000 803f 0000 803f 0000 803f 0000 803f
000002c0: 0000 803f 0000 803f 0000 803f 0000 803f
000002d0: 0000 803f 0000 803f 0000 803f 0000 803f
000002e0: 0000 803f 0000 803f 0000 803f 0000 803f
000002f0: 0000 803f 0000 803f 0000 803f 0000 803f
00000300: 0000 803f 0000 803f 0000 803f 0000 803f
00000310: 0000 803f 0000 803f 0000 803f 0000 803f
00000320: 0000 803f 0000 803f 0000 803f 0000 803f
00000330: 0000 803f 0000 803f 0000 803f 0000 803f
00000340: 0000 803f 0000 803f 0000 803f 0000 803f
00000350: 0000 803f 0000 803f 0000 803f 0000 803f
00000360: 0000 803f 0000 803f 0000 803f 0000 803f
00000370: 0000 803f 0000 803f 0000 803f 0000 803f
00000380: 0000 803f 0000 803f 0000 803f 0000 803f
00000390: 0000 803f 0000 803f 0000 803f 0000 803f
000003a0: 0000 803f 0000 803f 0000 803f 0000 803f
000003b0: 0000 803f 0000 803f 0000 803f 0000 803f
000003c0: 0000 803f 0000 803f 0000 803f 0000 803f
000003d0: 0000 803f 0000 803f 0000 803f 0000 803f
000003e0: 0000 803f 0000 803f 0000 803f 0000 803f
000003f0: 0000 803f 0000 803f 0000 803f 0000 803f

act_fun.1.grid f4 [5, 4]
-28.982306 -20.291912 -11.601521 -2.911129 -32.844162 -23.104239 -13.364315 -3.6243935
-35.126137 -24.52515 -13.924166 -3.3231812 -35.132908 -24.515099 -13.897287 -3.279478
-39.10389 -26.86211 -14.620333 -2.3785553
00000000: c3db e7c1 d655 a2c1 d49f 39c1 f04f 3ac0
00000010: 6c60 03c2 7bd5 b8c1 3cd4 55c1 10f6 67c0
00000020: 2a81 0cc2 8233 c4c1 62c9 5ec1 00af 54c0
00000030: 1988 0cc2 ec1e c4c1 4a5b 5ec1 f8e2 51c0
00000040: 626a 1cc2 9ae5 d6c1 e2ec 69c1 403a 18c0

act_fun.1.coef f4 [5, 6]
-0.15755546 -0.14782709 0.10149989 0.046442762 -0.24127586 -0.1082536 0.11882248 0.08829857
0.07965911 -0.1209422 -0.14978395 -0.08466159 -0.00059669954 -0.13969155 0.041531503 0.004467715
-0.06440793 0.018404469 -0.14694296 0.0620991 0.1385666 -0.116440706 -0.15155181 -0.11297378
-0.0822666 0.05120924 -0.1778524 0.005796128 0.29294407 0.13826369
00000000: 3856 21be fc5f 17be 2ddf cf3d c43a 3e3d
00000010: 0511 77be 10b4 ddbd 3359 f33d e1d5 b43d
00000020: 5124 a33d 8bb0 f7bd f760 19be 0e63 adbd
00000030: d46b 1cba 4d0b 0fbe f01c 2a3d e965 923b
00000040: 4ee8 83bd f8c4 963c 3778 16be a05b 7e3d
00000050: 67e4 0d3e 7778 eebd 6630 1bbe cc5e e7bd
00000060: 647b a8bd c8c0 513d f11e 36be 72ed bd3b
00000070: c4fc 953e ff94 0d3e

act_fun.1.scale_base f4 [5]
0.27755657 0.16290225 0.88352704 0.20976888 0.2688024
00000000: e51b 8e3e d9cf 263e d42e 623f a7cd 563e
00000010: 78a0 893e

act_fun.1.scale_sp f4 [5]
1.0380062 0.6128947 0.46425316 1.006922 1.0547864
00000000: 63dd 843f abe6 1c3f 97b2 ed3e d2e2 803f
00000010: 3e03 873f

act_fun.1.mask f4 [5]
1.0 1.0 1.0 1.0 1.0
00000000: 0000 803f 0000 803f 0000 803f 0000 803f
00000010: 0000 803f

act_fun.2.grid f4 [2, 4]
-0.297991 -0.19603842 -0.09408586 0.00786671 -0.297991 -0.19603842 -0.09408586 0.00786671
00000000: 4792 98be 4cbe 48be 16b0 c0bd 60e3 003c
00000010: 4792 98be 4cbe 48be 16b0 c0bd 60e3 003c

act_fun.2.coef f4 [2, 6]
0.061373 -0.17795356 -0.36146662 -0.101052456 0.19046998 0.17946914 0.1255936 0.312826
0.460833 0.14302103 -0.15480822 -0.26863524
00000000: 4162 7b3d 7539 36be 2712 b9be 97f4 cebd
00000010: 900a 433e c2c6 373e 9c9b 003e bb2a a03e
00000020: 4ef2 eb3e 1b74 123e 0c86 1ebe 8f8a 89be

act_fun.2.scale_base f4 [2]
1.3193988 0.283361
00000000: 0fe2 a83f b114 913e

act_fun.2.scale_sp f4 [2]
1.3373922 1.4249977
00000000: ab2f ab3f 5366 b63f

act_fun.2.mask f4 [2]
1.0 1.0
00000000: 0000 803f 0000 803f

symbolic_fun.0.mask f4 [5, 700]
0.0 0.0 0.0 0.0 0.0 0.0 0.0 0.0
0.0 0.0 0.0 0.0 0.0 0.0 0.0 0.0
0.0 0.0 0.0 0.0 0.0 0.0 0.0 0.0
0.0 0.0 0.0 0.0 0.0 0.0 0.0 0.0
0.0 0.0 0.0 0.0 0.0 0.0 0.0 0.0
0.0 0.0 0.0 0.0 0.0 0.0 0.0 0.0
0.0 0.0 0.0 0.0 0.0 0.0 0.0 0.0
0.0 0.0 0.0 0.0 0.0 0.0 0.0 0.0
0.0 0.0 0.0 0.0 0.0 0.0 0.0 0.0
0.0 0.0 0.0 0.0 0.0 0.0 0.0 0.0
0.0 0.0 0.0 0.0 0.0 0.0 0.0 0.0
0.0 0.0 0.0 0.0 0.0 0.0 0.0 0.0
0.0 0.0 0.0 0.0 0.0 0.0 0.0 0.0
0.0 0.0 0.0 0.0 0.0 0.0 0.0 0.0
0.0 0.0 0.0 0.0 0.0 0.0 0.0 0.0
0.0 0.0 0.0 0.0 0.0 0.0 0.0 0.0
0.0 0.0 0.0 0.0 0.0 0.0 0.0 0.0
0.0 0.0 0.0 0.0 0.0 0.0 0.0 0.0
0.0 0.0 0.0 0.0 0.0 0.0 0.0 0.0
0.0 0.0 0.0 0.0 0.0 0.0 0.0 0.0
0.0 0.0 0.0 0.0 0.0 0.0 0.0 0.0
0.0 0.0 0.0 0.0 0.0 0.0 0.0 0.0
0.0 0.0 0.0 0.0 0.0 0.0 0.0 0.0
0.0 0.0 0.0 0.0 0.0 0.0 0.0 0.0
0.0 0.0 0.0 0.0 0.0 0.0 0.0 0.0
0.0 0.0 0.0 0.0 0.0 0.0 0.0 0.0
0.0 0.0 0.0 0.0 0.0 0.0 0.0 0.0
0.0 0.0 0.0 0.0 0.0 0.0 0.0 0.0
0.0 0.0 0.0 0.0 0.0 0.0 0.0 0.0
0.0 0.0 0.0 0.0 0.0 0.0 0.0 0.0
0.0 0.0 0.0 0.0 0.0 0.0 0.0 0.0
0.0 0.0 0.0 0.0 0.0 0.0 0.0 0.0
00000000: 0000 0000 0000 0000 0000 0000 0000 0000
00000010: 0000 0000 0000 0000 0000 0000 0000 0000
00000020: 0000 0000 0000 0000 0000 0000 0000 0000
00000030: 0000 0000 0000 0000 0000 0000 0000 0000
00000040: 0000 0000 0000 0000 0000 0000 0000 0000
00000050: 0000 0000 0000 0000 0000 0000 0000 0000
00000060: 0000 0000 0000 0000 0000 0000 0000 0000
00000070: 0000 0000 0000 0000 0000 0000 0000 0000
00000080: 0000 0000 0000 0000 0000 0000 0000 0000
00000090: 0000 0000 0000 0000 0000 0000 0000 0000
000000a0: 0000 0000 0000 0000 0000 0000 0000 0000
000000b0: 0000 0000 0000 0000 0000 0000 0000 0000
000000c0: 0000 0000 0000 0000 0000 0000 0000 0000
000000d0: 0000 0000 0000 0000 0000 0000 0000 0000
000000e0: 0000 0000 0000 0000 0000 0000 0000 0000
000000f0: 0000 0000 0000 0000 0000 0000 0000 0000
00000100: 0000 0000 0000 0000 0000 0000 0000 0000
00000110: 0000 0000 0000 0000 0000 0000 0000 0000
00000120: 0000 0000 0000 0000 0000 0000 0000 0000
00000130: 0000 0000 0000 0000 0000 0000 0000 0000
00000140: 0000 0000 0000 0000 0000 0000 0000 0000
00000150: 0000 0000 0000 0000 0000 0000 0000 0000
00000160: 0000 0000 0000 0000 0000 0000 0000 0000
00000170: 0000 0000 0000 0000 0000 0000 0000 0000
00000180: 0000 0000 0000 0000 0000 0000 0000 0000
00000190: 0000 0000 0000 0000 0000 0000 0000 0000
000001a0: 0000 0000 0000 0000 0000 0000 0000 0000
000001b0: 0000 0000 0000 0000 0000 0000 0000 0000
000001c0: 0000 0000 0000 0000 0000 0000 0000 0000
000001d0: 0000 0000 0000 0000 0000 0000 0000 0000
000001e0: 0000 0000 0000 0000 0000 0000 0000 0000
000001f0: 0000 0000 0000 0000 0000 0000 0000 0000
00000200: 0000 0000 0000 0000 0000 0000 0000 0000
00000210: 0000 0000 0000 0000 0000 0000 0000 0000
00000220: 0000 0000 0000 0000 0000 0000 0000 0000
00000230: 0000 0000 0000 0000 0000 0000 0000 0000
00000240: 0000 0000 0000 0000 0000 0000 0000 0000
00000250: 0000 0000 0000 0000 0000 0000 0000 0000
00000260: 0000 0000 0000 0000 0000 0000 0000 0000
00000270: 0000 0000 0000 0000 0000 0000 0000 0000
00000280: 0000 0000 0000 0000 0000 0000 0000 0000
00000290: 0000 0000 0000 0000 0000 0000 0000 0000
000002a0: 0000 0000 0000 0000 0000 0000 0000 0000
000002b0: 0000 0000 0000 0000 0000 0000 0000 0000
000002c0: 0000 0000 0000 0000 0000 0000 0000 0000
000002d0: 0000 0000 0000 0000 0000 0000 0000 0000
000002e0: 0000 0000 0000 0000 0000 0000 0000 0000
000002f0: 0000 0000 0000 0000 0000 0000 0000 0000
00000300: 0000 0000 0000 0000 0000 0000 0000 0000
00000310: 0000 0000 0000 0000 0000 0000 0000 0000
00000320: 0000 0000 0000 0000 0000 0000 0000 0000
00000330: 0000 0000 0000 0000 0000 0000 0000 0000
00000340: 0000 0000 0000 0000 0000 0000 0000 0000
00000350: 0000 0000 0000 0000 0000 0000 0000 0000
00000360: 0000 0000 0000 0000 0000 0000 0000 0000
00000370: 0000 0000 0000 0000 0000 0000 0000 0000
00000380: 0000 0000 0000 0000 0000 0000 0000 0000
00000390: 0000 0000 0000 0000 0000 0000 0000 0000
000003a0: 0000 0000 0000 0000 0000 0000 0000 0000
000003b0: 0000 0000 0000 0000 0000 0000 0000 0000
000003c0: 0000 0000 0000 0000 0000 0000 0000 0000
000003d0: 0000 0000 0000 0000 0000 0000 0000 0000
000003e0: 0000 0000 0000 0000 0000 0000 0000 0000
000003f0: 0000 0000 0000 0000 0000 0000 0000 0000

symbolic_fun.0.affine f4 [5, 700, 4]
0.0 0.0 0.0 0.0 0.0 0.0 0.0 0.0
0.0 0.0 0.0 0.0 0.0 0.0 0.0 0.0
0.0 0.0 0.0 0.0 0.0 0.0 0.0 0.0
0.0 0.0 0.0 0.0 0.0 0.0 0.0 0.0
0.0 0.0 0.0 0.0 0.0 0.0 0.0 0.0
0.0 0.0 0.0 0.0 0.0 0.0 0.0 0.0
0.0 0.0 0.0 0.0 0.0 0.0 0.0 0.0
0.0 0.0 0.0 0.0 0.0 0.0 0.0 0.0
0.0 0.0 0.0 0.0 0.0 0.0 0.0 0.0
0.0 0.0 0.0 0.0 0.0 0.0 0.0 0.0
0.0 0.0 0.0 0.0 0.0 0.0 0.0 0.0
0.0 0.0 0.0 0.0 0.0 0.0 0.0 0.0
0.0 0.0 0.0 0.0 0.0 0.0 0.0 0.0
0.0 0.0 0.0 0.0 0.0 0.0 0.0 0.0
0.0 0.0 0.0 0.0 0.0 0.0 0.0 0.0
0.0 0.0 0.0 0.0 0.0 0.0 0.0 0.0
0.0 0.0 0.0 0.0 0.0 0.0 0.0 0.0
0.0 0.0 0.0 0.0 0.0 0.0 0.0 0.0
0.0 0.0 0.0 0.0 0.0 0.0 0.0 0.0
0.0 0.0 0.0 0.0 0.0 0.0 0.0 0.0
0.0 0.0 0.0 0.0 0.0 0.0 0.0 0.0
0.0 0.0 0.0 0.0 0.0 0.0 0.0 0.0
0.0 0.0 0.0 0.0 0.0 0.0 0.0 0.0
0.0 0.0 0.0 0.0 0.0 0.0 0.0 0.0
0.0 0.0 0.0 0.0 0.0 0.0 0.0 0.0
0.0 0.0 0.0 0.0 0.0 0.0 0.0 0.0
0.0 0.0 0.0 0.0 0.0 0.0 0.0 0.0
0.0 0.0 0.0 0.0 0.0 0.0 0.0 0.0
0.0 0.0 0.0 0.0 0.0 0.0 0.0 0.0
0.0 0.0 0.0 0.0 0.0 0.0 0.0 0.0
0.0 0.0 0.0 0.0 0.0 0.0 0.0 0.0
0.0 0.0 0.0 0.0 0.0 0.0 0.0 0.0
00000000: 0000 0000 0000 0000 0000 0000 0000 0000
00000010: 0000 0000 0000 0000 0000 0000 0000 0000
00000020: 0000 0000 0000 0000 0000 0000 0000 0000
00000030: 0000 0000 0000 0000 0000 0000 0000 0000
00000040: 0000 0000 0000 0000 0000 0000 0000 0000
00000050: 0000 0000 0000 0000 0000 0000 0000 0000
00000060: 0000 0000 0000 0000 0000 0000 0000 0000
00000070: 0000 0000 0000 0000 0000 0000 0000 0000
00000080: 0000 0000 0000 0000 0000 0000 0000 0000
00000090: 0000 0000 0000 0000 0000 0000 0000 0000
000000a0: 0000 0000 0000 0000 0000 0000 0000 0000
000000b0: 0000 0000 0000 0000 0000 0000 0000 0000
000000c0: 0000 0000 0000 0000 0000 0000 0000 0000
000000d0: 0000 0000 0000 0000 0000 0000 0000 0000
000000e0: 0000 0000 0000 0000 0000 0000 0000 0000
000000f0: 0000 0000 0000 0000 0000 0000 0000 0000
00000100: 0000 0000 0000 0000 0000 0000 0000 0000
00000110: 0000 0000 0000 0000 0000 0000 0000 0000
00000120: 0000 0000 0000 0000 0000 0000 0000 0000
00000130: 0000 0000 0000 0000 0000 0000 0000 0000
00000140: 0000 0000 0000 0000 0000 0000 0000 0000
00000150: 0000 0000 0000 0000 0000 0000 0000 0000
00000160: 0000 0000 0000 0000 0000 0000 0000 0000
00000170: 0000 0000 0000 0000 0000 0000 0000 0000
00000180: 0000 0000 0000 0000 0000 0000 0000 0000
00000190: 0000 0000 0000 0000 0000 0000 0000 0000
000001a0: 0000 0000 0000 0000 0000 0000 0000 0000
000001b0: 0000 0000 0000 0000 0000 0000 0000 0000
000001c0: 0000 0000 0000 0000 0000 0000 0000 0000
000001d0: 0000 0000 0000 0000 0000 0000 0000 0000
000001e0: 0000 0000 0000 0000 0000 0000 0000 0000
000001f0: 0000 0000 0000 0000 0000 0000 0000 0000
00000200: 0000 0000 0000 0000 0000 0000 0000 0000
00000210: 0000 0000 0000 0000 0000 0000 0000 0000
00000220: 0000 0000 0000 0000 0000 0000 0000 0000
00000230: 0000 0000 0000 0000 0000 0000 0000 0000
00000240: 0000 0000 0000 0000 0000 0000 0000 0000
00000250: 0000 0000 0000 0000 0000 0000 0000 0000
00000260: 0000 0000 0000 0000 0000 0000 0000 0000
00000270: 0000 0000 0000 0000 0000 0000 0000 0000
00000280: 0000 0000 0000 0000 0000 0000 0000 0000
00000290: 0000 0000 0000 0000 0000 0000 0000 0000
000002a0: 0000 0000 0000 0000 0000 0000 0000 0000
000002b0: 0000 0000 0000 0000 0000 0000 0000 0000
000002c0: 0000 0000 0000 0000 0000 0000 0000 0000
000002d0: 0000 0000 0000 0000 0000 0000 0000 0000
000002e0: 0000 0000 0000 0000 0000 0000 0000 0000
000002f0: 0000 0000 0000 0000 0000 0000 0000 0000
00000300: 0000 0000 0000 0000 0000 0000 0000 0000
00000310: 0000 0000 0000 0000 0000 0000 0000 0000
00000320: 0000 0000 0000 0000 0000 0000 0000 0000
00000330: 0000 0000 0000 0000 0000 0000 0000 0000
00000340: 0000 0000 0000 0000 0000 0000 0000 0000
00000350: 0000 0000 0000 0000 0000 0000 0000 0000
00000360: 0000 0000 0000 0000 0000 0000 0000 0000
00000370: 0000 0000 0000 0000 0000 0000 0000 0000
00000380: 0000 0000 0000 0000 0000 0000 0000 0000
00000390: 0000 0000 0000 0000 0000 0000 0000 0000
000003a0: 0000 0000 0000 0000 0000 0000 0000 0000
000003b0: 0000 0000 0000 0000 0000 0000 0000 0000
000003c0: 0000 0000 0000 0000 0000 0000 0000 0000
000003d0: 0000 0000 0000 0000 0000 0000 0000 0000
000003e0: 0000 0000 0000 0000 0000 0000 0000 0000
000003f0: 0000 0000 0000 0000 0000 0000 0000 0000

symbolic_fun.1.mask f4 [1, 5]
0.0 0.0 0.0 0.0 0.0
00000000: 0000 0000 0000 0000 0000 0000 0000 0000
00000010: 0000 0000

symbolic_fun.1.affine f4 [1, 5, 4]
0.0 0.0 0.0 0.0 0.0 0.0 0.0 0.0
0.0 0.0 0.0 0.0 0.0 0.0 0.0 0.0
0.0 0.0 0.0 0.0
00000000: 0000 0000 0000 0000 0000 0000 0000 0000
00000010: 0000 0000 0000 0000 0000 0000 0000 0000
00000020: 0000 0000 0000 0000 0000 0000 0000 0000
00000030: 0000 0000 0000 0000 0000 0000 0000 0000
00000040: 0000 0000 0000 0000 0000 0000 0000 0000

symbolic_fun.2.mask f4 [2, 1]
0.0 0.0
00000000: 0000 0000 0000 0000

symbolic_fun.2.affine f4 [2, 1, 4]
0.0 0.0 0.0 0.0 0.0 0.0 0.0 0.0
00000000: 0000 0000 0000 0000 0000 0000 0000 0000
00000010: 0000 0000 0000 0000 0000 0000 0000 0000
