workspace/results/simulation/KAN_All/5/KAN-1Hidden.ckpt (torch, 5622 bytes, 15 tensors)

biases.1.weight f4 [1, 2]
-0.049239766 -0.06811034
00000000: a3af 49bd 6f7d 8bbd

act_fun.0.grid f4 [2, 4]
-0.01 0.33 0.67 1.01 -0.01 0.33 0.67 1.01
00000000: 0ad7 23bc c3f5 a83e 1f85 2b3f ae47 813f
00000010: 0ad7 23bc c3f5 a83e 1f85 2b3f ae47 813f

act_fun.0.coef f4 [2, 6]
0.1234203 0.054070994 -0.22695749 0.10737318 -0.19420032 -0.39551288 -0.11802708 -0.12257412
-0.22805974 0.09457692 -0.07703565 -0.14352585
00000000: c8c3 fc3d 8c79 5d3d 8b67 68be 78e6 db3d
00000010: 73dc 46be aa80 cabe 2fb8 f1bd 2408 fbbd
00000020: 7e88 69be 8bb1 c13d dec4 9dbd 71f8 12be

act_fun.0.scale_base f4 [2]
0.8435113 0.52347964
00000000: 5bf0 573f c302 063f

act_fun.0.scale_sp f4 [2]
1.3121554 1.2388979
00000000: b5f4 a73f 3594 9e3f

act_fun.0.mask f4 [2]
1.0 1.0
00000000: 0000 803f 0000 803f

act_fun.1.grid f4 [2, 4]
-0.11770182 0.16804445 0.45379072 0.739537 -0.11770182 0.16804445 0.45379072 0.739537
00000000: a70d f1bd d813 2c3e 4257 e83e 4c52 3d3f
00000010: a70d f1bd d813 2c3e 4257 e83e 4c52 3d3f

act_fun.1.coef f4 [2, 6]
0.6611137 0.22134009 -0.22431684 -0.098296344 0.3460241 0.5756622 -0.39907423 -0.059265453
0.18835154 -0.13482814 -0.7614975 -0.8988005
00000000: bf3e 293f faa6 623e 50b3 65be 984f c9bd
00000010: 122a b13e 995e 133f 7553 ccbe 55c0 72bd
00000020: 3adf 403e 6310 0abe 80f1 42bf ca17 66bf

act_fun.1.scale_base f4 [2]
0.9544024 0.81661516
00000000: b753 743f b10d 513f

act_fun.1.scale_sp f4 [2]
1.5465418 1.677496
00000000: 15f5 c53f 30b8 d63f

act_fun.1.mask f4 [2]
1.0 1.0
00000000: 0000 803f 0000 803f

symbolic_fun.0.mask f4 [1, 2]
0.0 0.0
00000000: 0000 0000 0000 0000

symbolic_fun.0.affine f4 [1, 2, 4]
0.0 0.0 0.0 0.0 0.0 0.0 0.0 0.0
00000000: 0000 0000 0000 0000 0000 0000 0000 0000
00000010: 0000 0000 0000 0000 0000 0000 0000 0000

symbolic_fun.1.mask f4 [2, 1]
0.0 0.0
00000000: 0000 0000 0000 0000

symbolic_fun.1.affine f4 [2, 1, 4]
0.0 0.0 0.0 0.0 0.0 0.0 0.0 0.0
00000000: 0000 0000 0000 0000 0000 0000 0000 0000
00000010: 0000 0000 0000 0000 0000 0000 0000 0000
