workspace/results/ascad/KAN_ASCADf_snr/4/KAN-1Hidden.ckpt (torch, 5622 bytes, 15 tensors)

biases.1.weight f4 [1, 2]
00000000: dd3e 20bc 9126 24be
-0.009780613 -0.16030337

act_fun.0.grid f4 [2, 4]
00000000: f22a 35c0 1062 89bf 8823 2f3f cc42 1c40
00000010: 0f2b 2dc0 a41a 81bf ac41 303f 27ae 1840
-2.8307462 -1.0733051 0.6841359 2.441577 -2.705753 -1.0086255 0.6885021 2.3856294

act_fun.0.coef f4 [2, 6]
00000000: 7ebc fdbe db83 82be d6b3 25be fc20 263e
00000010: 211b d5be 02e1 15bf 64e6 c1be 1d9a 49be
00000020: 0348 f2be 7b7f 293e b4ff 98be f282 5dbf
-0.4955787 -0.25491223 -0.16181883 0.1622352 -0.4162226 -0.5854646 -0.37871087 -0.19687696
-0.47320566 0.16552536 -0.29882586 -0.8652793

act_fun.0.scale_base f4 [2]
00000000: fe0b 133f 0cc2 9d3e
0.57440174 0.3081211

act_fun.0.scale_sp f4 [2]
00000000: 7637 cf3f a087 d03f
1.61888 1.629139

act_fun.0.mask f4 [2]
00000000: 0000 803f 0000 803f
1.0 1.0

act_fun.1.grid f4 [2, 4]
00000000: 97df 00bf 3e3b cb3e 6a0d a63f 02a6 0c40
00000010: 97df 00bf 3e3b cb3e 6a0d a63f 02a6 0c40
-0.5034117 0.39693636 1.2972844 2.1976323 -0.5034117 0.39693636 1.2972844 2.1976323

act_fun.1.coef f4 [2, 6]
00000000: d6e2 193f e701 1ebd f427 78bd 13e7 673d
00000010: b53d fc3d 6d2f 9ebd 034b cdbd 14e1 bb3e
00000020: 9677 b0bc 2976 54bf 92e2 0bbf 318e e0bd
0.6011175 -0.038576033 -0.060584977 0.056616854 0.12316457 -0.077238895 -0.10024073 0.36695158
-0.021541398 -0.829928 -0.54642594 -0.10964621

act_fun.1.scale_base f4 [2]
00000000: 035d 763f c789 243f
0.96235675 0.6427273

act_fun.1.scale_sp f4 [2]
00000000: 0865 b43f ad17 e03f
1.4093332 1.7507225

act_fun.1.mask f4 [2]
00000000: 0000 803f 0000 803f
1.0 1.0

symbolic_fun.0.mask f4 [1, 2]
00000000: 0000 0000 0000 0000
0.0 0.0

symbolic_fun.0.affine f4 [1, 2, 4]
00000000: 0000 0000 0000 0000 0000 0000 0000 0000
00000010: 0000 0000 0000 0000 0000 0000 0000 0000
0.0 0.0 0.0 0.0 0.0 0.0 0.0 0.0

symbolic_fun.1.mask f4 [2, 1]
00000000: 0000 0000 0000 0000
0.0 0.0

symbolic_fun.1.affine f4 [2, 1, 4]
00000000: 0000 0000 0000 0000 0000 0000 0000 0000
00000010: 0000 0000 0000 0000 0000 0000 0000 0000
0.0 0.0 0.0 0.0 0.0 0.0 0.0 0.0
