workspace/results/ascad/KAN_ASCADf_snr/5/KAN-1Hidden.ckpt (torch, 5622 bytes, 15 tensors)

biases.1.weight f4 [1, 2]
0	0xbc569d86	-0.01309908
1	0xbdfe9dbb	-0.124324284

act_fun.0.grid f4 [2, 4]
0	0xc0352af2	-2.8307462
1	0xbf896210	-1.0733051
2	0x3f2f2388	0.6841359
3	0x401c42cc	2.441577
4	0xc02d2b0f	-2.705753
5	0xbf811aa4	-1.0086255
6	0x3f3041ac	0.6885021
7	0x4018ae27	2.3856294

act_fun.0.coef f4 [2, 6]
0	0x3ee91868	0.45526433
1	0x3f056679	0.52109486
2	0xbe895f93	-0.2683073
3	0xbe0e1cb8	-0.13878143
4	0xbe9eca57	-0.31013748
5	0xbf4616ab	-0.7737834
6	0x3ea4d4d7	0.32193634
7	0xbe3e2635	-0.18569262
8	0xbec9f3e5	-0.3944389
9	0xbdfca487	-0.123360686
10	0xbe81c71f	-0.2534723
11	0xbf147036	-0.5798372

act_fun.0.scale_base f4 [2]
0	0x3f196444	0.5991862
1	0x3eaceed2	0.33775955

act_fun.0.scale_sp f4 [2]
0	0x3fd85eff	1.690399
1	0x3fc75174	1.5571733

act_fun.0.mask f4 [2]
0	0x3f800000	1.0
1	0x3f800000	1.0

act_fun.1.grid f4 [2, 4]
0	0xbf00e2dd	-0.50346166
1	0x3ecb2a02	0.39680487
2	0x3fa60670	1.2970715
3	0x400ca12f	2.1973379
4	0xbf00e2dd	-0.50346166
5	0x3ecb2a02	0.39680487
6	0x3fa60670	1.2970715
7	0x400ca12f	2.1973379

act_fun.1.coef f4 [2, 6]
0	0x3e93f2e6	0.28896254
1	0x3dfbc7fa	0.12294002
2	0x3ca7cc53	0.020483172
3	0xbdb5334f	-0.08847677
4	0xbdad75dc	-0.084697455
5	0xbdb6e014	-0.08929458
6	0x3e3ca5d5	0.18422635
7	0x3e8c6f0a	0.27428466
8	0xbe1abdd3	-0.15111475
9	0xbf2050bf	-0.6262321
10	0xbe93811f	-0.2880945
11	0xbde3375c	-0.11094543

act_fun.1.scale_base f4 [2]
0	0x3f643e76	0.8915781
1	0x3f3ab035	0.7292512

act_fun.1.scale_sp f4 [2]
0	0x3f9f64e5	1.2452666
1	0x3fc08df2	1.5043318

act_fun.1.mask f4 [2]
0	0x3f800000	1.0
1	0x3f800000	1.0

symbolic_fun.0.mask f4 [1, 2]
0	0x00000000	0.0
1	0x00000000	0.0

symbolic_fun.0.affine f4 [1, 2, 4]
0	0x00000000	0.0
1	0x00000000	0.0
2	0x00000000	0.0
3	0x00000000	0.0
4	0x00000000	0.0
5	0x00000000	0.0
6	0x00000000	0.0
7	0x00000000	0.0

symbolic_fun.1.mask f4 [2, 1]
0	0x00000000	0.0
1	0x00000000	0.0

symbolic_fun.1.affine f4 [2, 1, 4]
0	0x00000000	0.0
1	0x00000000	0.0
2	0x00000000	0.0
3	0x00000000	0.0
4	0x00000000	0.0
5	0x00000000	0.0
6	0x00000000	0.0
7	0x00000000	0.0
