workspace/results/ascad/KAN_ASCADv_snr/3/KAN-1Hidden.ckpt (torch, 5622 bytes, 15 tensors)

biases.1.weight f4 [1, 2]
00000000: 1e6d 8abd d855 51bd
-0.06759094 -0.051107258

act_fun.0.grid f4 [2, 4]
00000000: cec5 41c0 e6c4 8bbf a003 583f 42e4 3140
00000010: a47b 3cc0 a602 80bf f8e3 713f 4ef3 3840
-3.027698 -1.0919464 0.8438053 2.7795568 -2.9450464 -1.0000808 0.9448848 2.8898501

act_fun.0.coef f4 [2, 6]
00000000: c3e3 8c3e dce9 193f 3a01 3a3e e1b9 97be
00000010: f771 bdbe 703d 34bf d801 9fbe 22fe d0bd
00000020: 3d5a fabd 3e74 6fbe 3b4a d0be 72d6 a9be
0.27517518 0.60122466 0.1816453 -0.29634002 -0.3700101 -0.70406246 -0.31056094 -0.10204722
-0.12224243 -0.23384187 -0.40681633 -0.3317142

act_fun.0.scale_base f4 [2]
00000000: 102b 0a3f 02e1 663e
0.5397196 0.22546771

act_fun.0.scale_sp f4 [2]
00000000: cf52 e73f 44f3 c53f
1.8072146 1.5464864

act_fun.0.mask f4 [2]
00000000: 0000 803f 0000 803f
1.0 1.0

act_fun.1.grid f4 [2, 4]
00000000: c2ca 00bf 1498 1b3f 75fd db3f 7017 3540
00000010: c2ca 00bf 1498 1b3f 75fd db3f 7017 3540
-0.50309384 0.6077893 1.7186724 2.8295555 -0.50309384 0.6077893 1.7186724 2.8295555

act_fun.1.coef f4 [2, 6]
00000000: 5656 933e 2541 573e 028f 59be 58a5 75be
00000010: a713 02be 3784 69be ca62 563e ddcb 573e
00000020: 1b44 9ebd c7a5 85be 755b 2abe 27d3 75be
0.28776807 0.21020944 -0.2124596 -0.23988855 -0.1270281 -0.22804342 0.20936123 0.21073861
-0.07727834 -0.2610304 -0.1663645 -0.2400633

act_fun.1.scale_base f4 [2]
00000000: 8069 413f 0528 5d3f
0.75551605 0.8638919

act_fun.1.scale_sp f4 [2]
00000000: 9524 af3f 121f a93f
1.3683039 1.3212607

act_fun.1.mask f4 [2]
00000000: 0000 803f 0000 803f
1.0 1.0

symbolic_fun.0.mask f4 [1, 2]
00000000: 0000 0000 0000 0000
0.0 0.0

symbolic_fun.0.affine f4 [1, 2, 4]
00000000: 0000 0000 0000 0000 0000 0000 0000 0000
00000010: 0000 0000 0000 0000 0000 0000 0000 0000
0.0 0.0 0.0 0.0 0.0 0.0 0.0 0.0

symbolic_fun.1.mask f4 [2, 1]
00000000: 0000 0000 0000 0000
0.0 0.0

symbolic_fun.1.affine f4 [2, 1, 4]
00000000: 0000 0000 0000 0000 0000 0000 0000 0000
00000010: 0000 0000 0000 0000 0000 0000 0000 0000
0.0 0.0 0.0 0.0 0.0 0.0 0.0 0.0
