workspace/results/ascad/KAN_ASCADf_snr/7/KAN-1Hidden.ckpt (torch, 5622 bytes, 15 tensors)

biases.1.weight f4 [1, 2]
000000 3c 76 17 bd c7 52 ce bd
       -0.03697799 -0.10074382

act_fun.0.grid f4 [2, 4]
000000 f2 2a 35 c0 10 62 89 bf 88 23 2f 3f cc 42 1c 40
       -2.8307462 -1.0733051 0.6841359 2.441577
000010 0f 2b 2d c0 a4 1a 81 bf ac 41 30 3f 27 ae 18 40
       -2.705753 -1.0086255 0.6885021 2.3856294

act_fun.0.coef f4 [2, 6]
000000 68 27 c5 3d 96 de 93 bd 41 8a 97 be 12 7f 81 bd
       0.09626657 -0.07220189 -0.29597667 -0.06323065
000010 57 00 81 be 72 9a 85 bf 23 1b 98 be 85 1b da be
       -0.25195572 -1.0437758 -0.29708204 -0.4259912
000020 3d 80 cb be de 86 1f be 8a fa 66 be b7 f4 14 bf
       -0.39746276 -0.15578791 -0.2255651 -0.58185905

act_fun.0.scale_base f4 [2]
000000 28 77 1f 3f 55 03 b1 3e
       0.62291193 0.34572855

act_fun.0.scale_sp f4 [2]
000000 66 f1 d3 3f 25 de ca 3f
       1.6558044 1.5849043

act_fun.0.mask f4 [2]
000000 00 00 80 3f 00 00 80 3f
       1.0 1.0

act_fun.1.grid f4 [2, 4]
000000 24 ff 00 bf 98 f3 ca 3e 5e f9 a5 3f eb 9a 0c 40
       -0.50389314 0.39638972 1.2966726 2.1969554
000010 24 ff 00 bf 98 f3 ca 3e 5e f9 a5 3f eb 9a 0c 40
       -0.50389314 0.39638972 1.2966726 2.1969554

act_fun.1.coef f4 [2, 6]
000000 ee fd 9f 3e f5 46 a3 3d f3 39 11 3d 16 65 e1 bd
       0.3124842 0.07972518 0.035455655 -0.11005609
000010 bb e1 1a be e8 0b b8 bd 52 71 44 3e 08 57 99 3e
       -0.15125172 -0.08986646 0.19183853 0.29949212
000020 9c 4b 2c be 29 dd 1f bf a7 59 72 be ab a5 d1 bd
       -0.16825718 -0.6244684 -0.23667012 -0.10236677

act_fun.1.scale_base f4 [2]
000000 aa b0 61 3f 9b a7 38 3f
       0.8816019 0.72130746

act_fun.1.scale_sp f4 [2]
000000 d2 18 a3 3f 49 1e bd 3f
       1.274195 1.4774867

act_fun.1.mask f4 [2]
000000 00 00 80 3f 00 00 80 3f
       1.0 1.0

symbolic_fun.0.mask f4 [1, 2]
000000 00 00 00 00 00 00 00 00
       0.0 0.0

symbolic_fun.0.affine f4 [1, 2, 4]
000000 00 00 00 00 00 00 00 00 00 00 00 00 00 00 00 00
       0.0 0.0 0.0 0.0
000010 00 00 00 00 00 00 00 00 00 00 00 00 00 00 00 00
       0.0 0.0 0.0 0.0

symbolic_fun.1.mask f4 [2, 1]
000000 00 00 00 00 00 00 00 00
       0.0 0.0

symbolic_fun.1.affine f4 [2, 1, 4]
000000 00 00 00 00 00 00 00 00 00 00 00 00 00 00 00 00
       0.0 0.0 0.0 0.0
000010 00 00 00 00 00 00 00 00 00 00 00 00 00 00 00 00
       0.0 0.0 0.0 0.0
