workspace/results/ascad/KAN_ASCADf_snr/0/KAN-1Hidden.ckpt (torch, 5622 bytes, 15 tensors)

biases.1.weight f4 [1, 2]
0.027976893 -0.2275327
00000000: cc2f e53c 55fe 68be

act_fun.0.grid f4 [2, 4]
-2.8307462 -1.0733051 0.6841359 2.441577 -2.2447183 -0.54759073 1.1495368 2.8466642
00000000: f22a 35c0 1062 89bf 8823 2f3f cc42 1c40
00000010: 77a9 0fc0 e82e 0cbf 0624 933f bf2f 3640

act_fun.0.coef f4 [2, 6]
-0.43141368 -0.23474246 -0.24266411 0.32379413 -0.37786576 -0.85921615 0.027223114 -0.52017874
-0.21378988 0.20834346 -0.43973532 -0.6406893
00000000: 41e2 dcbe 5460 70be f17c 78be 58c8 a53e
00000010: 9f77 c1be 97f5 5bbf 0203 df3c 6f2a 05bf
00000020: bceb 5abe fd57 553e fd24 e1be 3704 24bf

act_fun.0.scale_base f4 [2]
0.59058964 0.31199694
00000000: e230 173f 10be 9f3e

act_fun.0.scale_sp f4 [2]
1.7347095 1.4990075
00000000: f60a de3f 7adf bf3f

act_fun.0.mask f4 [2]
1.0 1.0
00000000: 0000 803f 0000 803f

act_fun.1.grid f4 [2, 4]
-0.49917302 0.47667298 1.4525189 2.428365 -0.49917302 0.47667298 1.4525189 2.428365
00000000: 9b93 ffbe 7b0e f43e 24ec b93f 556a 1b40
00000010: 9b93 ffbe 7b0e f43e 24ec b93f 556a 1b40

act_fun.1.coef f4 [2, 6]
1.046556 -0.23203129 -0.1955648 0.2822717 0.41388923 -0.2013823 -0.6118395 0.47480416
0.09833351 -0.95155823 -0.87027836 -0.24657755
00000000: 8cf5 853f 9c99 6dbe 2442 48be eb85 903e
00000010: 4ae9 d33e 2937 4ebe 83a1 1cbf 8819 f33e
00000020: 1463 c93d 5299 73bf 90ca 5ebf d37e 7cbe

act_fun.1.scale_base f4 [2]
1.0284985 0.5652826
00000000: d7a5 833f 5cb6 103f

act_fun.1.scale_sp f4 [2]
2.0076356 2.3258736
00000000: 1a7d 0040 1ddb 1440

act_fun.1.mask f4 [2]
1.0 1.0
00000000: 0000 803f 0000 803f

symbolic_fun.0.mask f4 [1, 2]
0.0 0.0
00000000: 0000 0000 0000 0000

symbolic_fun.0.affine f4 [1, 2, 4]
0.0 0.0 0.0 0.0 0.0 0.0 0.0 0.0
00000000: 0000 0000 0000 0000 0000 0000 0000 0000
00000010: 0000 0000 0000 0000 0000 0000 0000 0000

symbolic_fun.1.mask f4 [2, 1]
0.0 0.0
00000000: 0000 0000 0000 0000

symbolic_fun.1.affine f4 [2, 1, 4]
0.0 0.0 0.0 0.0 0.0 0.0 0.0 0.0
00000000: 0000 0000 0000 0000 0000 0000 0000 0000
00000010: 0000 0000 0000 0000 0000 0000 0000 0000
