workspace/results/ascad/KAN_ASCADf_snr/3/KAN-1Hidden.ckpt (torch, 5622 bytes, 15 tensors)

biases.1.weight f4 [1, 2]
0	0xbd80177d	-0.0625448
1	0xbdd60312	-0.10449804

act_fun.0.grid f4 [2, 4]
0	0xc0352af2	-2.8307462
1	0xbf896210	-1.0733051
2	0x3f2f2388	0.6841359
3	0x401c42cc	2.441577
4	0xc02d2b0f	-2.705753
5	0xbf811aa4	-1.0086255
6	0x3f3041ac	0.6885021
7	0x4018ae27	2.3856294

act_fun.0.coef f4 [2, 6]
0	0xbec12ca9	-0.37729385
1	0xbde6467f	-0.11243915
2	0xbdb4f18a	-0.088351324
3	0xbb10b0ac	-0.002207796
4	0xbe922ca0	-0.2854967
5	0xbf87b61d	-1.0602452
6	0xbe9a857d	-0.30179968
7	0xbe4c1012	-0.19928005
8	0xbebc7787	-0.36809942
9	0xbda46c34	-0.080284506
10	0xbe3c74c8	-0.18403924
11	0xbea69848	-0.32538056

act_fun.0.scale_base f4 [2]
0	0x3f175595	0.5911496
1	0x3ed4ebf1	0.4158626

act_fun.0.scale_sp f4 [2]
0	0x3fce79cc	1.613092
1	0x3fc07246	1.5034873

act_fun.0.mask f4 [2]
0	0x3f800000	1.0
1	0x3f800000	1.0

act_fun.1.grid f4 [2, 4]
0	0xbf00ee23	-0.5036337
1	0x3ecb27d0	0.39678812
2	0x3fa60afa	1.29721
3	0x400ca5ff	2.1976316
4	0xbf00ee23	-0.5036337
5	0x3ecb27d0	0.39678812
6	0x3fa60afa	1.29721
7	0x400ca5ff	2.1976316

act_fun.1.coef f4 [2, 6]
0	0x3edcac69	0.4310029
1	0x3db99134	0.090608984
2	0xbdc81c9d	-0.097710826
3	0xbe18ab8e	-0.14909193
4	0x3d448d2d	0.0479862
5	0xbdb53643	-0.0884824
6	0x3cf80c31	0.03027925
7	0x3e9c45a0	0.3052187
8	0xbbccc98e	-0.006249613
9	0xbf37560b	-0.71615666
10	0xbf0bb76e	-0.54576766
11	0xbddee255	-0.10883013

act_fun.1.scale_base f4 [2]
0	0x3f5f9812	0.87341416
1	0x3f2ddf71	0.6791907

act_fun.1.scale_sp f4 [2]
0	0x3faa340f	1.3297137
1	0x3fc4da4c	1.5379119

act_fun.1.mask f4 [2]
0	0x3f800000	1.0
1	0x3f800000	1.0

symbolic_fun.0.mask f4 [1, 2]
0	0x00000000	0.0
1	0x00000000	0.0

symbolic_fun.0.affine f4 [1, 2, 4]
0	0x00000000	0.0
1	0x00000000	0.0
2	0x00000000	0.0
3	0x00000000	0.0
4	0x00000000	0.0
5	0x00000000	0.0
6	0x00000000	0.0
7	0x00000000	0.0

symbolic_fun.1.mask f4 [2, 1]
0	0x00000000	0.0
1	0x00000000	0.0

symbolic_fun.1.affine f4 [2, 1, 4]
0	0x00000000	0.0
1	0x00000000	0.0
2	0x00000000	0.0
3	0x00000000	0.0
4	0x00000000	0.0
5	0x00000000	0.0
6	0x00000000	0.0
7	0x00000000	0.0
