workspace/results/ascad/KAN_ASCADf/7/KAN-2Hidden.ckpt (torch, 259902 bytes, 23 tensors)

biases.0.weight f4 [1, 5]
-0.045903295 -0.024277575 -0.028931053 -0.03793155 -0.024654375
00000000: 1805 3cbd c4e1 c6bc d100 edbc 1d5e 1bbd
00000010: f9f7 c9bc

biases.2.weight f4 [1, 2]
0.008178211 -0.009932834
00000000: e7fd 053c 53bd 22bc

act_fun.0.grid f4 [3500, 4]
-2.545021 -0.9663923 0.6122365 2.190865 -2.5363858 -0.8957008 0.74498415 2.385669
-2.881272 -1.16931 0.54265213 2.254614 -2.5832357 -0.9371946 0.70884657 2.3548875
-2.7364957 -0.9313644 0.8737669 2.678898 -2.3804293 -0.752393 0.87564325 2.5036793
-2.447887 -0.8199011 0.8080847 2.4360704 -2.3023553 -0.69827294 0.9058094 2.5098915
-2.2530813 -0.5631677 1.1267459 2.8166595 -2.576468 -0.8195578 0.9373524 2.6942625
-2.6917257 -0.7934848 1.1047561 3.002997 -2.5592258 -0.7280221 1.1031816 2.934385
-2.4131365 -0.56165004 1.2898364 3.1413226 -2.3734508 -0.5271603 1.3191302 3.1654205
-2.3256156 -0.5625857 1.2004442 2.963474 -2.5887034 -0.79771376 0.9932759 2.7842653
-2.2696753 -0.5554805 1.1587143 2.872909 -1.9596926 -0.5286237 0.9024452 2.3335142
-2.0620837 -0.58840334 0.88527703 2.3589573 -2.141403 -0.61728334 0.9068363 2.4309556
-2.2713652 -0.72197866 0.82740784 2.3767943 -2.3792295 -0.8336332 0.7119632 2.2575593
-2.6783915 -0.83060765 1.0171762 2.8649597 -3.1646223 -1.1902452 0.784132 2.7585092
-3.0709941 -1.1019387 0.8671167 2.8361719 -2.9647057 -1.162215 0.6402757 2.4427664
-3.0811162 -1.3349812 0.4111538 2.1572886 -2.9526005 -1.1965499 0.5595007 2.3155513
-2.992822 -1.2247629 0.5432961 2.3113549 -2.8784037 -1.0887853 0.7008331 2.4904513
-3.1368833 -1.3496907 0.4375019 2.2246943 -2.7979798 -1.1485724 0.50083494 2.1502423
-2.4054782 -0.84997344 0.70553136 2.2610362 -1.9465579 -0.46558237 1.0153931 2.4963684
-1.8251818 -0.4173566 0.9904686 2.3982935 -1.8092273 -0.4718846 0.86545813 2.2028008
-2.4281754 -0.84667706 0.7348213 2.3163195 -2.4905453 -0.8655267 0.7594919 2.3845105
-1.4076675 -0.07730234 1.2530628 2.583428 -2.0725691 -0.38942623 1.2937167 2.9768593
-2.0245488 -0.38581228 1.2529242 2.8916605 -2.04012 -0.52790403 0.9843118 2.4965274
-2.2558923 -0.76273465 0.730423 2.2235804 -2.830086 -1.0990169 0.6320522 2.3631213
-3.0803547 -1.1186147 0.84312534 2.8048654 -2.6477983 -0.9298619 0.7880745 2.5060108
-2.8489258 -1.1259587 0.59700847 2.3199756 -2.6738906 -0.9958664 0.68215775 2.3601818
-2.3283868 -0.7779366 0.7725136 2.3229637 -2.5621798 -0.7672205 1.0277388 2.8226979
-2.5690246 -0.9314486 0.7061274 2.3437033 -2.731151 -0.9052639 0.9206233 2.7465105
-2.690894 -1.0881981 0.51449776 2.1171935 -3.2296948 -1.4239061 0.38188267 2.1876712
-3.1634858 -1.3590841 0.4453175 2.249719 -3.0708957 -1.3059916 0.45891237 2.2238164
-2.5085554 -0.9557092 0.597137 2.149983 -2.3857377 -0.8380165 0.70970464 2.2574255
-2.395283 -0.7601788 0.8749254 2.5100296 -2.2368665 -0.7363558 0.7641549 2.2646656
-2.305847 -0.78983486 0.7261772 2.2421892 -2.5244944 -0.8914833 0.7415278 2.3745387
-2.7048826 -0.7625085 1.1798656 3.1222396 -2.3099036 -0.510973 1.2879577 3.0868883
00000000: a0e1 22c0 7c65 77bf 88bb 1c3f 2237 0c40
00000010: 2554 22c0 a64c 65bf 48b7 3e3f cdae 1840
00000020: c366 38c0 f3ab 95bf 40eb 0a3f 994b 1040
00000030: bc53 25c0 fceb 6fbf f876 353f 7ab6 1640
00000040: bf22 2fc0 e66d 6ebf 30af 5f3f 1173 2b40
00000050: f458 18c0 d49c 40bf 282a 603f 483c 2040
00000060: 2eaa 1cc0 0ae5 51bf a4de 4e3f 94e8 1b40
00000070: ca59 13c0 04c2 32bf 20e3 673f 10a2 2040
00000080: 7c32 10c0 c22b 10bf 3639 903f 2644 3440
00000090: dae4 24c0 8ace 51bf 54f6 6f3f cc6e 2c40
000000a0: 3c45 2cc0 d221 4bbf a668 8d3f 1a31 4040
000000b0: 5bca 23c0 a85f 3abf 0e35 8d3f f7cc 3b40
000000c0: d470 1ac0 4cc8 0fbf 5c19 a53f 6e0b 4940
000000d0: 9ee6 17c0 faf3 06bf 42d9 a83f 4096 4a40
000000e0: e3d6 14c0 9e05 10bf 28a8 993f 8fa9 3d40
000000f0: 51ad 25c0 f836 4cbf 5447 7e3f 6731 3240
00000100: 5c42 11c0 f833 0ebf c050 943f bedd 3740
00000110: 35d7 fabf e253 07bf a606 673f 4c58 1540
00000120: 2ef9 03c0 9aa1 16bf 84a1 623f 28f9 1640
00000130: bf0c 09c0 4806 1ebf 6c26 683f c794 1b40
00000140: 0c5e 11c0 98d3 38bf 00d1 533f 661d 1840
00000150: 4c45 18c0 fc68 55bf 3843 363f da7b 1040
00000160: c46a 2bc0 b4a2 54bf d432 823f 805b 3740
00000170: 2c89 4ac0 f459 98bf e0bc 483f 6a8b 3040
00000180: 2b8b 44c0 540c 8dbf 5cfb 5d3f d783 3540
00000190: bdbd 3dc0 76c3 94bf 1ce9 233f 4956 1c40
000001a0: 0231 45c0 aae0 aabf c082 d23e 0411 0a40
000001b0: 68f7 3cc0 8c28 99bf 703b 0f3f fe31 1440
000001c0: 658a 3fc0 08c5 9cbf 7415 0b3f 3ded 1340
000001d0: c437 38c0 515d 8bbf cc69 333f 8e63 1f40
000001e0: b2c2 48c0 aac2 acbf 4000 e03e 6461 0e40
000001f0: 1a12 33c0 6c04 93bf b836 003f 929d 0940
00000200: 5bf3 19c0 dc97 59bf b49d 343f d1b4 1040
00000210: cf28 f9bf d060 eebe 67f8 813f 80c4 1f40
00000220: 8f9f e9bf c4af d5be 5a8f 7d3f a47d 1940
00000230: c394 e7bf dc9a f1be aa8e 5d3f b0fa 0c40
00000240: 3a67 1bc0 d4bf 58bf 401d 3c3f 943e 1440
00000250: 1865 1fc0 2893 5dbf 106e 423f d29b 1840
00000260: 732e b4bf b050 9ebd 5d64 a03f e256 2540
00000270: f9a4 04c0 e062 c7be 8298 a53f dd84 3e40
00000280: 3592 01c0 3089 c5be d25f a03f f710 3940
00000290: 5391 02c0 b824 07bf dcfb 7b3f 1bc7 1f40
000002a0: 8a60 10c0 9442 43bf 00fd 3a3f 244f 0e40
000002b0: 2120 35c0 96ac 8cbf 2cce 213f 613d 1740
000002c0: 8824 45c0 c42e 8fbf 10d7 573f ea82 3340
000002d0: 8775 29c0 6e0b 6ebf 40bf 493f 7b62 2040
000002e0: cd54 36c0 6a1f 90bf 8cd5 183f 7b7a 1440
000002f0: 0621 2bc0 1af1 7ebf e4a1 2e3f 380d 1740
00000300: 4a04 15c0 da26 47bf 74c3 453f 70ab 1440
00000310: c1fa 23c0 9068 44bf f28c 833f 15a7 3440
00000320: e66a 24c0 6a73 6ebf c4c4 343f 3cff 1540
00000330: 2ecb 2ec0 60bf 67bf f8ad 6b3f d4c6 2f40
00000340: 9b37 2cc0 134a 8bbf 20b6 033f 1980 0740
00000350: 52b3 4ec0 8e42 b6bf 2086 c33e ce02 0c40
00000360: 8d76 4ac0 78f6 adbf a800 e43e 65fb 0f40
00000370: 8e89 44c0 bc2a a7bf 90f6 ea3e 0253 0e40
00000380: 2c8c 20c0 5ca9 74bf f8dd 183f 5299 0940
00000390: edaf 18c0 4088 56bf 34af 353f a979 1040
000003a0: 514c 19c0 149b 42bf 1cfb 5f3f 53a4 2040
000003b0: d228 0fc0 d081 3cbf a89f 433f 48f0 1040
000003c0: ff92 13c0 9e32 4abf c0e6 393f 0780 0f40
000003d0: 5191 21c0 4038 64bf c4d4 3d3f 71f8 1740
000003e0: cc1c 2dc0 c233 43bf d605 973f c6d2 4740
000003f0: 76d5 13c0 20cf 02bf ccdb a43f 948f 4540

act_fun.0.coef f4 [3500, 6]
0.08088278 -0.144136 -0.122732565 0.007398491 0.21095076 -0.14955029 -0.22286934 -0.14368203
-0.0746359 -0.04958801 0.16308792 -0.21695852 -0.086103976 -0.15008716 -0.09629433 -0.018184297
0.08827557 -0.17523028 -0.18367831 -0.18361598 -0.0989536 -0.014938812 0.058298763 -0.10631094
0.044271175 -0.22008264 -0.074042894 0.0021071015 0.0064732847 0.037737705 -0.11024756 -0.2315604
-0.061666746 -0.00620331 0.035512276 -0.2290858 0.48328915 -0.24202394 -0.009651642 -0.020283425
-0.025094729 -0.4079384 0.15929641 -0.17706202 -0.034407794 -0.003967811 -0.02101469 -0.3668151
0.04170097 -0.09645213 -0.014857562 -0.01926281 -0.05151143 0.06871446 0.048609138 -0.020401357
-0.035954658 -0.03163797 -0.05162132 -0.32974434 0.02121099 0.092894286 -0.031496216 -0.08233555
-0.083933435 -0.22523193 0.23403893 0.061876457 -0.012487887 -0.07262507 -0.16633643 -0.024211256
-0.19083227 0.108309746 0.020720256 -0.16875419 -0.16566144 -0.02966528 -0.2178227 0.055051856
-0.032404657 -0.0960116 -0.08088615 -0.3618458 -0.055597994 0.021800738 -0.021190679 -0.11533239
-0.14183739 0.681026 -0.24584998 0.06758939 -0.030717593 -0.06166141 -0.10133583 -0.032277744
0.17558335 -0.10925932 0.012204485 -0.04843253 -0.1571739 0.34766787 -0.0292412 -0.11172833
-0.006297583 0.011028671 -0.21516588 0.10736102 -0.50452054 -0.09391733 0.008789486 0.012669193
-0.17745823 -0.056206122 -0.34890488 -0.1023894 0.017074503 -0.01029041 -0.19736104 -0.007860645
-0.2671013 -0.12578325 0.01894501 -0.025604267 -0.19191368 -0.100072265 -0.15649375 0.0050746594
-0.038080107 -0.048147023 -0.09646999 -0.2528345 -0.044316527 -0.030204525 -0.00556418 -0.022677425
-0.13533722 -0.00482031 0.19491485 -0.08016169 -0.023119403 -0.035413265 -0.09975577 -0.032238696
-0.16241024 -0.089159 -0.01526738 -0.036003534 -0.0019255723 -0.049686104 0.22752546 -0.15621446
-0.0267088 0.015149544 -0.06950484 -0.02643487 0.16249903 -0.15616117 -0.008160344 -0.022477768
-0.04496418 -0.042841353 -0.26808983 -0.08043569 -0.027330175 -0.053538598 0.06821888 -0.18872546
0.28933603 -0.11558048 -0.055297013 -0.019825192 0.011899133 -0.22223279 -0.15917447 -0.13420983
-0.013321668 -0.039737288 -0.0065416936 -0.16582496 -0.06461773 -0.14240594 -0.071632 -0.036052734
-0.008820733 -0.014585256 -0.29276857 -0.09581735 -0.0228843 -0.026880153 -0.039805923 -0.28004116
-0.15827566 -0.035962876 -0.05840472 -0.011543916 -0.038177885 -0.11893114 -0.073083945 -0.097688824
0.0014516208 -0.036998082 -0.056154072 -0.23116527 -0.07492216 -0.018637823 -0.04006922 -0.046305116
0.015774135 -0.15331048 -0.0678894 -0.057841282 -0.035293985 0.010662186 -0.04594587 -0.4091783
0.12767781 -0.11173498 -0.015600956 0.004556151 -0.084975615 -0.7982734 0.011453506 -0.15556006
-0.0050860653 0.016009744 -0.12205414 -0.5254814 -0.25667316 -0.06858076 -0.040821794 0.022707589
-0.021189976 -0.35848302 -0.013524727 -0.0074326815 -0.048119154 -0.069245145 0.0293012 -0.21353279
-0.05942036 -0.037709072 0.003893143 -0.07568264 -0.097209916 0.26773816 -0.3139658 -0.020352734
-0.0054937545 -0.08216669 -0.09578692 0.012753235 -0.28747663 0.017352367 -0.014896062 -0.050912295
00000000: dfa5 a53d 6398 13be 365b fbbd 0a6f f23b
00000010: 7a03 583e b623 19be dc37 64be 6221 13be
00000020: b5da 98bd cc1c 4bbd 8500 273e 602a 5ebe
00000030: 4857 b0bd 73b0 19be f635 c5bd 3cf7 94bc
00000040: d2c9 b43d 916f 33be 2b16 3cbe d405 3cbe
00000050: 2fa8 cabd ebc1 74bc afca 6e3d 8db9 d9bd
00000060: b155 353d 585d 61be cda3 97bd 4c17 0a3b
00000070: d91d d43b da92 1a3d 79c9 e1bd 2b1e 6dbe
00000080: 4596 7cbd 2345 cbbb 5275 113d 7895 6abe
00000090: ad71 f73e 20d5 77be ec21 1ebc 6d29 a6bc
000000a0: 7693 cdbc 4ddd d0be 991e 233e bf4f 35be
000000b0: 30ef 0cbd 6904 82bb 0027 acbc 30cf bbbe
000000c0: a3ce 2a3d b288 c5bd 226d 73bc 0acd 9dbc
000000d0: a6fd 52bd 2bba 8c3d 601a 473d bf20 a7bc
000000e0: 3145 13bd d196 01bd e170 53bd 40d4 a8be
000000f0: acc2 ad3c 5c3f be3d 2d02 01bd 8a9f a8bd
00000100: 4be5 abbd 33a3 66be e7a7 6f3e 2b72 7d3d
00000110: ff99 4cbc 74bc 94bd 1954 2abe af56 c6bc
00000120: 8969 43be 80d1 dd3d 87bd a93c e6cd 2cbe
00000130: 27a3 29be 9a04 f3bc ea0c 5fbe 0e7e 613d
00000140: bfba 04bd bba1 c4bd a3a7 a5bd da43 b9be
00000150: b9ba 63bd 7697 b23c 1398 adbc 6333 ecbd
00000160: d23d 11be b857 2e3f 19c0 7bbe 4e6c 8a3d
00000170: 76a3 fbbc ad90 7cbd 2989 cfbd ab35 04bd
00000180: 1fcc 333e 5ac3 dfbd 52f5 473c 3061 46bd
00000190: 32f2 20be 8601 b23e 3e8b efbc d3d1 e4bd
000001a0: f55b cebb 99b1 343c 7254 5cbe 18e0 db3d
000001b0: 4228 01bf bb57 c0bd c701 103c 7292 4f3c
000001c0: 9cb7 35be 6438 66bd a9a3 b2be 89b1 d1bd
000001d0: d4df 8b3c 1c99 28bc 0319 4abe efc9 00bc
000001e0: 80c1 88be 53cd 00be 9132 9b3c 0ac0 d1bc
000001f0: 0585 44be b0f2 ccbd e63f 20be 5449 a63b
00000200: e3f9 1bbd d035 45bd 0f92 c5bd 8673 81be
00000210: 3f85 35bd 7b6f f7bc ba53 b6bb 02c6 b9bc
00000220: d795 0abe b1f3 9dbb c297 473e d02b a4bd
00000230: e764 bdbc 800d 11bd c14c ccbd b90c 04bd
00000240: df4e 26be fe98 b6bd 0824 7abc 7178 13bd
00000250: 7c63 fcba a883 4bbd 6ffc 683e aff6 1fbe
00000260: 6acc dabc cb35 783c 8e58 8ebd f18d d8bc
00000270: 2566 263e b7e8 1fbe f7b2 05bc 4c23 b8bc
00000280: 5c2c 38bd 6a7a 2fbd 1243 89be 78bb a4bd
00000290: 88e3 dfbc 4a4b 5bbd 57b6 8b3d 3f41 41be
000002a0: da23 943e 75b5 ecbd 1f7f 62bd 7168 a2bc
000002b0: 95f4 423c fe90 63be a2fe 22be 4d6e 09be
000002c0: 2043 5abc 91c3 22bd b45b d6bb 05ce 29be
000002d0: 4d56 84bd ddd2 11be ccb3 92bd 08ac 13bd
000002e0: d684 10bc fff6 6ebc c3e5 95be e33b c4bd
000002f0: db77 bbbc c433 dcbc 890b 23bd 8e61 8fbe
00000300: 0413 22be cf4d 13bd ca39 6fbd b122 3dbc
00000310: 6a60 1cbd 2b92 f3bd 09ad 95bd 1411 c8bd
00000320: 5044 be3a 4d8b 17bd d001 66bd 97b6 6cbe
00000330: ca70 99bd 59ae 98bc 9f1f 24bd 6faa 3dbd
00000340: c238 813c 6cfd 1cbe 9909 8bbd fbea 6cbd
00000350: 6d90 10bd 73b0 2e3c bd31 3cbd d17f d1be
00000360: f9bd 023e 4fd5 e4bd 279b 7fbc c44b 953b
00000370: b207 aebd a55b 4cbf 7ca7 3b3c 234b 1fbe
00000380: 02a9 a6bb de26 833c 85f7 f9bd f385 06bf
00000390: aa6a 83be 1274 8cbd c134 27bd 4405 ba3c
000003a0: 9a96 adbc 168b b7be d196 5dbc da8d f3bb
000003b0: 9718 45bd 66d0 8dbd 1209 f03c 57a8 5abe
000003c0: c362 73bd d474 1abd 1a24 7f3b 80ff 9abd
000003d0: fe15 c7bd fa14 893e 20c0 a0be c7ba a6bc
000003e0: f404 b4bb 0247 a8bd ef2b c4bd f2f2 503c
000003f0: 2330 93be 8d26 8e3c 9d0e 74bc 6989 50bd

act_fun.0.scale_base f4 [3500]
-0.034674443 -0.14452636 -0.028311647 -0.06606407 0.15077925 0.10328627 -0.18643902 -0.52504206
-0.02403927 -0.41696265 -0.099370725 -0.20287775 -0.30863097 0.003980386 0.0005189442 -0.19418894
-0.42569327 -0.49023315 -0.042509045 -0.017498083 -0.093711324 -0.49355888 -0.21034017 0.2575616
0.12821722 -0.18984962 -0.09031782 0.048486806 0.24094535 0.24542093 0.1395082 -0.30767742
-0.1968165 -0.12539466 -0.180173 -0.08800103 -0.14324076 -0.19117042 0.06804935 0.014980632
-0.14577755 0.016642308 -0.19205926 -0.13200815 -0.00081484154 0.3072137 -0.44050404 -0.42906612
-0.3282899 0.032480963 0.06952134 -0.052284695 -0.1464088 -0.2264366 0.07425331 -0.1571637
-0.20399907 0.025277281 0.2149047 0.59463084 -0.41490176 -0.2741682 0.21424098 -0.25875983
-0.32168776 -0.035995558 -0.11549153 -0.010592383 -0.6519313 0.271261 -0.26167545 -0.14707091
-0.46842527 -0.27640024 -0.12806104 -0.15273009 -0.38508442 -0.022392722 -0.13462444 0.024166992
-0.07712086 0.042297754 -0.20356093 -0.02863363 0.094493836 -0.14422983 0.23786363 0.007918838
-0.15687612 0.33683336 -0.514198 -0.24128196 -0.3888358 -0.38178965 -0.19884354 -0.0040448844
0.22585508 -0.4472404 -0.032947913 -0.010724778 -0.6817262 -0.4921672 -0.19222625 -0.08928012
-0.05377004 -0.100836046 -0.023494894 -0.0058837687 0.019185986 -0.19623895 0.092596136 -0.24792767
-0.14151843 -0.55230856 -0.017522164 -0.053303078 0.07726809 -0.07773492 -0.33859962 -0.057683643
-0.23695156 -0.19981302 0.23730093 -0.23736487 -0.20016049 -0.00089866656 0.031394646 0.10124073
-0.2279751 -0.12854834 -0.27262697 0.015550813 0.019640362 -0.026080731 0.3881989 -0.31809184
-0.078904875 -0.08782724 -0.19184753 -0.32358983 -0.07595669 -0.20039053 -0.094902836 -0.086597584
-0.2364216 -0.13688315 -0.11728737 0.081443876 -0.016234435 0.03833531 -0.060807083 -0.064635836
0.0020659752 -0.22439067 -0.39255133 0.051122263 -0.14279155 0.016897768 -0.021430584 0.009109063
0.11503286 -0.25559783 0.010949627 -0.09399707 0.14202882 -0.19757946 0.032827917 -0.12889259
-0.1957376 -0.20943515 -0.2470318 -0.08424034 -0.19614111 -0.29401454 -0.049896117 -0.35754046
-0.18779317 -0.29069728 -0.4867017 -0.19953589 0.18244475 -0.020762974 0.36454666 0.10437938
-0.30046916 -0.16279306 0.22392407 0.0015431279 0.075155385 -0.27414477 -0.30995798 -0.31064242
-0.17635329 0.1097178 0.011418465 -0.021282896 -0.07223745 0.058840763 -0.1942918 0.06787827
-0.10397568 -0.24557543 0.100262955 0.13923231 0.25631094 -0.2372757 0.0992975 -0.097740255
0.28308916 0.08759451 0.25042582 0.18151923 -0.27393186 0.1552251 -0.13883111 -0.33101648
0.035785668 0.125369 -0.2488572 -0.056521457 -0.20512415 -0.25561386 -0.50038064 -0.26306778
-0.22353975 0.14308128 -0.08745887 -0.095563255 -0.15243453 -0.020175846 -0.13921389 -0.38686657
-0.090965725 -0.14796151 -0.09245187 0.22078644 -0.11964254 0.16963103 0.26051763 -0.40353838
-0.34651452 -0.42319557 -0.07426318 -0.3408731 0.16136208 -0.17230324 0.00025643126 -0.23167062
-0.17936978 0.033360187 0.075758584 -0.1627743 -0.23467043 0.02357853 0.4105437 0.10609257
00000000: ca06 0ebd b8fe 13be d4ed e7bc 994c 87bd
00000010: e065 1a3e c087 d33d dfe9 3ebe 2869 06bf
00000020: 01ee c4bc 217c d5be e182 cbbd 2fbf 4fbe
00000030: e104 9ebe e66d 823b c109 083a 77d9 46be
00000040: 78f4 d9be d7ff fabe f71d 2ebd 2458 8fbc
00000050: b9eb bfbd c0b3 fcbe 6a63 57be 1ddf 833e
00000060: 604b 033e f067 42be 8df8 b8bd 1a9a 463d
00000070: 61ba 763e a04f 7b3e 3ddb 0e3e e587 9dbe
00000080: 448a 49be 7567 00be 457f 38be e239 b4bd
00000090: b5ad 12be 2ec2 43be 755d 8b3d 5371 753c
000000a0: b646 15be 7355 883c 2fab 44be 252d 07be
000000b0: 179b 55ba 1d4b 9d3e bf89 e1be 8eae dbbe
000000c0: 9d15 a8be c20a 053d 3461 8e3d 7a28 56bd
000000d0: 30ec 15be ffde 67be 1f12 983d 85ef 20be
000000e0: 22e5 50be 4d12 cf3c fa0f 5c3e ba39 183f
000000f0: 016e d4be c65f 8cbe fd61 5b3e 2b7c 84be
00000100: 42b4 a4be 1470 13bd d386 ecbd ad8b 2dbc
00000110: f8e4 26bf b9e2 8a3e 53fa 85be c299 16be
00000120: 70d5 efbe 5584 8dbe 6f22 03be 4765 1cbe
00000130: c929 c5be f170 b7bc fdda 09be dbf9 c53c
00000140: 8bf1 9dbd 6940 2d3d 4772 50be 1391 eabc
00000150: fc85 c13d fcb0 13be 8692 733e 04be 013c
00000160: 22a4 20be 6c75 ac3e 7ba2 03bf 9e12 77be
00000170: 7c15 c7be ef79 c3be a49d 4bbe f38a 84bb
00000180: 8e46 673e b2fc e4be 64f4 06bd fbb6 2fbc
00000190: 9c85 2ebf 57fd fbbe f5d6 44be 7fd8 b6bd
000001a0: f93d 5cbd 2183 cebd 5d78 c0bc a1cc c0bb
000001b0: ee2b 9d3c ddf2 48be 0ba3 bd3d c0e0 7dbe
000001c0: 35ea 10be 1864 0dbf a48a 8fbc 5454 5abd
000001d0: bb3e 9e3d 7c33 9fbd ee5c adbe af45 6cbd
000001e0: 6ea3 72be c99b 4cbe 04ff 723e c70f 73be
000001f0: dff6 4cbe 7e94 6bba ac97 003d 4d57 cf3d
00000200: 4e72 69be 2da2 03be c395 8bbe d6c8 7e3c
00000210: d3e4 a03c 42a7 d5bc 02c2 c63e efdc a2be
00000220: e198 a1bd c5de b3bd ae73 44be 91ad a5be
00000230: 2e8f 9bbd 2d33 4dbe 6b5c c2bd 135a b1bd
00000240: 8118 72be 192b 0cbe 5c34 f0bd 0ccc a63d
00000250: 14fe 84bc 7c05 1d3d d910 79bd cb5f 84bd
00000260: 5065 073b abc6 65be 7dfc c8be 9465 513d
00000270: f337 12be 306d 8a3c 318f afbc 2e3e 153c
00000280: 5996 eb3d b8dd 82be 1066 333c 8981 c0bd
00000290: 0170 113e 4552 4abe 9176 063d 6bfc 03be
000002a0: 706f 48be 2b76 56be e7f5 7cbe 3386 acbd
000002b0: 37d9 48be 1389 96be df5f 4cbd 8b0f b7be
000002c0: da4c 40be 46d6 94be f730 f9be 2353 4cbe
000002d0: ccd2 3a3e 1d17 aabc dca5 ba3e dbc4 d53d
000002e0: 18d7 99be 39b3 26be 5a4c 653e c842 ca3a
000002f0: 11eb 993d b45c 8cbe d0b2 9ebe 860c 9fbe
00000300: f595 34be bab3 e03d 8314 3b3c 7859 aebc
00000310: 3af1 93bd 0303 713d 6ef4 46be c303 8b3d
00000320: 34f1 d4bd 2078 7bbe aa56 cd3d ea92 0e3e
00000330: 303b 833e 67f8 72be 7d5c cb3d 0b2c c8bd
00000340: 10f1 903e c064 b33d d037 803e 2de0 393e
00000350: cc40 8cbe 54f3 1e3e be29 0ebe fe7a a9be
00000360: fe93 123d bb60 003e 6cd4 7ebe 0b83 67bd
00000370: 110c 52be d2df 82be f218 00bf d2b0 86be
00000380: 9be7 64be e683 123e a31d b3bd abb6 c3bd
00000390: cc17 1cbe d147 a5bc 168e 0ebe 6013 c6be
000003a0: 3d4c babd 3983 17be 6857 bdbd d715 623e
000003b0: 2607 f5bd c2b3 2d3e 9162 853e 959c cebe
000003c0: 5a6a b1be 17ad d8be 4b17 98bd eb86 aebe
000003d0: 1a3c 253e 4370 30be 9f71 8639 103b 6dbe
000003e0: b6ac 37be b1a4 083d 5127 9b3d 4eae 26be
000003f0: 724d 70be c327 c13c c932 d23e 1047 d93d

act_fun.0.scale_sp f4 [3500]
1.2038568 1.0414389 1.0643045 1.0622085 1.0403912 1.0702294 1.0471143 1.0737461
0.8921828 0.9506498 1.0175529 1.0088257 1.1910552 1.0124639 1.052794 0.9656988
1.0348547 1.0662705 1.2174835 1.1182954 1.0749713 0.9695759 0.9060556 0.98351675
0.93997693 0.962395 0.92572576 0.9861105 0.9929584 0.95318824 0.9829845 0.9864762
0.9597538 0.93720746 0.9455492 0.9504003 1.1295288 1.1084771 1.1065006 0.9852095
0.9022644 0.9893218 0.86394 0.9737908 0.93740046 0.9853497 1.0386523 1.033747
1.2191167 1.0223925 1.0040841 1.0247439 1.021508 1.0594282 0.9704646 0.9041438
0.9502558 1.0166173 0.9148285 0.99321675 0.9442014 0.9660615 0.9528593 1.0162592
1.0015243 1.0962803 1.1588187 1.1368098 1.264247 1.0958916 0.87352663 1.0630615
0.9455411 0.99042237 0.96185255 0.9917204 1.0091941 1.0051637 1.1308514 1.0228981
1.030876 1.1632025 1.028409 0.9775553 0.98547095 0.9088227 1.0005709 0.92774487
0.9497056 0.8830516 1.0316746 1.0352395 0.9954397 0.93979 1.0010788 0.9794876
0.9216187 1.0220587 0.99932814 0.9424713 0.995893 0.98654467 1.0128372 0.99011934
0.99507254 0.9987212 1.0528644 0.9938724 0.9951459 0.90939397 0.972739 0.9497353
0.963571 0.94690585 1.0178343 1.0146888 1.04081 0.985239 1.0518461 1.0585803
0.92626524 0.9271966 1.0287431 0.9616856 0.9593862 1.0368874 1.0222185 1.0124105
1.0334785 1.0051454 1.0432245 1.0178714 1.0159868 0.99143565 0.9527149 0.96056783
0.9495624 0.9435965 0.9872323 0.98353875 0.93571734 0.98353904 0.89392835 0.98236006
0.9993558 0.9809736 0.99411154 0.9010648 1.0282229 0.9088211 1.058728 0.93349004
1.0089895 1.0093316 0.97346836 0.9940804 1.0374504 1.03124 0.98934823 0.9849074
1.0261301 1.0387057 0.9655857 0.97951317 0.88459104 0.8852485 1.0086821 1.0479769
1.0093656 1.1361561 1.0921314 0.9214236 0.9503772 0.9802637 0.9735089 0.9901105
1.0677501 0.988558 0.98815316 0.9655739 0.97647244 0.9892112 1.055051 0.95913917
0.9802966 0.92894363 1.0771497 0.9508103 0.95939285 0.9293526 1.0813097 0.9636327
0.8955564 1.0671985 0.9525738 1.0298969 0.9202383 0.9286335 0.8977219 1.0323681
0.97259724 1.0663272 1.1121283 1.0985737 1.1937495 1.0908283 0.9524517 1.0693676
1.0966691 1.0756413 1.0609078 0.9259616 0.90294003 0.9542076 0.9386357 0.92450136
0.99606276 0.9692092 0.9960568 1.0343441 1.1491829 1.1055759 1.0749404 1.1982473
0.90508246 0.9753136 0.90772915 0.93999517 0.88940513 1.0335984 1.0260215 1.0114958
1.0348593 1.0755551 1.0900855 1.1271384 1.085007 1.0504161 1.0305417 1.009622
0.9077918 0.967594 0.99504375 1.0179517 0.8908183 1.0084293 0.9978518 1.1756392
0.9314284 1.0103716 0.90092814 0.89888865 1.0153191 0.97385657 1.0101521 1.075681
00000000: fb17 9a3f df4d 853f 213b 883f 73f6 873f
00000010: 8a2b 853f 47fd 883f d707 863f 8370 893f
00000020: 1866 643f c95d 733f 2c3f 823f 3321 813f
00000030: 7f74 983f 6b98 813f f4c1 863f 0938 773f
00000040: 1e76 843f 8d7b 883f 80d6 9b3f 4e24 8f3f
00000050: a998 893f 2036 783f 43f3 673f c1c7 7b3f
00000060: 54a2 703f 855f 763f 5dfc 6c3f bd71 7c3f
00000070: 8632 7e3f 2504 743f dfa4 7b3f b489 7c3f
00000080: 6db2 753f d4ec 6f3f 830f 723f 6f4d 733f
00000090: 6694 903f 94e2 8d3f d0a1 8d3f b136 7c3f
000000a0: cdfa 663f 3244 7d3f 2c2b 5d3f 5b4a 793f
000000b0: 7af9 6f3f e13f 7c3f 8ff2 843f d251 843f
000000c0: 040c 9c3f c2dd 823f d485 803f cf2a 833f
000000d0: c6c0 823f 589b 873f 5e70 783f f875 673f
000000e0: f743 733f 8420 823f 3332 6a3f 7443 7e3f
000000f0: 2fb7 713f ce4f 773f 96ee 733f c814 823f
00000100: f331 803f ea52 8c3f 2c54 943f fc82 913f
00000110: d8d2 a13f 2d46 8c3f 719f 5f3f 6612 883f
00000120: fb0e 723f 528c 7d3f f83b 763f 63e1 7d3f
00000130: 462d 813f 34a9 803f bdbf 903f 53ee 823f
00000140: bff3 833f d2e3 943f e8a2 833f 1041 7a3f
00000150: d347 7c3f 9ba8 683f b512 803f b080 6d3f
00000160: e81f 733f ab0f 623f ea0d 843f ba82 843f
00000170: 23d5 7e3f 1496 703f 5a23 803f b3bf 7a3f
00000180: 34ef 6b3f d2d2 823f f8d3 7f3f cd45 713f
00000190: d8f2 7e3f 318e 7c3f a6a4 813f 7678 7d3f
000001a0: 13bd 7e3f 31ac 7f3f 43c4 863f 6c6e 7e3f
000001b0: e2c1 7e3f 0bce 683f 6c05 793f da21 733f
000001c0: 97ac 763f 6c68 723f 6548 823f 53e1 813f
000001d0: 4339 853f a038 7c3f e5a2 863f 8f7f 873f
000001e0: b81f 6d3f c25c 6d3f dbad 833f 0731 763f
000001f0: 569a 753f bab8 843f 0ed8 823f ab96 813f
00000200: 0649 843f 9ba8 803f 6188 853f 9c49 823f
00000210: db0b 823f bace 7d3f 20e5 733f c6e7 753f
00000220: 8516 733f 8a8f 713f 42bb 7c3f 32c9 7b3f
00000230: 2c8b 6f3f 37c9 7b3f 7dd8 643f f37b 7b3f
00000240: c8d5 7f3f 1621 7b3f 187e 7e3f 2fac 663f
00000250: cf9c 833f 80a8 683f 6684 873f 34f9 6e3f
00000260: 9126 813f c731 813f 3935 793f 0e7c 7e3f
00000270: 2dcb 843f acff 833f ed45 7d3f e422 7c3f
00000280: 3b58 833f 4ff4 843f a030 773f 60c1 7a3f
00000290: 8f74 623f a59f 623f 7f1c 813f 1b24 863f
000002a0: e432 813f 906d 913f f6ca 8b3f 6be2 6b3f
000002b0: ec4b 733f 90f2 7a3f e137 793f e277 7d3f
000002c0: 09ac 883f 2312 7d3f 9bf7 7c3f da2f 773f
000002d0: 19fa 793f f23c 7d3f e90b 873f 258a 753f
000002e0: b8f4 7a3f 40cf 6d3f 0be0 893f 4e68 733f
000002f0: c59a 753f 0dea 6d3f 5b68 8a3f a2b0 763f
00000300: 2f43 653f f699 883f e0db 733f a9d3 833f
00000310: bd94 6b3f edba 6d3f 1ad1 653f a324 843f
00000320: 22fc 783f 697d 883f 385a 8e3f 109e 8c3f
00000330: c9cc 983f 43a0 8b3f e0d3 733f 0ae1 883f
00000340: a75f 8c3f 9dae 893f d4cb 873f d20b 6d3f
00000350: 1427 673f f346 743f 6e4a 703f 1fac 6c3f
00000360: f8fd 7e3f 181e 783f 94fd 7e3f 6365 843f
00000370: 6d18 933f 8383 8d3f a697 893f 2b60 993f
00000380: 7cb3 673f 27ae 793f f060 683f 86a3 703f
00000390: 0eb0 633f f44c 843f ac54 833f b278 813f
000003a0: 4576 843f caab 893f ec87 8b3f 1246 903f
000003b0: 82e1 8a3f 0974 863f cae8 833f 4b3b 813f
000003c0: 0b65 683f 3eb4 773f 30bb 7e3f 3e4c 823f
000003d0: ab0c 643f 3614 813f 3773 7f3f 587b 963f
000003e0: 1772 6e3f db53 813f 3aa3 663f 911d 663f
000003f0: faf5 813f aa4e 793f aa4c 813f eaaf 893f

act_fun.0.mask f4 [3500]
1.0 1.0 1.0 1.0 1.0 1.0 1.0 1.0
1.0 1.0 1.0 1.0 1.0 1.0 1.0 1.0
1.0 1.0 1.0 1.0 1.0 1.0 1.0 1.0
1.0 1.0 1.0 1.0 1.0 1.0 1.0 1.0
1.0 1.0 1.0 1.0 1.0 1.0 1.0 1.0
1.0 1.0 1.0 1.0 1.0 1.0 1.0 1.0
1.0 1.0 1.0 1.0 1.0 1.0 1.0 1.0
1.0 1.0 1.0 1.0 1.0 1.0 1.0 1.0
1.0 1.0 1.0 1.0 1.0 1.0 1.0 1.0
1.0 1.0 1.0 1.0 1.0 1.0 1.0 1.0
1.0 1.0 1.0 1.0 1.0 1.0 1.0 1.0
1.0 1.0 1.0 1.0 1.0 1.0 1.0 1.0
1.0 1.0 1.0 1.0 1.0 1.0 1.0 1.0
1.0 1.0 1.0 1.0 1.0 1.0 1.0 1.0
1.0 1.0 1.0 1.0 1.0 1.0 1.0 1.0
1.0 1.0 1.0 1.0 1.0 1.0 1.0 1.0
1.0 1.0 1.0 1.0 1.0 1.0 1.0 1.0
1.0 1.0 1.0 1.0 1.0 1.0 1.0 1.0
1.0 1.0 1.0 1.0 1.0 1.0 1.0 1.0
1.0 1.0 1.0 1.0 1.0 1.0 1.0 1.0
1.0 1.0 1.0 1.0 1.0 1.0 1.0 1.0
1.0 1.0 1.0 1.0 1.0 1.0 1.0 1.0
1.0 1.0 1.0 1.0 1.0 1.0 1.0 1.0
1.0 1.0 1.0 1.0 1.0 1.0 1.0 1.0
1.0 1.0 1.0 1.0 1.0 1.0 1.0 1.0
1.0 1.0 1.0 1.0 1.0 1.0 1.0 1.0
1.0 1.0 1.0 1.0 1.0 1.0 1.0 1.0
1.0 1.0 1.0 1.0 1.0 1.0 1.0 1.0
1.0 1.0 1.0 1.0 1.0 1.0 1.0 1.0
1.0 1.0 1.0 1.0 1.0 1.0 1.0 1.0
1.0 1.0 1.0 1.0 1.0 1.0 1.0 1.0
1.0 1.0 1.0 1.0 1.0 1.0 1.0 1.0
00000000: 0000 803f 0000 803f 0000 803f 0000 803f
00000010: 0000 803f 0000 803f 0000 803f 0000 803f
00000020: 0000 803f 0000 803f 0000 803f 0000 803f
00000030: 0000 803f 0000 803f 0000 803f 0000 803f
00000040: 0000 803f 0000 803f 0000 803f 0000 803f
00000050: 0000 803f 0000 803f 0000 803f 0000 803f
00000060: 0000 803f 0000 803f 0000 803f 0000 803f
00000070: 0000 803f 0000 803f 0000 803f 0000 803f
00000080: 0000 803f 0000 803f 0000 803f 0000 803f
00000090: 0000 803f 0000 803f 0000 803f 0000 803f
000000a0: 0000 803f 0000 803f 0000 803f 0000 803f
000000b0: 0000 803f 0000 803f 0000 803f 0000 803f
000000c0: 0000 803f 0000 803f 0000 803f 0000 803f
000000d0: 0000 803f 0000 803f 0000 803f 0000 803f
000000e0: 0000 803f 0000 803f 0000 803f 0000 803f
000000f0: 0000 803f 0000 803f 0000 803f 0000 803f
00000100: 0000 803f 0000 803f 0000 803f 0000 803f
00000110: 0000 803f 0000 803f 0000 803f 0000 803f
00000120: 0000 803f 0000 803f 0000 803f 0000 803f
00000130: 0000 803f 0000 803f 0000 803f 0000 803f
00000140: 0000 803f 0000 803f 0000 803f 0000 803f
00000150: 0000 803f 0000 803f 0000 803f 0000 803f
00000160: 0000 803f 0000 803f 0000 803f 0000 803f
00000170: 0000 803f 0000 803f 0000 803f 0000 803f
00000180: 0000 803f 0000 803f 0000 803f 0000 803f
00000190: 0000 803f 0000 803f 0000 803f 0000 803f
000001a0: 0000 803f 0000 803f 0000 803f 0000 803f
000001b0: 0000 803f 0000 803f 0000 803f 0000 803f
000001c0: 0000 803f 0000 803f 0000 803f 0000 803f
000001d0: 0000 803f 0000 803f 0000 803f 0000 803f
000001e0: 0000 803f 0000 803f 0000 803f 0000 803f
000001f0: 0000 803f 0000 803f 0000 803f 0000 803f
00000200: 0000 803f 0000 803f 0000 803f 0000 803f
00000210: 0000 803f 0000 803f 0000 803f 0000 803f
00000220: 0000 803f 0000 803f 0000 803f 0000 803f
00000230: 0000 803f 0000 803f 0000 803f 0000 803f
00000240: 0000 803f 0000 803f 0000 803f 0000 803f
00000250: 0000 803f 0000 803f 0000 803f 0000 803f
00000260: 0000 803f 0000 803f 0000 803f 0000 803f
00000270: 0000 803f 0000 803f 0000 803f 0000 803f
00000280: 0000 803f 0000 803f 0000 803f 0000 803f
00000290: 0000 803f 0000 803f 0000 803f 0000 803f
000002a0: 0000 803f 0000 803f 0000 803f 0000 803f
000002b0: 0000 803f 0000 803f 0000 803f 0000 803f
000002c0: 0000 803f 0000 803f 0000 803f 0000 803f
000002d0: 0000 803f 0000 803f 0000 803f 0000 803f
000002e0: 0000 803f 0000 803f 0000 803f 0000 803f
000002f0: 0000 803f 0000 803f 0000 803f 0000 803f
00000300: 0000 803f 0000 803f 0000 803f 0000 803f
00000310: 0000 803f 0000 803f 0000 803f 0000 803f
00000320: 0000 803f 0000 803f 0000 803f 0000 803f
00000330: 0000 803f 0000 803f 0000 803f 0000 803f
00000340: 0000 803f 0000 803f 0000 803f 0000 803f
00000350: 0000 803f 0000 803f 0000 803f 0000 803f
00000360: 0000 803f 0000 803f 0000 803f 0000 803f
00000370: 0000 803f 0000 803f 0000 803f 0000 803f
00000380: 0000 803f 0000 803f 0000 803f 0000 803f
00000390: 0000 803f 0000 803f 0000 803f 0000 803f
000003a0: 0000 803f 0000 803f 0000 803f 0000 803f
000003b0: 0000 803f 0000 803f 0000 803f 0000 803f
000003c0: 0000 803f 0000 803f 0000 803f 0000 803f
000003d0: 0000 803f 0000 803f 0000 803f 0000 803f
000003e0: 0000 803f 0000 803f 0000 803f 0000 803f
000003f0: 0000 803f 0000 803f 0000 803f 0000 803f

act_fun.1.grid f4 [5, 4]
-31.64575 -21.707407 -11.769064 -1.8307228 -32.908257 -23.073023 -13.237789 -3.4025555
-39.97335 -28.129131 -16.284912 -4.440693 -34.35562 -23.238136 -12.120653 -1.00317
-42.223427 -29.67585 -17.128275 -4.5807
00000000: 7f2a fdc1 c5a8 adc1 164e 3cc1 2055 eabf
00000010: 0ea2 03c2 8d95 b8c1 fccd 53c1 78c3 59c0
00000020: b6e4 1fc2 7608 e1c1 8047 82c1 281a 8ec0
00000030: 286c 09c2 b4e7 b9c1 32ee 41c1 e067 80bf
00000040: cae4 28c2 2468 edc1 b506 89c1 1895 92c0

act_fun.1.coef f4 [5, 6]
0.02088377 -0.07302842 -0.09093743 0.063686796 0.0786548 0.04655603 0.09581663 0.103385635
-0.08593649 -0.058481894 0.038358055 -0.17785977 -0.24426833 -0.002528277 0.027605081 -0.033793654
-0.038657814 -0.13576886 -0.13726726 0.12987126 0.063591234 0.014875882 -0.16220458 -0.11512321
0.13243936 0.119488336 -0.025041929 -0.08113611 -0.014481176 -0.023652852
00000000: 7114 ab3c ed8f 95bd 673d babd 396e 823d
00000010: c515 a13d 89b1 3e3d 823b c43d d9bb d33d
00000020: 78ff afbd b68a 6fbd 561d 1d3d df20 36be
00000030: 7a21 7abe 73b1 25bb 0d24 e23c 376b 0abd
00000040: a857 1ebd fe06 0bbe ca8f 0cbe f9fc 043e
00000050: 1f3c 823d f9b9 733c f518 26be b8c5 ebbd
00000060: 2f9e 073e 4db6 f43d bb24 cdbc b02a a6bd
00000070: 7442 6dbc a0c3 c1bc

act_fun.1.scale_base f4 [5]
0.3769452 0.16463742 0.8925047 0.080271065 0.33923316
00000000: f6fe c03e b696 283e 307b 643f 2865 a43d
00000010: f8af ad3e

act_fun.1.scale_sp f4 [5]
0.81808484 0.74737066 0.6509171 0.90588486 0.76210237
00000000: 026e 513f af53 3f3f 81a2 263f 12e8 673f
00000010: 2419 433f

act_fun.1.mask f4 [5]
1.0 1.0 1.0 1.0 1.0
00000000: 0000 803f 0000 803f 0000 803f 0000 803f
00000010: 0000 803f

act_fun.2.grid f4 [2, 4]
-0.1681613 -0.09927963 -0.030397952 0.03848371 -0.1681613 -0.09927963 -0.030397952 0.03848371
00000000: 7a32 2cbe 1e53 cbbd 2005 f9bc 18a1 1d3d
00000010: 7a32 2cbe 1e53 cbbd 2005 f9bc 18a1 1d3d

act_fun.2.coef f4 [2, 6]
0.41712585 0.23280895 -0.029764302 -0.08014632 -0.03764084 0.31585816 -0.22855051 -0.11869604
0.10171628 0.09840521 0.020646978 -0.44274104
00000000: 8591 d53e 7865 6e3e 44d4 f3bc c123 a4bd
00000010: 482d 1abd 29b8 a13e 2509 6abe e916 f3bd
00000020: a050 d03d ac88 c93d da23 a93c f4ae e2be

act_fun.2.scale_base f4 [2]
1.0554156 0.655381
00000000: dc17 873f 0dc7 273f

act_fun.2.scale_sp f4 [2]
1.1738383 1.2050366
00000000: 5540 963f a43e 9a3f

act_fun.2.mask f4 [2]
1.0 1.0
00000000: 0000 803f 0000 803f

symbolic_fun.0.mask f4 [5, 700]
0.0 0.0 0.0 0.0 0.0 0.0 0.0 0.0
0.0 0.0 0.0 0.0 0.0 0.0 0.0 0.0
0.0 0.0 0.0 0.0 0.0 0.0 0.0 0.0
0.0 0.0 0.0 0.0 0.0 0.0 0.0 0.0
0.0 0.0 0.0 0.0 0.0 0.0 0.0 0.0
0.0 0.0 0.0 0.0 0.0 0.0 0.0 0.0
0.0 0.0 0.0 0.0 0.0 0.0 0.0 0.0
0.0 0.0 0.0 0.0 0.0 0.0 0.0 0.0
0.0 0.0 0.0 0.0 0.0 0.0 0.0 0.0
0.0 0.0 0.0 0.0 0.0 0.0 0.0 0.0
0.0 0.0 0.0 0.0 0.0 0.0 0.0 0.0
0.0 0.0 0.0 0.0 0.0 0.0 0.0 0.0
0.0 0.0 0.0 0.0 0.0 0.0 0.0 0.0
0.0 0.0 0.0 0.0 0.0 0.0 0.0 0.0
0.0 0.0 0.0 0.0 0.0 0.0 0.0 0.0
0.0 0.0 0.0 0.0 0.0 0.0 0.0 0.0
0.0 0.0 0.0 0.0 0.0 0.0 0.0 0.0
0.0 0.0 0.0 0.0 0.0 0.0 0.0 0.0
0.0 0.0 0.0 0.0 0.0 0.0 0.0 0.0
0.0 0.0 0.0 0.0 0.0 0.0 0.0 0.0
0.0 0.0 0.0 0.0 0.0 0.0 0.0 0.0
0.0 0.0 0.0 0.0 0.0 0.0 0.0 0.0
0.0 0.0 0.0 0.0 0.0 0.0 0.0 0.0
0.0 0.0 0.0 0.0 0.0 0.0 0.0 0.0
0.0 0.0 0.0 0.0 0.0 0.0 0.0 0.0
0.0 0.0 0.0 0.0 0.0 0.0 0.0 0.0
0.0 0.0 0.0 0.0 0.0 0.0 0.0 0.0
0.0 0.0 0.0 0.0 0.0 0.0 0.0 0.0
0.0 0.0 0.0 0.0 0.0 0.0 0.0 0.0
0.0 0.0 0.0 0.0 0.0 0.0 0.0 0.0
0.0 0.0 0.0 0.0 0.0 0.0 0.0 0.0
0.0 0.0 0.0 0.0 0.0 0.0 0.0 0.0
00000000: 0000 0000 0000 0000 0000 0000 0000 0000
00000010: 0000 0000 0000 0000 0000 0000 0000 0000
00000020: 0000 0000 0000 0000 0000 0000 0000 0000
00000030: 0000 0000 0000 0000 0000 0000 0000 0000
00000040: 0000 0000 0000 0000 0000 0000 0000 0000
00000050: 0000 0000 0000 0000 0000 0000 0000 0000
00000060: 0000 0000 0000 0000 0000 0000 0000 0000
00000070: 0000 0000 0000 0000 0000 0000 0000 0000
00000080: 0000 0000 0000 0000 0000 0000 0000 0000
00000090: 0000 0000 0000 0000 0000 0000 0000 0000
000000a0: 0000 0000 0000 0000 0000 0000 0000 0000
000000b0: 0000 0000 0000 0000 0000 0000 0000 0000
000000c0: 0000 0000 0000 0000 0000 0000 0000 0000
000000d0: 0000 0000 0000 0000 0000 0000 0000 0000
000000e0: 0000 0000 0000 0000 0000 0000 0000 0000
000000f0: 0000 0000 0000 0000 0000 0000 0000 0000
00000100: 0000 0000 0000 0000 0000 0000 0000 0000
00000110: 0000 0000 0000 0000 0000 0000 0000 0000
00000120: 0000 0000 0000 0000 0000 0000 0000 0000
00000130: 0000 0000 0000 0000 0000 0000 0000 0000
00000140: 0000 0000 0000 0000 0000 0000 0000 0000
00000150: 0000 0000 0000 0000 0000 0000 0000 0000
00000160: 0000 0000 0000 0000 0000 0000 0000 0000
00000170: 0000 0000 0000 0000 0000 0000 0000 0000
00000180: 0000 0000 0000 0000 0000 0000 0000 0000
00000190: 0000 0000 0000 0000 0000 0000 0000 0000
000001a0: 0000 0000 0000 0000 0000 0000 0000 0000
000001b0: 0000 0000 0000 0000 0000 0000 0000 0000
000001c0: 0000 0000 0000 0000 0000 0000 0000 0000
000001d0: 0000 0000 0000 0000 0000 0000 0000 0000
000001e0: 0000 0000 0000 0000 0000 0000 0000 0000
000001f0: 0000 0000 0000 0000 0000 0000 0000 0000
00000200: 0000 0000 0000 0000 0000 0000 0000 0000
00000210: 0000 0000 0000 0000 0000 0000 0000 0000
00000220: 0000 0000 0000 0000 0000 0000 0000 0000
00000230: 0000 0000 0000 0000 0000 0000 0000 0000
00000240: 0000 0000 0000 0000 0000 0000 0000 0000
00000250: 0000 0000 0000 0000 0000 0000 0000 0000
00000260: 0000 0000 0000 0000 0000 0000 0000 0000
00000270: 0000 0000 0000 0000 0000 0000 0000 0000
00000280: 0000 0000 0000 0000 0000 0000 0000 0000
00000290: 0000 0000 0000 0000 0000 0000 0000 0000
000002a0: 0000 0000 0000 0000 0000 0000 0000 0000
000002b0: 0000 0000 0000 0000 0000 0000 0000 0000
000002c0: 0000 0000 0000 0000 0000 0000 0000 0000
000002d0: 0000 0000 0000 0000 0000 0000 0000 0000
000002e0: 0000 0000 0000 0000 0000 0000 0000 0000
000002f0: 0000 0000 0000 0000 0000 0000 0000 0000
00000300: 0000 0000 0000 0000 0000 0000 0000 0000
00000310: 0000 0000 0000 0000 0000 0000 0000 0000
00000320: 0000 0000 0000 0000 0000 0000 0000 0000
00000330: 0000 0000 0000 0000 0000 0000 0000 0000
00000340: 0000 0000 0000 0000 0000 0000 0000 0000
00000350: 0000 0000 0000 0000 0000 0000 0000 0000
00000360: 0000 0000 0000 0000 0000 0000 0000 0000
00000370: 0000 0000 0000 0000 0000 0000 0000 0000
00000380: 0000 0000 0000 0000 0000 0000 0000 0000
00000390: 0000 0000 0000 0000 0000 0000 0000 0000
000003a0: 0000 0000 0000 0000 0000 0000 0000 0000
000003b0: 0000 0000 0000 0000 0000 0000 0000 0000
000003c0: 0000 0000 0000 0000 0000 0000 0000 0000
000003d0: 0000 0000 0000 0000 0000 0000 0000 0000
000003e0: 0000 0000 0000 0000 0000 0000 0000 0000
000003f0: 0000 0000 0000 0000 0000 0000 0000 0000

symbolic_fun.0.affine f4 [5, 700, 4]
0.0 0.0 0.0 0.0 0.0 0.0 0.0 0.0
0.0 0.0 0.0 0.0 0.0 0.0 0.0 0.0
0.0 0.0 0.0 0.0 0.0 0.0 0.0 0.0
0.0 0.0 0.0 0.0 0.0 0.0 0.0 0.0
0.0 0.0 0.0 0.0 0.0 0.0 0.0 0.0
0.0 0.0 0.0 0.0 0.0 0.0 0.0 0.0
0.0 0.0 0.0 0.0 0.0 0.0 0.0 0.0
0.0 0.0 0.0 0.0 0.0 0.0 0.0 0.0
0.0 0.0 0.0 0.0 0.0 0.0 0.0 0.0
0.0 0.0 0.0 0.0 0.0 0.0 0.0 0.0
0.0 0.0 0.0 0.0 0.0 0.0 0.0 0.0
0.0 0.0 0.0 0.0 0.0 0.0 0.0 0.0
0.0 0.0 0.0 0.0 0.0 0.0 0.0 0.0
0.0 0.0 0.0 0.0 0.0 0.0 0.0 0.0
0.0 0.0 0.0 0.0 0.0 0.0 0.0 0.0
0.0 0.0 0.0 0.0 0.0 0.0 0.0 0.0
0.0 0.0 0.0 0.0 0.0 0.0 0.0 0.0
0.0 0.0 0.0 0.0 0.0 0.0 0.0 0.0
0.0 0.0 0.0 0.0 0.0 0.0 0.0 0.0
0.0 0.0 0.0 0.0 0.0 0.0 0.0 0.0
0.0 0.0 0.0 0.0 0.0 0.0 0.0 0.0
0.0 0.0 0.0 0.0 0.0 0.0 0.0 0.0
0.0 0.0 0.0 0.0 0.0 0.0 0.0 0.0
0.0 0.0 0.0 0.0 0.0 0.0 0.0 0.0
0.0 0.0 0.0 0.0 0.0 0.0 0.0 0.0
0.0 0.0 0.0 0.0 0.0 0.0 0.0 0.0
0.0 0.0 0.0 0.0 0.0 0.0 0.0 0.0
0.0 0.0 0.0 0.0 0.0 0.0 0.0 0.0
0.0 0.0 0.0 0.0 0.0 0.0 0.0 0.0
0.0 0.0 0.0 0.0 0.0 0.0 0.0 0.0
0.0 0.0 0.0 0.0 0.0 0.0 0.0 0.0
0.0 0.0 0.0 0.0 0.0 0.0 0.0 0.0
00000000: 0000 0000 0000 0000 0000 0000 0000 0000
00000010: 0000 0000 0000 0000 0000 0000 0000 0000
00000020: 0000 0000 0000 0000 0000 0000 0000 0000
00000030: 0000 0000 0000 0000 0000 0000 0000 0000
00000040: 0000 0000 0000 0000 0000 0000 0000 0000
00000050: 0000 0000 0000 0000 0000 0000 0000 0000
00000060: 0000 0000 0000 0000 0000 0000 0000 0000
00000070: 0000 0000 0000 0000 0000 0000 0000 0000
00000080: 0000 0000 0000 0000 0000 0000 0000 0000
00000090: 0000 0000 0000 0000 0000 0000 0000 0000
000000a0: 0000 0000 0000 0000 0000 0000 0000 0000
000000b0: 0000 0000 0000 0000 0000 0000 0000 0000
000000c0: 0000 0000 0000 0000 0000 0000 0000 0000
000000d0: 0000 0000 0000 0000 0000 0000 0000 0000
000000e0: 0000 0000 0000 0000 0000 0000 0000 0000
000000f0: 0000 0000 0000 0000 0000 0000 0000 0000
00000100: 0000 0000 0000 0000 0000 0000 0000 0000
00000110: 0000 0000 0000 0000 0000 0000 0000 0000
00000120: 0000 0000 0000 0000 0000 0000 0000 0000
00000130: 0000 0000 0000 0000 0000 0000 0000 0000
00000140: 0000 0000 0000 0000 0000 0000 0000 0000
00000150: 0000 0000 0000 0000 0000 0000 0000 0000
00000160: 0000 0000 0000 0000 0000 0000 0000 0000
00000170: 0000 0000 0000 0000 0000 0000 0000 0000
00000180: 0000 0000 0000 0000 0000 0000 0000 0000
00000190: 0000 0000 0000 0000 0000 0000 0000 0000
000001a0: 0000 0000 0000 0000 0000 0000 0000 0000
000001b0: 0000 0000 0000 0000 0000 0000 0000 0000
000001c0: 0000 0000 0000 0000 0000 0000 0000 0000
000001d0: 0000 0000 0000 0000 0000 0000 0000 0000
000001e0: 0000 0000 0000 0000 0000 0000 0000 0000
000001f0: 0000 0000 0000 0000 0000 0000 0000 0000
00000200: 0000 0000 0000 0000 0000 0000 0000 0000
00000210: 0000 0000 0000 0000 0000 0000 0000 0000
00000220: 0000 0000 0000 0000 0000 0000 0000 0000
00000230: 0000 0000 0000 0000 0000 0000 0000 0000
00000240: 0000 0000 0000 0000 0000 0000 0000 0000
00000250: 0000 0000 0000 0000 0000 0000 0000 0000
00000260: 0000 0000 0000 0000 0000 0000 0000 0000
00000270: 0000 0000 0000 0000 0000 0000 0000 0000
00000280: 0000 0000 0000 0000 0000 0000 0000 0000
00000290: 0000 0000 0000 0000 0000 0000 0000 0000
000002a0: 0000 0000 0000 0000 0000 0000 0000 0000
000002b0: 0000 0000 0000 0000 0000 0000 0000 0000
000002c0: 0000 0000 0000 0000 0000 0000 0000 0000
000002d0: 0000 0000 0000 0000 0000 0000 0000 0000
000002e0: 0000 0000 0000 0000 0000 0000 0000 0000
000002f0: 0000 0000 0000 0000 0000 0000 0000 0000
00000300: 0000 0000 0000 0000 0000 0000 0000 0000
00000310: 0000 0000 0000 0000 0000 0000 0000 0000
00000320: 0000 0000 0000 0000 0000 0000 0000 0000
00000330: 0000 0000 0000 0000 0000 0000 0000 0000
00000340: 0000 0000 0000 0000 0000 0000 0000 0000
00000350: 0000 0000 0000 0000 0000 0000 0000 0000
00000360: 0000 0000 0000 0000 0000 0000 0000 0000
00000370: 0000 0000 0000 0000 0000 0000 0000 0000
00000380: 0000 0000 0000 0000 0000 0000 0000 0000
00000390: 0000 0000 0000 0000 0000 0000 0000 0000
000003a0: 0000 0000 0000 0000 0000 0000 0000 0000
000003b0: 0000 0000 0000 0000 0000 0000 0000 0000
000003c0: 0000 0000 0000 0000 0000 0000 0000 0000
000003d0: 0000 0000 0000 0000 0000 0000 0000 0000
000003e0: 0000 0000 0000 0000 0000 0000 0000 0000
000003f0: 0000 0000 0000 0000 0000 0000 0000 0000

symbolic_fun.1.mask f4 [1, 5]
0.0 0.0 0.0 0.0 0.0
00000000: 0000 0000 0000 0000 0000 0000 0000 0000
00000010: 0000 0000

symbolic_fun.1.affine f4 [1, 5, 4]
0.0 0.0 0.0 0.0 0.0 0.0 0.0 0.0
0.0 0.0 0.0 0.0 0.0 0.0 0.0 0.0
0.0 0.0 0.0 0.0
00000000: 0000 0000 0000 0000 0000 0000 0000 0000
00000010: 0000 0000 0000 0000 0000 0000 0000 0000
00000020: 0000 0000 0000 0000 0000 0000 0000 0000
00000030: 0000 0000 0000 0000 0000 0000 0000 0000
00000040: 0000 0000 0000 0000 0000 0000 0000 0000

symbolic_fun.2.mask f4 [2, 1]
0.0 0.0
00000000: 0000 0000 0000 0000

symbolic_fun.2.affine f4 [2, 1, 4]
0.0 0.0 0.0 0.0 0.0 0.0 0.0 0.0
00000000: 0000 0000 0000 0000 0000 0000 0000 0000
00000010: 0000 0000 0000 0000 0000 0000 0000 0000
