workspace/results/simulation/KAN_All/0/KAN-1Hidden.ckpt (torch, 5622 bytes, 15 tensors)

biases.1.weight f4 [1, 2]
0	0xbca1e125	-0.019760678
1	0xbdd85909	-0.10563857

act_fun.0.grid f4 [2, 4]
0	0x3deb851f	0.115
1	0x3ed3a06e	0.41333336
2	0x3f362fca	0.7116667
3	0x3f8147ae	1.01
4	0xbc23d70a	-0.01
5	0x3e93a06e	0.28833336
6	0x3f162fca	0.5866667
7	0x3f628f5c	0.885

act_fun.0.coef f4 [2, 6]
0	0x3df9b57c	0.121928185
1	0xbc9d78d1	-0.019222649
2	0xbe0d721d	-0.13813062
3	0x3d88be8d	0.0667697
4	0xbe806bcc	-0.25082242
5	0xbe8aef9d	-0.27135935
6	0xbe74e337	-0.239148
7	0xbd4f4431	-0.05060214
8	0xbe465eda	-0.1937212
9	0x3c83c0e1	0.016083183
10	0x3c91164c	0.017710827
11	0xbea11241	-0.3145924

act_fun.0.scale_base f4 [2]
0	0x3f526f08	0.8220067
1	0x3f01d417	0.5071425

act_fun.0.scale_sp f4 [2]
0	0x3f97cc88	1.1859293
1	0x3f95deba	1.1708596

act_fun.0.mask f4 [2]
0	0x3f800000	1.0
1	0x3f800000	1.0

act_fun.1.grid f4 [2, 4]
0	0x3d6c0d8e	0.057630114
1	0x3e9432b8	0.28944945
2	0x3f0571df	0.5212688
3	0x3f40ca62	0.7530881
4	0x3d6c0d8e	0.057630114
5	0x3e9432b8	0.28944945
6	0x3f0571df	0.5212688
7	0x3f40ca62	0.7530881

act_fun.1.coef f4 [2, 6]
0	0x3f249bf8	0.6430049
1	0xbde15c97	-0.11003988
2	0xbe81c424	-0.25344956
3	0x3d4b907e	0.049698345
4	0x3ed94ea7	0.4244282
5	0x3e51e4c6	0.20497426
6	0xbed29a6c	-0.4113344
7	0x3e0a61e1	0.135139
8	0x3e1e5a39	0.15464105
9	0xbeabf4a8	-0.33585095
10	0xbf33136a	-0.699515
11	0xbe6bd501	-0.23030473

act_fun.1.scale_base f4 [2]
0	0x3f70b96b	0.94032925
1	0x3f5b63a3	0.8569891

act_fun.1.scale_sp f4 [2]
0	0x3fd1426a	1.6348393
1	0x3fe40a43	1.7815632

act_fun.1.mask f4 [2]
0	0x3f800000	1.0
1	0x3f800000	1.0

symbolic_fun.0.mask f4 [1, 2]
0	0x00000000	0.0
1	0x00000000	0.0

symbolic_fun.0.affine f4 [1, 2, 4]
0	0x00000000	0.0
1	0x00000000	0.0
2	0x00000000	0.0
3	0x00000000	0.0
4	0x00000000	0.0
5	0x00000000	0.0
6	0x00000000	0.0
7	0x00000000	0.0

symbolic_fun.1.mask f4 [2, 1]
0	0x00000000	0.0
1	0x00000000	0.0

symbolic_fun.1.affine f4 [2, 1, 4]
0	0x00000000	0.0
1	0x00000000	0.0
2	0x00000000	0.0
3	0x00000000	0.0
4	0x00000000	0.0
5	0x00000000	0.0
6	0x00000000	0.0
7	0x00000000	0.0
