workspace/results/ascad/KAN_ASCADv/0/KAN-2Hidden.ckpt (torch, 511998 bytes, 23 tensors)

biases.0.weight f4 [1, 5]
-0.019579777 -0.017552204 -0.028473103 -0.024977129 -0.022659691
00000000: c565 a0bc a4c9 8fbc 6d40 e9bc d69c ccbc
00000010: d1a0 b9bc

biases.2.weight f4 [1, 2]
0.17889073 -0.18227781
00000000: 222f 373e 09a7 3abe

act_fun.0.grid f4 [7000, 4]
-2.4812164 -0.98728764 0.50664115 2.0005698 -2.4597144 -0.79119647 0.8773215 2.5458393
-3.0708761 -1.1127921 0.84529185 2.8033757 -2.1965668 -0.6493776 0.89781165 2.445001
-2.5501614 -0.7978288 0.9545038 2.7068362 -2.8632689 -0.9074069 1.048455 3.0043168
-2.7738085 -1.1132467 0.5473151 2.2078767 -2.9064324 -1.0498991 0.8066342 2.6631672
-2.5140066 -0.7780185 0.95796967 2.6939578 -3.572756 -1.1505725 1.271611 3.6937945
-2.6617355 -1.0167887 0.6281581 2.2731047 -2.245869 -0.74530864 0.75525165 2.255812
-2.75345 -0.881232 0.9909859 2.8632035 -2.7478247 -0.7217343 1.3043561 3.3304462
-2.7924073 -0.8894838 1.0134397 2.916363 -2.6615212 -0.85726583 0.94698954 2.7512448
-2.5221424 -0.8145788 0.89298487 2.6005483 -2.9778316 -1.3062367 0.3653581 2.0369527
-3.0676425 -1.4470077 0.17362714 1.7942617 -2.5669045 -0.55731773 1.4522691 3.461856
-2.7958708 -1.021702 0.7524667 2.5266352 -2.732606 -0.942683 0.84724 2.6371627
-2.1533804 -0.60965455 0.9340713 2.477797 -4.0885 -1.7623901 0.56371975 2.8898292
-3.701853 -1.7874362 0.12698054 2.0413973 -2.8712373 -0.9595847 0.95206785 2.8637204
-3.4158213 -1.5605831 0.29465508 2.149893 -2.061749 -0.64059734 0.7805543 2.201706
-2.7448306 -1.0398065 0.66521764 2.3702416 -2.3641768 -0.5276332 1.3089104 3.145454
-3.3554282 -1.393713 0.5680022 2.5297174 -3.0842905 -1.210638 0.6630144 2.5366669
-3.7508988 -1.8408513 0.069196224 1.9792438 -1.9958582 -0.5536907 0.88847685 2.3306441
-3.1841085 -1.2308524 0.72240376 2.67566 -2.4118652 -0.77343416 0.8649969 2.503428
-3.1720958 -1.2481935 0.6757088 2.5996108 -2.4931426 -0.7678635 0.9574156 2.6826944
-2.0000656 -0.54372776 0.91261005 2.3689477 -3.0566435 -1.2505963 0.5554509 2.3614979
-3.3918593 -1.3764961 0.63886714 2.6542299 -2.2794375 -0.85047483 0.5784879 2.0074506
-1.9616592 -0.5301211 0.901417 2.3329551 -2.2927852 -0.7108822 0.8710208 2.4529238
-3.6372104 -1.718566 0.20007849 2.118723 -2.5743487 -1.0733709 0.42760682 1.9285843
-1.9479164 -0.413859 1.1201984 2.6542554 -4.081831 -2.1241264 -0.16642189 1.7912827
-2.5156662 -0.8592167 0.79723287 2.4536822 -2.3760993 -1.0962628 0.18357372 1.4634101
-2.7738605 -1.2597924 0.25427556 1.7683434 -2.8682697 -1.1744746 0.5193205 2.2131155
-2.7085485 -0.98326826 0.742012 2.4672923 -1.9650884 -0.21390843 1.5372715 3.2884512
-2.8751543 -1.2430425 0.38906932 2.0211809 -2.1139512 -0.18719208 1.739567 3.666326
-2.6210904 -0.92153287 0.7780247 2.477582 -2.269761 -0.63349164 1.0027778 2.6390471
-2.2589345 -0.68148136 0.8959718 2.473425 -2.7466934 -0.9912007 0.764292 2.5197847
-2.8386197 -0.8700167 1.0985863 3.0671892 -2.5437176 -0.6292112 1.2852952 3.1998017
-2.5981488 -0.8495321 0.89908457 2.6477013 -2.4928222 -0.81239533 0.8680315 2.548458
00000000: 40cc 1ec0 e2be 7cbf 3cb3 013f 5609 0040
00000010: f66b 1dc0 da8b 4abf 2498 603f 08ef 2240
00000020: 3c89 44c0 f96f 8ebf 0c65 583f 826a 3340
00000030: 8d94 0cc0 9c3d 26bf fcd6 653f e57a 1c40
00000040: d835 23c0 823e 4cbf 5c5a 743f ce3c 2d40
00000050: cc3f 37c0 d24b 68bf c633 863f ba46 4040
00000060: 1486 31c0 de7e 8ebf d81c 0c3f da4d 0d40
00000070: fd02 3ac0 1863 86bf 947f 4e3f 5571 2a40
00000080: 7ce5 20c0 382c 47bf 803d 753f ce69 2c40
00000090: 09a8 64c0 f645 93bf 26c4 a23f 2167 6c40
000000a0: e059 2ac0 2226 82bf f8ce 203f 8c7a 1140
000000b0: 51bc 0fc0 8ccc 3ebf 2c58 413f 395f 1040
000000c0: 8638 30c0 6c98 61bf 40b1 7d3f ba3e 3740
000000d0: 5cdc 2fc0 94c3 38bf 24f5 a63f 0826 5540
000000e0: cdb6 32c0 36b5 63bf 64b8 813f b1a5 3a40
000000f0: 5d56 2ac0 c675 5bbf e86d 723f 6514 3040
00000100: c86a 21c0 3c88 50bf a89a 643f 626f 2640
00000110: cb94 3ec0 c432 a7bf 3810 bb3e 6f5d 0240
00000120: 4154 44c0 8c37 b9bf 50cb 313e 5eaa e53f
00000130: 2a48 24c0 60ac 0ebf f4e3 b93f 0c8f 5d40
00000140: 8cef 32c0 22c7 82bf a8a1 403f 64b4 2140
00000150: 04e3 2ec0 ac53 71bf b8e4 583f 46c7 2840
00000160: fcd0 09c0 5212 1cbf 4c1f 6f3f 3a94 1e40
00000170: fed4 82c0 0096 e1bf f04f 103f f6f2 3840
00000180: 29eb 6cc0 b6ca e4bf 3007 023e 41a6 0240
00000190: 5ac2 37c0 58a7 75bf b8ba 733f 3247 3740
000001a0: d19c 5ac0 30c1 c7bf 08dd 963e d997 0940
000001b0: b2f3 03c0 30fe 23bf 68d2 473f c0e8 0c40
000001c0: 4eab 2fc0 6118 85bf b44b 2a3f 0ab2 1740
000001d0: ac4e 17c0 f812 07bf 608a a73f 1e4f 4940
000001e0: 56bf 56c0 3065 b2bf 9868 113f e4e6 2140
000001f0: 0465 45c0 30f6 9abf 50bb 293f c058 2240
00000200: ba0e 70c0 04a1 ebbf c0b6 8d3d dc57 fd3f
00000210: 4878 ffbf acbe 0dbf 3873 633f 4629 1540
00000220: 6fc8 4bc0 928c 9dbf 74ef 383f 033e 2b40
00000230: 005c 1ac0 c8ff 45bf 7070 5d3f 2a38 2040
00000240: 9e03 4bc0 cec4 9fbf 40fb 2c3f 0660 2640
00000250: a68f 1fc0 b492 44bf 3019 753f 44b1 2b40
00000260: 1301 00c0 be31 0bbf d0a0 693f d79c 1740
00000270: 0ca0 43c0 8a13 a0bf 0832 0e3f c822 1740
00000280: 3914 59c0 0631 b0bf cc8c 233f e7de 2940
00000290: 4ee2 11c0 b8b8 59bf c817 143f 127a 0040
000002a0: a617 fbbf 04b6 07bf 44c3 663f 234f 1540
000002b0: febc 12c0 60fc 35bf 38fb 5e3f b4fc 1c40
000002c0: 0ec8 68c0 f8f9 dbbf 60e1 4c3e 2899 0740
000002d0: 21c2 24c0 3864 89bf 48ef da3e dadb f63f
000002e0: 5355 f9bf 54e5 d3be a962 8f3f 52df 2940
000002f0: 5c9e 82c0 b0f1 07c0 806a 2abe c048 e53f
00000300: ad00 21c0 a0f5 5bbf 7417 4c3f 2109 1d40
00000310: 0312 18c0 5752 8cbf c0fa 3b3e 0651 bb3f
00000320: ee86 31c0 e140 a1bf 6830 823e 1459 e23f
00000330: bb91 37c0 2f55 96bf 30f2 043f afa3 0d40
00000340: dc58 2dc0 78b7 7bbf 80f4 3d3f 1ee8 1d40
00000350: 0488 fbbf d00a 5bbe 50c5 c43f fc75 5240
00000360: 8702 38c0 041c 9fbf 1834 c73e 075b 0140
00000370: fa4a 07c0 48af 3fbe 22aa de3f 16a5 6a40
00000380: f2bf 27c0 94e9 6bbf a02c 473f b490 1e40
00000390: c443 11c0 822c 22bf 065b 803f 26e6 2840
000003a0: 6292 10c0 9075 2ebf 685e 653f 984c 1e40
000003b0: d3c9 2fc0 54bf 7dbf a4a8 433f 2744 2140
000003c0: f2ab 35c0 6ab9 5ebf 7a9e 8c3f d44c 4440
000003d0: 45cc 22c0 fc13 21bf 8e84 a43f 8dc9 4c40
000003e0: 1248 26c0 f07a 59bf 682a 663f f073 2940
000003f0: 668a 1fc0 24f9 4fbf 5037 5e3f f019 2340

act_fun.0.coef f4 [7000, 6]
-0.009422593 -0.21466085 0.039052323 0.03713839 -0.09013841 -0.07751515 0.081554726 -0.0761551
-0.011390042 0.04357436 -0.07218145 -0.010809401 0.07666229 0.08855825 -0.025682451 -0.035339605
0.03444163 -0.22521336 0.13647725 -0.081108324 0.017226346 -0.018463427 -0.05523648 -0.06514855
-0.04066795 0.02125281 -0.027436629 -0.019086549 0.027143113 -0.33678025 -0.27094403 -0.096128136
0.057926178 -0.0747679 0.0066569494 0.27818528 -0.0061415136 0.02580904 0.020370355 -0.016132118
-0.012046425 0.03834613 -0.09276894 -0.027684057 -0.05908797 0.003619503 0.1341315 0.08131479
0.27515873 0.08838979 -0.09979119 0.020363467 0.009143527 -0.23090795 -0.30952767 0.056776647
-0.022850938 -0.02695372 -0.01651852 0.13307634 -0.18079555 0.108879656 -0.030623686 -0.02565459
-0.080037415 -0.24445173 -0.04042528 -0.062217727 0.020537224 0.005898074 -0.06749648 0.14725117
0.029783176 0.060270853 0.018615032 -0.06893619 -0.16135572 -0.09664162 0.26472068 0.07657283
-0.016567247 -0.027871601 -0.15396306 -0.15076238 -0.008590745 0.011324214 -0.003862005 -0.033250853
0.01914876 -0.026749462 -0.17123215 0.02079212 0.034996163 -0.12608482 0.08583441 0.17236419
0.25318372 0.021705177 -0.0029630945 -0.093537845 0.20588344 0.20491709 -0.15027559 -0.15593395
-0.023146754 0.051112544 -0.038790453 0.11551641 -0.23169243 -0.122370996 -0.015671639 -0.020958202
0.024792876 0.21640852 -0.22180147 -0.20792514 0.04546968 0.037511714 -0.084139615 0.18678679
0.073844805 0.20568822 -0.04088318 -0.10508978 -0.018785017 0.3330496 -0.030489787 -0.018272987
-0.020259032 -0.057323836 0.14747855 -0.2446694 0.14320247 0.031572245 -0.03465446 -0.06634246
-0.029521722 0.30844185 0.48413485 -0.10224598 -0.14303717 0.057043906 0.07811133 0.03267316
-0.19453686 0.04765628 0.07722296 -0.089144565 0.0050229495 0.3716688 -0.13479352 0.21902908
0.02376959 -0.11643643 -0.053894315 0.49851143 -0.355639 0.05747539 0.049914047 -0.04018825
0.103346005 -0.14267148 0.11835841 0.0797425 -0.042979337 -0.072037354 0.026225226 -0.008669947
0.1476395 0.040170517 -0.08472967 0.04205559 -0.10519125 -0.21207827 -0.31994006 -0.058911256
-0.00321728 0.006632073 0.1231043 -0.31620306 -0.14875343 -0.045644406 -0.015596791 -0.05151348
0.08165745 0.19774565 -0.1936302 -0.13665412 -0.046745338 0.041069902 0.025946938 -0.017306672
0.23248635 -0.16512538 -0.06769522 -0.03376153 0.097245775 0.08295086 -0.055734422 -0.10082252
-0.003954691 0.018945763 -0.011564001 0.32856995 -0.25683898 -0.10715428 -0.106224954 0.038735025
0.14826535 0.0031400297 -0.09887826 0.05994427 -0.08290451 8.3687155e-05 0.07448303 -0.10013709
0.17740512 -0.03961557 0.013720379 -0.006141051 -0.07102272 0.2585452 0.18878816 0.056592915
-0.022142908 -0.05545525 -0.01401126 0.3963047 -0.036379237 -0.050227832 -0.025406625 0.042974614
-0.11893326 0.02240891 -0.1528078 0.19060078 0.002007035 -0.08259271 0.06358819 0.34796464
-0.61616063 -0.20418079 0.010398048 -0.03868605 0.05964789 0.12407931 -0.006589215 0.04704174
-0.055435214 0.0055929315 -0.053021263 -0.15125978 -0.055574298 0.0061726053 -0.003958094 -0.0101621905
00000000: 3861 1abc 0ed0 5bbe 54f5 1f3d 6d1e 183d
00000010: 7d9a b8bd 43c0 9ebd 2a06 a73d 34f7 9bbd
00000020: 4c9d 3abc 077b 323d ded3 93bd ea19 31bc
00000030: 1e01 9d3d 075e b53d 0164 d2bc 43c0 10bd
00000040: ab12 0d3d 559e 66be b1c0 0b3e 1f1c a6bd
00000050: 441e 8d3c 9d40 97bc a63f 62bd 9a6c 85bd
00000060: 7093 26bd 5f1a ae3c c8c2 e0bc 655b 9cbc
00000070: 3c5b de3c 766e acbe 2db9 8abe d4de c4bd
00000080: 0044 6d3d ea1f 99bd 8a22 da3b 4d6e 8e3e
00000090: c03e c9bb 7b6d d33c bbdf a63c 8127 84bc
000000a0: 5e5e 45bc d510 1d3d a4fd bdbd adc9 e2bc
000000b0: 3a06 72bd 2f35 6d3b c559 093e 5e88 a63d
000000c0: 9be1 8c3e b505 b53d 535f ccbd 49d1 a63c
000000d0: bbce 153c 2273 6cbe 697a 9ebe a18e 683d
000000e0: e431 bbbc 0cce dcbc d951 87bc 2a45 083e
000000f0: 7822 39be 4cfc de3d 86de fabc 9329 d2bc
00000100: a8ea a3bd 8e51 7abe fa94 25bd 04d8 7ebd
00000110: ae3d a83c a144 c13b 983b 8abd 03c9 163e
00000120: d9fb f33c 92de 763d 8d7e 983c 6b2e 8dbd
00000130: 6f3a 25be 0bec c5bd 7889 873e 37d2 9c3d
00000140: 09b8 87bc fc52 e4bc 7ea8 1dbe 7461 1abe
00000150: 32c0 0cbc 3289 393c b119 7dbb 0c32 08bd
00000160: dcdd 9c3c b021 dbbc 7b57 2fbe 3c54 aa3c
00000170: 2358 0f3d 611c 01be f3c9 af3d 3d80 303e
00000180: 4ca1 813e 0ecf b13c 7a30 42bb c590 bfbd
00000190: 1cd3 523e c9d5 513e d8e1 19be 26ad 1fbe
000001a0: 439e bdbc 635b 513d bde2 1ebd de93 ec3d
000001b0: c840 6dbe a59d fabd cf61 80bc 89b0 abbc
000001c0: 6e1a cb3c 329a 5d3e ed1f 63be 54ea 54be
000001d0: 6a3e 3a3d e2a5 193d 6451 acbd 0945 3f3e
000001e0: f23b 973d ef9f 523e 1f75 27bd 5039 d7bd
000001f0: 09e3 99bc 7a85 aa3e b8c5 f9bc 3bb1 95bc
00000200: 45f6 a5bc 66cc 6abd 9e04 173e 9d8a 7abe
00000210: aba3 123e e651 013d d6f1 0dbd 8ede 87bd
00000220: 8ad7 f1bc 17ec 9d3e 86e0 f73e 5766 d1bd
00000230: 5678 12be dfa6 693d d5f8 9f3d 4bd4 053d
00000240: ac34 47be 3b33 433d 1227 9e3d 6d91 b6bd
00000250: 8e97 a43b 5f4b be3e 5007 0abe 2949 603e
00000260: 71b8 c23c 3976 eebd 49c0 5cbd e43c ff3e
00000270: 5116 b6be 516b 6b3d ac72 4c3d 6f9c 24bd
00000280: 12a7 d33d 7918 12be e565 f23d 0950 a33d
00000290: 1a0b 30bd 5288 93bd 49d6 d63c 650c 0ebc
000002a0: cf2e 173e d789 243d c086 adbd 7b42 2c3d
000002b0: 836e d7bd 0c2b 59be 2fcf a3be ee4c 71bd
000002c0: 00d9 52bb dc51 d93b 1b1e fc3d 5ee5 a1be
000002d0: d252 18be a1f5 3abd af89 7fbc ccff 52bd
000002e0: 053c a73d d67d 4a3e ff46 46be 0fef 0bbe
000002f0: 0a78 3fbd ea38 283d ac8e d43c b9c6 8dbc
00000300: e710 6e3e a116 29be cba3 8abd 8849 0abd
00000310: cb28 c73d 24e2 a93d c749 64bd 0a7c cebd
00000320: 5a96 81bb 2534 9b3c f076 3dbc 523a a83e
00000330: 6680 83be b473 dbbd 788c d9bd 9ea8 1e3d
00000340: dfd2 173e f5c8 4d3b af80 cabd 1f88 753d
00000350: d7c9 a9bd 3381 af38 8f8a 983d ad14 cdbd
00000360: b0a9 353e f043 22bd 71cb 603c df3a c9bb
00000370: 5c74 91bd 0960 843e af51 413e f9cd 673d
00000380: 0b65 b5bc 0b25 63bd 7c8f 65bc 73e8 ca3e
00000390: 6502 15bd b3bb 4dbd 8e21 d0bc 2606 303d
000003a0: 4893 f3bd e492 b73c a679 1cbe da2c 433e
000003b0: 7688 033b 5e26 a9bd 863a 823d 6c28 b23e
000003c0: b4bc 1dbf c514 51be 935c 2a3c 4375 1ebd
000003d0: 5951 743d 4b1d fe3d 57ea d7bb d7ae 403d
000003e0: 0910 63bd e944 b73b d32c 59bd d8e3 1abe
000003f0: e0a1 63bd 9143 ca3b e6b2 81bb 517f 26bc

act_fun.0.scale_base f4 [7000]
-0.3656504 -0.2919178 -0.15672587 -0.21452579 0.10313702 0.03532279 -0.1933705 -0.34131137
0.04216984 -0.35298008 -0.048178755 -0.084707 -0.2075832 0.056486152 0.13077532 -0.089093484
-0.24881378 -0.40340602 0.16276802 0.07315535 0.049704872 -0.29068983 -0.09703733 0.46516764
0.20713077 -0.22539231 -0.15728837 -0.034894556 0.08908275 0.32062632 0.20101921 -0.1703896
-0.019651582 0.021798177 -0.0022586468 0.06607709 -0.027123488 -0.055664923 0.015702095 0.046994463
-0.015946705 0.0284943 -0.18347585 -0.11061962 0.08470962 0.3241153 -0.42093006 -0.27813366
-0.11388537 0.031566184 0.24401562 -0.10194584 -0.0051041422 -0.100097895 -0.07971749 -0.11512085
-0.110348165 0.07344904 0.13534722 0.62721753 -0.29694468 -0.2814859 0.32356524 -0.15338711
-0.11198839 0.11438014 0.1950502 0.22845519 -0.36431104 0.41719413 -0.1474791 0.02800891
-0.35652456 -0.287928 -0.29377985 -0.19775942 -0.48669904 -0.016345713 0.003073883 0.01627161
-0.08032926 0.13867724 -0.09617611 0.034515712 0.07270388 -0.15667357 0.18898238 -0.051014062
-0.1077887 0.5103566 -0.36571172 -0.00033592805 -0.22223388 0.020373803 -0.06496169 0.23604207
0.41213152 -0.28544945 0.050849926 0.06115549 -0.48582318 -0.36294705 -0.0047241687 -0.009994164
-0.022545489 0.034980793 0.09287171 0.027306633 -0.0068839584 -0.2371454 0.030090308 -0.29088664
-0.023473106 -0.61164045 -0.1127033 -0.073292896 0.15535715 -0.027223313 -0.2675031 -0.0038211362
-0.24183597 0.03875882 0.48264742 0.061868798 0.18384275 0.38393077 0.44359088 0.675566
0.114455685 0.19025415 0.10319431 0.35815048 0.20622551 0.15570521 0.5019454 0.022484334
0.014310369 0.10688339 0.05621322 -0.15449823 0.10709538 -0.09478715 0.0030056355 0.04065686
-0.19582094 -0.0711693 -0.078241654 0.12859972 0.07385577 0.23598555 -0.026621882 -0.20633826
-0.14850171 -0.17576523 -0.30210996 0.061516818 -0.3067898 -0.07341638 -0.075642236 -0.121746406
0.1776574 -0.22760417 0.013377856 -0.20456013 0.0003882788 -0.14637272 0.19269468 -0.0047970633
0.08662563 -0.04185219 -0.17652929 0.007336349 -0.13048314 -0.25798786 -0.20794168 -0.45112002
-0.14654121 -0.09536662 -0.33232215 -0.222147 0.30727345 -0.04855034 0.4347868 -0.22064695
-0.81693274 -0.61518204 -0.1738062 -0.43419546 -0.5122349 -0.7471427 -0.4257489 -0.41288537
-0.24206653 0.106885105 0.17320493 0.25894502 0.06767088 -0.011159434 -0.24942371 0.07255937
-0.32679287 -0.5678047 -0.14199118 0.10309916 0.13747376 -0.04760193 0.47707936 0.2467913
0.44213888 0.038020726 0.2827785 -0.11116163 -0.32675102 0.064608105 -0.30028155 -0.1479481
0.15245014 0.29237574 0.14470156 0.15646112 0.24917738 0.20833322 -0.20078439 -0.11328978
-0.103416465 0.19441363 -0.07855971 -0.017629823 0.011283318 0.033372253 0.032394968 -0.2519385
0.10214081 -0.10286278 -0.067757726 0.2831379 -0.31592506 0.023970436 0.20790347 -0.37050834
-0.40678293 -0.41604626 -0.02861465 -0.19607614 0.22458917 -0.07196398 -0.16160071 -0.34973812
-0.57981914 -0.0087882 -0.075413704 -0.58224237 -0.68641555 -0.543111 -0.115913995 -0.040275175
00000000: 8736 bbbe 4076 95be bf7c 20be a6ac 5bbe
00000010: 8039 d33d a1ae 103d eb02 46be 5dc0 aebe
00000020: 48ba 2c3d ceb9 b4be 1657 45bd dd7a adbd
00000030: b190 54be 065e 673d f7e9 053e a576 b6bd
00000040: 0ac9 7ebe 3c8b cebe a9ac 263e 79d2 953d
00000050: 5697 4b3d 4cd5 94be 82bb c6bd 742a ee3e
00000060: 171a 543e 3ecd 66be 3410 21be 98ed 0ebd
00000070: 0471 b63d 2229 a43e fbd7 4d3e 9c7a 2ebe
00000080: 5bfc a0bc 1792 b23c ce05 14bb 6d53 873d
00000090: 1432 debc e700 64bd aea1 803c 447d 403d
000000a0: aaa2 82bc e16c e93c 18e1 3bbe 8a8c e2bd
000000b0: 3d7c ad3d 71f2 a53e 2584 d7be 8967 8ebe
000000c0: bc3c e9bd 8b4b 013d 3bdf 793e fbc8 d0bd
000000d0: a640 a7bb 2000 cdbd ec42 a3bd 7bc4 ebbd
000000e0: 38fe e1bd 736c 963d 7698 0a3e 5491 203f
000000f0: 2209 98be eb1e 90be 58aa a53e 8311 1dbe
00000100: 2b5a e5bd 2340 ea3d 3dbb 473e 28f0 693e
00000110: fa86 babe 789a d53e c304 17be f172 e53c
00000120: 638a b6be 4c6b 93be 506a 96be 7281 4abe
00000130: 9e30 f9be 72e7 85bc 3373 493b 0a4c 853c
00000140: ab83 a4bd 6801 0e3e fbf7 c4bd 5960 0d3d
00000150: c6e5 943d 096f 20be 9984 413e 1ff4 50bd
00000160: 52c0 dcbd bba6 023f 913e bbbe 801f b0b9
00000170: 4791 63be f6e6 a63c a20a 85bd 03b5 713e
00000180: e702 d33e 6e26 92be 0348 503d 2e7e 7a3d
00000190: d1bd f8be 32d4 b9be 33cd 9abb 90be 23bc
000001a0: 51b1 b8bc 0548 0f3d 8633 be3d 29b2 df3c
000001b0: d492 e1bb 3ed6 72be f37f f63c 18ef 94be
000001c0: ac4a c0bc 7894 1cbf fdd0 e6bd 961a 96bd
000001d0: f215 1f3e 6d03 dfbc 2bf6 88be 076c 7abb
000001e0: d9a3 77be 92c1 1e3d 901d f73e 236a 7d3d
000001f0: 4641 3c3e 9392 c43e 581e e33e e5f1 2c3f
00000200: be67 ea3d fcd1 423e 8a57 d33d 805f b73e
00000210: c82c 533e 3071 1f3e 7e7f 003f 1131 b83c
00000220: 0a76 6a3c aee5 da3d d53f 663d c934 1ebe
00000230: d354 db3d c41f c2bd 32fa 443b cf87 263d
00000240: 4985 48be 36c1 91bd 293d a0bd a5af 033e
00000250: b241 973d 32a6 713e 2216 dabc 564a 53be
00000260: d510 18be cdfb 33be 28ae 9abe 0ff9 7b3d
00000270: 8d13 9dbe 545b 96bd 51ea 9abd 2e56 f9bd
00000280: d2eb 353e 1111 69be cc2e 5b3c 3678 51be
00000290: e691 cb39 bbe2 15be c151 453e af30 9dbb
000002a0: c768 b13d 346d 2bbd 18c4 34be c265 f03b
000002b0: 5f9d 05be fc16 84be aaee 54be 34f9 e6be
000002c0: e60e 16be 934f c3bd 2126 aabe 817a 63be
000002d0: f252 9d3e b9dc 46bd 609c de3e 46f1 61be
000002e0: 8122 51bf 927c 1dbf 41fa 31be de4e debe
000002f0: d421 03bf be44 3fbf c3fb d9be b665 d3be
00000300: 4ae0 77be 94e6 da3d a25c 313e 7194 843e
00000310: 0897 8a3d 0fd6 36bc ee68 7fbe 029a 943d
00000320: 6551 a7be a65b 11bf 2366 11be a725 d33d
00000330: ecc5 0c3e 3efa 42bd bf43 f43e dcb6 7c3e
00000340: 0760 e23e 9fbb 1b3d 58c8 903e b5a8 e3bd
00000350: e94b a7be 4151 843d 81be 99be b57f 17be
00000360: e41b 1c3e 46b2 953e a52c 143e 5837 203e
00000370: 5b28 7f3e 4e55 553e 6c9a 4dbe 7904 e8bd
00000380: 03cc d3bd 5e14 473e eae3 a0bd 6b6c 90bc
00000390: aadd 383c 58b1 083d 96b0 043d 15fe 80be
000003a0: 332f d13d b9a9 d2bd 90c4 8abd 73f7 903e
000003b0: eec0 a1be a65d c43c a6e4 543e 45b3 bdbe
000003c0: da45 d0be 0404 d5be 4569 eabc 2fc8 48be
000003d0: b4fa 653e da61 93bd a87a 25be e010 b3be
000003e0: 076f 14bf 62fc 0fbc 8072 9abd d60d 15bf
000003f0: eeb8 2fbf 5309 0bbf 5164 edbd 95f7 24bd

act_fun.0.scale_sp f4 [7000]
1.0025954 0.72954094 0.82208776 0.80614406 0.7286495 0.8973807 0.5929179 0.8599375
0.9869117 0.8158389 0.93568194 0.8115942 0.9507468 0.9016983 0.69621456 0.97248733
0.9929213 0.81196356 0.7846273 1.0152462 1.0661694 0.9526518 0.92430794 0.98059285
0.97902536 1.0371125 0.8575625 0.88015145 0.92013466 1.0259492 0.89518774 0.86528534
0.9281651 0.843259 1.0285594 0.8809054 0.6962401 0.8659297 0.8543701 0.97431916
0.95463604 0.86758476 0.81643814 0.97219855 0.77664983 0.65143454 0.59550315 0.9340819
0.894628 0.82837236 0.86177444 0.86939085 0.7778666 0.8068958 0.93876225 0.695294
0.6599487 0.8101874 0.93848145 0.8298129 0.84472656 0.922127 0.6404121 0.7011387
1.1017435 0.94052273 1.0408751 1.0748581 0.9347353 0.91634256 0.7423816 0.6786636
0.7907995 0.8166654 0.68480426 0.87663096 0.9482946 0.90521383 0.90009695 0.94543916
0.8542822 0.9372309 0.9175082 0.9138722 0.95312256 0.9743643 0.83302605 1.2369596
0.9439411 0.87511057 0.92259306 0.94958955 0.89842254 1.1283079 0.85836667 0.83910817
0.73625076 0.7187923 1.0101765 0.8590309 0.8610691 0.8640736 0.98840636 0.74428195
0.97090584 0.90001225 0.746243 1.0387604 0.93870705 0.8541104 0.7571452 0.66272676
0.85189325 0.90495926 0.78192455 0.9947078 0.7507475 0.7789437 0.8964998 0.91058624
0.6867722 1.0474056 0.9980268 1.123263 1.4518791 1.3276677 1.3583777 1.3597621
1.3423461 1.2094424 1.3437629 1.2496879 1.3153728 1.0169148 1.0426558 1.352977
1.0325997 0.99469835 1.0919694 0.9372653 1.0969667 0.9922916 0.8808352 1.025645
1.2561804 0.96982414 0.9873788 0.98906064 0.87948215 1.0452138 1.1456904 0.8970966
0.97085667 0.8602836 1.1256348 0.82487553 0.8907854 1.0268097 0.84912056 0.8926582
1.0739638 0.7672081 0.9159515 0.94064164 0.94865453 0.95055413 1.07293 0.82574224
0.93667436 0.9596448 0.8783328 0.85518223 0.76202863 0.9447828 0.925842 0.88266015
0.7897266 0.55075645 1.0849988 0.90323246 0.9413342 0.71989065 0.986762 1.2237498
1.8700155 1.8878163 1.8831732 2.1019173 2.4997513 1.9454955 1.0407485 1.0835325
1.2371172 1.1270063 1.1998922 1.1632799 1.3948213 1.3877614 1.4880574 1.6473159
1.5649505 1.4293433 1.1952955 1.0724994 1.0157171 1.1123724 1.3178322 1.4054688
1.0804969 1.0337036 1.086325 1.1257535 0.831216 0.66618 1.1206098 1.0556189
0.9185958 0.87361586 1.2754622 0.9102407 1.2218156 1.2373998 0.9174268 1.0689284
0.7713186 0.9838541 1.037825 0.6641683 0.93383914 0.74914443 1.0092989 0.9564076
0.95996195 0.79490095 0.77182215 1.0159763 0.69496983 0.83646375 0.61168003 0.81578225
0.6883844 0.5858421 0.9272233 0.82922053 0.874899 0.9749863 0.9464384 1.2680242
1.4024664 1.2099714 1.5081215 1.6428392 1.6538767 1.518132 1.4488728 1.2549198
00000000: 0c55 803f 32c3 3a3f 5874 523f 755f 4e3f
00000010: c688 3a3f beba 653f 78c9 173f dd24 5c3f
00000020: 3fa6 7c3f d1da 503f da88 6f3f a3c4 4f3f
00000030: 2464 733f b3d5 663f 1e3b 323f eef4 783f
00000040: 1730 7e3f d8dc 4f3f 56dd 483f 96f3 813f
00000050: 3d78 883f fde0 733f 729f 6c3f 2208 7b3f
00000060: 68a1 7a3f 1ac0 843f 3789 5b3f 9b51 613f
00000070: f28d 6b3f 4e52 833f 062b 653f 5783 5d3f
00000080: 3a9c 6d3f d2df 573f d6a7 833f 0483 613f
00000090: cb3c 323f 92ad 5d3f 00b8 5a3f fb6c 793f
000000a0: 0763 743f 091a 5e3f 1702 513f 01e2 783f
000000b0: 86d2 463f 6ac4 263f e572 183f fe1f 6f3f
000000c0: 5706 653f 3610 543f 409d 5c3f 6690 5e3f
000000d0: 4422 473f b990 4e3f b952 703f cafe 313f
000000e0: 66f2 283f 7168 4f3f 5240 703f 9e6e 543f
000000f0: 0040 583f 8410 6c3f 0cf2 233f d37d 333f
00000100: ee05 8d3f 19c6 703f 653b 853f f394 893f
00000110: d04a 6f3f 6d95 6a3f b80c 3e3f e6bc 2d3f
00000120: d671 4a3f fc10 513f 554f 2f3f e36a 603f
00000130: 6fc3 723f 18bc 673f c16c 663f 4d08 723f
00000140: 3db2 5a3f 5dee 6f3f d1e1 6a3f 87f3 693f
00000150: d7ff 733f f06f 793f 3241 553f b154 9e3f
00000160: 20a6 713f 3f07 603f 0f2f 6c3f 4d18 733f
00000170: 05ff 653f 656c 903f ebbd 5b3f cbcf 563f
00000180: ee7a 3c3f c602 383f 774d 813f 73e9 5b3f
00000190: 066f 5c3f ed33 5d3f 3308 7d3f 4389 3e3f
000001a0: 498d 783f 3467 663f c809 3f3f 1af6 843f
000001b0: 1b4f 703f fba6 5a3f 45d4 413f 76a8 293f
000001c0: ad15 5a3f 69ab 673f 352c 483f 2ca5 7e3f
000001d0: fd30 403f db68 473f 0381 653f 2e1c 693f
000001e0: 4ed0 2f3f 6311 863f af7e 7f3f 15c7 8f3f
000001f0: 2dd7 b93f 04f1 a93f 52df ad3f af0c ae3f
00000200: ffd1 ab3f 02cf 9a3f 6c00 ac3f c6f5 9f3f
00000210: 235e a83f 442a 823f bf75 853f 5a2e ad3f
00000220: 3a2c 843f 8da4 7e3f a7c5 8b3f 9ef0 6f3f
00000230: 6869 8c3f d306 7e3f 6a7e 613f 5648 833f
00000240: 85ca a03f 6546 783f dbc4 7c3f 1433 7d3f
00000250: be25 613f 91c9 853f fca5 923f 1fa8 653f
00000260: 108a 783f 8c3b 5c3f cd14 903f 0b2b 533f
00000270: 830a 643f 806e 833f f75f 593f 3f85 643f
00000280: a577 893f c067 443f cc7b 6a3f e4cd 703f
00000290: 06db 723f 8457 733f c555 893f d863 533f
000002a0: e4c9 6f3f 48ab 753f 6bda 603f 39ed 5a3f
000002b0: 4f14 433f 49dd 713f fb03 6d3f 04f6 613f
000002c0: 862b 4a3f 60fe 0c3f 3ee1 8a3f 3e3a 673f
000002d0: 47fb 703f c14a 383f 6f9c 7c3f d5a3 9c3f
000002e0: ab5c ef3f f7a3 f13f d20b f13f d085 0640
000002f0: edfb 1f40 ff05 f93f 3f37 853f 31b1 8a3f
00000300: db59 9e3f be41 903f 1196 993f 5be6 943f
00000310: 8189 b23f 2aa2 b13f aa78 be3f 3fdb d23f
00000320: 4c50 c83f b9f4 b63f 71ff 983f a947 893f
00000330: 0503 823f 3862 8e3f baae a83f 67e6 b33f
00000340: b94d 8a3f 6650 843f b30c 8b3f b118 903f
00000350: 92ca 543f c68a 2a3f 2470 8f3f 851e 873f
00000360: 1829 6b3f 4aa5 5f3f 5842 a33f 8905 693f
00000370: 7464 9c3f 1e63 9e3f 7cdc 6a3f a5d2 883f
00000380: 2375 453f dddd 7b3f 73d7 843f ef06 2a3f
00000390: 1510 6f3f eec7 3f3f b530 813f 21d7 743f
000003a0: 11c0 753f a17e 4b3f 2396 453f 830b 823f
000003b0: 8be9 313f 7d22 563f 1097 1c3f 1bd7 503f
000003c0: f639 303f bff9 153f 825e 6d3f cc47 543f
000003d0: 62f9 5f3f b498 793f c949 723f 9e4e a23f
000003e0: 0584 b33f 58e0 9a3f 200a c13f 8e48 d23f
000003f0: 3bb2 d33f 2652 c23f aa74 b93f 36a1 a03f

act_fun.0.mask f4 [7000]
1.0 1.0 1.0 1.0 1.0 1.0 1.0 1.0
1.0 1.0 1.0 1.0 1.0 1.0 1.0 1.0
1.0 1.0 1.0 1.0 1.0 1.0 1.0 1.0
1.0 1.0 1.0 1.0 1.0 1.0 1.0 1.0
1.0 1.0 1.0 1.0 1.0 1.0 1.0 1.0
1.0 1.0 1.0 1.0 1.0 1.0 1.0 1.0
1.0 1.0 1.0 1.0 1.0 1.0 1.0 1.0
1.0 1.0 1.0 1.0 1.0 1.0 1.0 1.0
1.0 1.0 1.0 1.0 1.0 1.0 1.0 1.0
1.0 1.0 1.0 1.0 1.0 1.0 1.0 1.0
1.0 1.0 1.0 1.0 1.0 1.0 1.0 1.0
1.0 1.0 1.0 1.0 1.0 1.0 1.0 1.0
1.0 1.0 1.0 1.0 1.0 1.0 1.0 1.0
1.0 1.0 1.0 1.0 1.0 1.0 1.0 1.0
1.0 1.0 1.0 1.0 1.0 1.0 1.0 1.0
1.0 1.0 1.0 1.0 1.0 1.0 1.0 1.0
1.0 1.0 1.0 1.0 1.0 1.0 1.0 1.0
1.0 1.0 1.0 1.0 1.0 1.0 1.0 1.0
1.0 1.0 1.0 1.0 1.0 1.0 1.0 1.0
1.0 1.0 1.0 1.0 1.0 1.0 1.0 1.0
1.0 1.0 1.0 1.0 1.0 1.0 1.0 1.0
1.0 1.0 1.0 1.0 1.0 1.0 1.0 1.0
1.0 1.0 1.0 1.0 1.0 1.0 1.0 1.0
1.0 1.0 1.0 1.0 1.0 1.0 1.0 1.0
1.0 1.0 1.0 1.0 1.0 1.0 1.0 1.0
1.0 1.0 1.0 1.0 1.0 1.0 1.0 1.0
1.0 1.0 1.0 1.0 1.0 1.0 1.0 1.0
1.0 1.0 1.0 1.0 1.0 1.0 1.0 1.0
1.0 1.0 1.0 1.0 1.0 1.0 1.0 1.0
1.0 1.0 1.0 1.0 1.0 1.0 1.0 1.0
1.0 1.0 1.0 1.0 1.0 1.0 1.0 1.0
1.0 1.0 1.0 1.0 1.0 1.0 1.0 1.0
00000000: 0000 803f 0000 803f 0000 803f 0000 803f
00000010: 0000 803f 0000 803f 0000 803f 0000 803f
00000020: 0000 803f 0000 803f 0000 803f 0000 803f
00000030: 0000 803f 0000 803f 0000 803f 0000 803f
00000040: 0000 803f 0000 803f 0000 803f 0000 803f
00000050: 0000 803f 0000 803f 0000 803f 0000 803f
00000060: 0000 803f 0000 803f 0000 803f 0000 803f
00000070: 0000 803f 0000 803f 0000 803f 0000 803f
00000080: 0000 803f 0000 803f 0000 803f 0000 803f
00000090: 0000 803f 0000 803f 0000 803f 0000 803f
000000a0: 0000 803f 0000 803f 0000 803f 0000 803f
000000b0: 0000 803f 0000 803f 0000 803f 0000 803f
000000c0: 0000 803f 0000 803f 0000 803f 0000 803f
000000d0: 0000 803f 0000 803f 0000 803f 0000 803f
000000e0: 0000 803f 0000 803f 0000 803f 0000 803f
000000f0: 0000 803f 0000 803f 0000 803f 0000 803f
00000100: 0000 803f 0000 803f 0000 803f 0000 803f
00000110: 0000 803f 0000 803f 0000 803f 0000 803f
00000120: 0000 803f 0000 803f 0000 803f 0000 803f
00000130: 0000 803f 0000 803f 0000 803f 0000 803f
00000140: 0000 803f 0000 803f 0000 803f 0000 803f
00000150: 0000 803f 0000 803f 0000 803f 0000 803f
00000160: 0000 803f 0000 803f 0000 803f 0000 803f
00000170: 0000 803f 0000 803f 0000 803f 0000 803f
00000180: 0000 803f 0000 803f 0000 803f 0000 803f
00000190: 0000 803f 0000 803f 0000 803f 0000 803f
000001a0: 0000 803f 0000 803f 0000 803f 0000 803f
000001b0: 0000 803f 0000 803f 0000 803f 0000 803f
000001c0: 0000 803f 0000 803f 0000 803f 0000 803f
000001d0: 0000 803f 0000 803f 0000 803f 0000 803f
000001e0: 0000 803f 0000 803f 0000 803f 0000 803f
000001f0: 0000 803f 0000 803f 0000 803f 0000 803f
00000200: 0000 803f 0000 803f 0000 803f 0000 803f
00000210: 0000 803f 0000 803f 0000 803f 0000 803f
00000220: 0000 803f 0000 803f 0000 803f 0000 803f
00000230: 0000 803f 0000 803f 0000 803f 0000 803f
00000240: 0000 803f 0000 803f 0000 803f 0000 803f
00000250: 0000 803f 0000 803f 0000 803f 0000 803f
00000260: 0000 803f 0000 803f 0000 803f 0000 803f
00000270: 0000 803f 0000 803f 0000 803f 0000 803f
00000280: 0000 803f 0000 803f 0000 803f 0000 803f
00000290: 0000 803f 0000 803f 0000 803f 0000 803f
000002a0: 0000 803f 0000 803f 0000 803f 0000 803f
000002b0: 0000 803f 0000 803f 0000 803f 0000 803f
000002c0: 0000 803f 0000 803f 0000 803f 0000 803f
000002d0: 0000 803f 0000 803f 0000 803f 0000 803f
000002e0: 0000 803f 0000 803f 0000 803f 0000 803f
000002f0: 0000 803f 0000 803f 0000 803f 0000 803f
00000300: 0000 803f 0000 803f 0000 803f 0000 803f
00000310: 0000 803f 0000 803f 0000 803f 0000 803f
00000320: 0000 803f 0000 803f 0000 803f 0000 803f
00000330: 0000 803f 0000 803f 0000 803f 0000 803f
00000340: 0000 803f 0000 803f 0000 803f 0000 803f
00000350: 0000 803f 0000 803f 0000 803f 0000 803f
00000360: 0000 803f 0000 803f 0000 803f 0000 803f
00000370: 0000 803f 0000 803f 0000 803f 0000 803f
00000380: 0000 803f 0000 803f 0000 803f 0000 803f
00000390: 0000 803f 0000 803f 0000 803f 0000 803f
000003a0: 0000 803f 0000 803f 0000 803f 0000 803f
000003b0: 0000 803f 0000 803f 0000 803f 0000 803f
000003c0: 0000 803f 0000 803f 0000 803f 0000 803f
000003d0: 0000 803f 0000 803f 0000 803f 0000 803f
000003e0: 0000 803f 0000 803f 0000 803f 0000 803f
000003f0: 0000 803f 0000 803f 0000 803f 0000 803f

act_fun.1.grid f4 [5, 4]
-69.432274 -47.60721 -25.782146 -3.9570847 -79.31871 -54.807613 -30.296516 -5.7854233
-76.8525 -52.648735 -28.444973 -4.241211 -73.45642 -50.703762 -27.951103 -5.198448
-66.60233 -46.04995 -25.49757 -4.9451904
00000000: 53dd 8ac2 c86d 3ec2 d641 cec1 e040 7dc0
00000010: 2ea3 9ec2 ff3a 5bc2 445f f2c1 3022 b9c0
00000020: 7bb4 99c2 4e98 52c2 4e8f e3c1 00b8 87c0
00000030: b0e9 92c2 a7d0 4ac2 dc9b dfc1 b059 a6c0
00000040: 6534 85c2 2633 38c2 06fb cbc1 003f 9ec0

act_fun.1.coef f4 [5, 6]
0.08644136 0.0925147 -0.004619823 -0.018812878 -0.14718021 -0.09097796 -0.078718536 -0.067156844
-0.054180197 0.023772035 0.16122408 -0.06247259 -0.030889079 -0.050293114 0.0891586 -0.11798341
-0.055581104 0.17053276 0.13439766 0.04556849 0.03449773 -0.075740464 0.037217174 0.21419261
0.18130873 0.061753605 0.017331954 -0.056544144 -0.14970027 0.12615962
00000000: 2b08 b13d 5978 bd3d e261 97bb 771d 9abc
00000010: 69b6 16be a752 babd 2f37 a1bd 8789 89bd
00000020: 0eec 5dbd 92bd c23c ed17 253e 42e3 7fbd
00000030: 180b fdbc 2700 4ebd c998 b63d 49a1 f1bd
00000040: 03a9 63bd 24a0 2e3e 8a9f 093e 06a6 3a3d
00000050: 7e4d 0d3d d11d 9bbd 0971 183d 4f55 5b3e
00000060: ffa8 393e 59f1 7c3d befb 8d3c d59a 67bd
00000070: 074b 19be fd2f 013e

act_fun.1.scale_base f4 [5]
0.44334057 0.5539274 0.344118 0.51555145 0.07924071
00000000: 89fd e23e 30ce 0d3f 3c30 b03e 2efb 033f
00000010: f448 a23d

act_fun.1.scale_sp f4 [5]
0.6287763 0.5916654 0.67307985 0.64929515 0.8752595
00000000: 7cf7 203f 6277 173f f64e 2c3f 3538 263f
00000010: 0211 603f

act_fun.1.mask f4 [5]
1.0 1.0 1.0 1.0 1.0
00000000: 0000 803f 0000 803f 0000 803f 0000 803f
00000010: 0000 803f

act_fun.2.grid f4 [2, 4]
-0.14152053 -0.08842599 -0.035331443 0.017763093 -0.14152053 -0.08842599 -0.035331443 0.017763093
00000000: c2ea 10be af18 b5bd b4b7 10bd e883 913c
00000010: c2ea 10be af18 b5bd b4b7 10bd e883 913c

act_fun.2.coef f4 [2, 6]
1.1913053 0.16627592 -0.25469968 -0.30297267 0.098519936 0.85158765 -1.108285 -0.1131726
0.30272958 0.3230716 -0.103005506 -0.90860176
00000000: b17c 983f 3c44 2a3e ff67 82be 3c1f 9bbe
00000010: d2c4 c93d a601 5a3f 48dc 8dbf 09c7 e7bd
00000020: 5fff 9a3e a469 a53e 8df4 d2bd 209a 68bf

act_fun.2.scale_base f4 [2]
1.1432488 0.99253005
00000000: fa55 923f 7316 7e3f

act_fun.2.scale_sp f4 [2]
2.371669 2.3310587
00000000: 6dc9 1740 1130 1540

act_fun.2.mask f4 [2]
1.0 1.0
00000000: 0000 803f 0000 803f

symbolic_fun.0.mask f4 [5, 1400]
0.0 0.0 0.0 0.0 0.0 0.0 0.0 0.0
0.0 0.0 0.0 0.0 0.0 0.0 0.0 0.0
0.0 0.0 0.0 0.0 0.0 0.0 0.0 0.0
0.0 0.0 0.0 0.0 0.0 0.0 0.0 0.0
0.0 0.0 0.0 0.0 0.0 0.0 0.0 0.0
0.0 0.0 0.0 0.0 0.0 0.0 0.0 0.0
0.0 0.0 0.0 0.0 0.0 0.0 0.0 0.0
0.0 0.0 0.0 0.0 0.0 0.0 0.0 0.0
0.0 0.0 0.0 0.0 0.0 0.0 0.0 0.0
0.0 0.0 0.0 0.0 0.0 0.0 0.0 0.0
0.0 0.0 0.0 0.0 0.0 0.0 0.0 0.0
0.0 0.0 0.0 0.0 0.0 0.0 0.0 0.0
0.0 0.0 0.0 0.0 0.0 0.0 0.0 0.0
0.0 0.0 0.0 0.0 0.0 0.0 0.0 0.0
0.0 0.0 0.0 0.0 0.0 0.0 0.0 0.0
0.0 0.0 0.0 0.0 0.0 0.0 0.0 0.0
0.0 0.0 0.0 0.0 0.0 0.0 0.0 0.0
0.0 0.0 0.0 0.0 0.0 0.0 0.0 0.0
0.0 0.0 0.0 0.0 0.0 0.0 0.0 0.0
0.0 0.0 0.0 0.0 0.0 0.0 0.0 0.0
0.0 0.0 0.0 0.0 0.0 0.0 0.0 0.0
0.0 0.0 0.0 0.0 0.0 0.0 0.0 0.0
0.0 0.0 0.0 0.0 0.0 0.0 0.0 0.0
0.0 0.0 0.0 0.0 0.0 0.0 0.0 0.0
0.0 0.0 0.0 0.0 0.0 0.0 0.0 0.0
0.0 0.0 0.0 0.0 0.0 0.0 0.0 0.0
0.0 0.0 0.0 0.0 0.0 0.0 0.0 0.0
0.0 0.0 0.0 0.0 0.0 0.0 0.0 0.0
0.0 0.0 0.0 0.0 0.0 0.0 0.0 0.0
0.0 0.0 0.0 0.0 0.0 0.0 0.0 0.0
0.0 0.0 0.0 0.0 0.0 0.0 0.0 0.0
0.0 0.0 0.0 0.0 0.0 0.0 0.0 0.0
00000000: 0000 0000 0000 0000 0000 0000 0000 0000
00000010: 0000 0000 0000 0000 0000 0000 0000 0000
00000020: 0000 0000 0000 0000 0000 0000 0000 0000
00000030: 0000 0000 0000 0000 0000 0000 0000 0000
00000040: 0000 0000 0000 0000 0000 0000 0000 0000
00000050: 0000 0000 0000 0000 0000 0000 0000 0000
00000060: 0000 0000 0000 0000 0000 0000 0000 0000
00000070: 0000 0000 0000 0000 0000 0000 0000 0000
00000080: 0000 0000 0000 0000 0000 0000 0000 0000
00000090: 0000 0000 0000 0000 0000 0000 0000 0000
000000a0: 0000 0000 0000 0000 0000 0000 0000 0000
000000b0: 0000 0000 0000 0000 0000 0000 0000 0000
000000c0: 0000 0000 0000 0000 0000 0000 0000 0000
000000d0: 0000 0000 0000 0000 0000 0000 0000 0000
000000e0: 0000 0000 0000 0000 0000 0000 0000 0000
000000f0: 0000 0000 0000 0000 0000 0000 0000 0000
00000100: 0000 0000 0000 0000 0000 0000 0000 0000
00000110: 0000 0000 0000 0000 0000 0000 0000 0000
00000120: 0000 0000 0000 0000 0000 0000 0000 0000
00000130: 0000 0000 0000 0000 0000 0000 0000 0000
00000140: 0000 0000 0000 0000 0000 0000 0000 0000
00000150: 0000 0000 0000 0000 0000 0000 0000 0000
00000160: 0000 0000 0000 0000 0000 0000 0000 0000
00000170: 0000 0000 0000 0000 0000 0000 0000 0000
00000180: 0000 0000 0000 0000 0000 0000 0000 0000
00000190: 0000 0000 0000 0000 0000 0000 0000 0000
000001a0: 0000 0000 0000 0000 0000 0000 0000 0000
000001b0: 0000 0000 0000 0000 0000 0000 0000 0000
000001c0: 0000 0000 0000 0000 0000 0000 0000 0000
000001d0: 0000 0000 0000 0000 0000 0000 0000 0000
000001e0: 0000 0000 0000 0000 0000 0000 0000 0000
000001f0: 0000 0000 0000 0000 0000 0000 0000 0000
00000200: 0000 0000 0000 0000 0000 0000 0000 0000
00000210: 0000 0000 0000 0000 0000 0000 0000 0000
00000220: 0000 0000 0000 0000 0000 0000 0000 0000
00000230: 0000 0000 0000 0000 0000 0000 0000 0000
00000240: 0000 0000 0000 0000 0000 0000 0000 0000
00000250: 0000 0000 0000 0000 0000 0000 0000 0000
00000260: 0000 0000 0000 0000 0000 0000 0000 0000
00000270: 0000 0000 0000 0000 0000 0000 0000 0000
00000280: 0000 0000 0000 0000 0000 0000 0000 0000
00000290: 0000 0000 0000 0000 0000 0000 0000 0000
000002a0: 0000 0000 0000 0000 0000 0000 0000 0000
000002b0: 0000 0000 0000 0000 0000 0000 0000 0000
000002c0: 0000 0000 0000 0000 0000 0000 0000 0000
000002d0: 0000 0000 0000 0000 0000 0000 0000 0000
000002e0: 0000 0000 0000 0000 0000 0000 0000 0000
000002f0: 0000 0000 0000 0000 0000 0000 0000 0000
00000300: 0000 0000 0000 0000 0000 0000 0000 0000
00000310: 0000 0000 0000 0000 0000 0000 0000 0000
00000320: 0000 0000 0000 0000 0000 0000 0000 0000
00000330: 0000 0000 0000 0000 0000 0000 0000 0000
00000340: 0000 0000 0000 0000 0000 0000 0000 0000
00000350: 0000 0000 0000 0000 0000 0000 0000 0000
00000360: 0000 0000 0000 0000 0000 0000 0000 0000
00000370: 0000 0000 0000 0000 0000 0000 0000 0000
00000380: 0000 0000 0000 0000 0000 0000 0000 0000
00000390: 0000 0000 0000 0000 0000 0000 0000 0000
000003a0: 0000 0000 0000 0000 0000 0000 0000 0000
000003b0: 0000 0000 0000 0000 0000 0000 0000 0000
000003c0: 0000 0000 0000 0000 0000 0000 0000 0000
000003d0: 0000 0000 0000 0000 0000 0000 0000 0000
000003e0: 0000 0000 0000 0000 0000 0000 0000 0000
000003f0: 0000 0000 0000 0000 0000 0000 0000 0000

symbolic_fun.0.affine f4 [5, 1400, 4]
0.0 0.0 0.0 0.0 0.0 0.0 0.0 0.0
0.0 0.0 0.0 0.0 0.0 0.0 0.0 0.0
0.0 0.0 0.0 0.0 0.0 0.0 0.0 0.0
0.0 0.0 0.0 0.0 0.0 0.0 0.0 0.0
0.0 0.0 0.0 0.0 0.0 0.0 0.0 0.0
0.0 0.0 0.0 0.0 0.0 0.0 0.0 0.0
0.0 0.0 0.0 0.0 0.0 0.0 0.0 0.0
0.0 0.0 0.0 0.0 0.0 0.0 0.0 0.0
0.0 0.0 0.0 0.0 0.0 0.0 0.0 0.0
0.0 0.0 0.0 0.0 0.0 0.0 0.0 0.0
0.0 0.0 0.0 0.0 0.0 0.0 0.0 0.0
0.0 0.0 0.0 0.0 0.0 0.0 0.0 0.0
0.0 0.0 0.0 0.0 0.0 0.0 0.0 0.0
0.0 0.0 0.0 0.0 0.0 0.0 0.0 0.0
0.0 0.0 0.0 0.0 0.0 0.0 0.0 0.0
0.0 0.0 0.0 0.0 0.0 0.0 0.0 0.0
0.0 0.0 0.0 0.0 0.0 0.0 0.0 0.0
0.0 0.0 0.0 0.0 0.0 0.0 0.0 0.0
0.0 0.0 0.0 0.0 0.0 0.0 0.0 0.0
0.0 0.0 0.0 0.0 0.0 0.0 0.0 0.0
0.0 0.0 0.0 0.0 0.0 0.0 0.0 0.0
0.0 0.0 0.0 0.0 0.0 0.0 0.0 0.0
0.0 0.0 0.0 0.0 0.0 0.0 0.0 0.0
0.0 0.0 0.0 0.0 0.0 0.0 0.0 0.0
0.0 0.0 0.0 0.0 0.0 0.0 0.0 0.0
0.0 0.0 0.0 0.0 0.0 0.0 0.0 0.0
0.0 0.0 0.0 0.0 0.0 0.0 0.0 0.0
0.0 0.0 0.0 0.0 0.0 0.0 0.0 0.0
0.0 0.0 0.0 0.0 0.0 0.0 0.0 0.0
0.0 0.0 0.0 0.0 0.0 0.0 0.0 0.0
0.0 0.0 0.0 0.0 0.0 0.0 0.0 0.0
0.0 0.0 0.0 0.0 0.0 0.0 0.0 0.0
00000000: 0000 0000 0000 0000 0000 0000 0000 0000
00000010: 0000 0000 0000 0000 0000 0000 0000 0000
00000020: 0000 0000 0000 0000 0000 0000 0000 0000
00000030: 0000 0000 0000 0000 0000 0000 0000 0000
00000040: 0000 0000 0000 0000 0000 0000 0000 0000
00000050: 0000 0000 0000 0000 0000 0000 0000 0000
00000060: 0000 0000 0000 0000 0000 0000 0000 0000
00000070: 0000 0000 0000 0000 0000 0000 0000 0000
00000080: 0000 0000 0000 0000 0000 0000 0000 0000
00000090: 0000 0000 0000 0000 0000 0000 0000 0000
000000a0: 0000 0000 0000 0000 0000 0000 0000 0000
000000b0: 0000 0000 0000 0000 0000 0000 0000 0000
000000c0: 0000 0000 0000 0000 0000 0000 0000 0000
000000d0: 0000 0000 0000 0000 0000 0000 0000 0000
000000e0: 0000 0000 0000 0000 0000 0000 0000 0000
000000f0: 0000 0000 0000 0000 0000 0000 0000 0000
00000100: 0000 0000 0000 0000 0000 0000 0000 0000
00000110: 0000 0000 0000 0000 0000 0000 0000 0000
00000120: 0000 0000 0000 0000 0000 0000 0000 0000
00000130: 0000 0000 0000 0000 0000 0000 0000 0000
00000140: 0000 0000 0000 0000 0000 0000 0000 0000
00000150: 0000 0000 0000 0000 0000 0000 0000 0000
00000160: 0000 0000 0000 0000 0000 0000 0000 0000
00000170: 0000 0000 0000 0000 0000 0000 0000 0000
00000180: 0000 0000 0000 0000 0000 0000 0000 0000
00000190: 0000 0000 0000 0000 0000 0000 0000 0000
000001a0: 0000 0000 0000 0000 0000 0000 0000 0000
000001b0: 0000 0000 0000 0000 0000 0000 0000 0000
000001c0: 0000 0000 0000 0000 0000 0000 0000 0000
000001d0: 0000 0000 0000 0000 0000 0000 0000 0000
000001e0: 0000 0000 0000 0000 0000 0000 0000 0000
000001f0: 0000 0000 0000 0000 0000 0000 0000 0000
00000200: 0000 0000 0000 0000 0000 0000 0000 0000
00000210: 0000 0000 0000 0000 0000 0000 0000 0000
00000220: 0000 0000 0000 0000 0000 0000 0000 0000
00000230: 0000 0000 0000 0000 0000 0000 0000 0000
00000240: 0000 0000 0000 0000 0000 0000 0000 0000
00000250: 0000 0000 0000 0000 0000 0000 0000 0000
00000260: 0000 0000 0000 0000 0000 0000 0000 0000
00000270: 0000 0000 0000 0000 0000 0000 0000 0000
00000280: 0000 0000 0000 0000 0000 0000 0000 0000
00000290: 0000 0000 0000 0000 0000 0000 0000 0000
000002a0: 0000 0000 0000 0000 0000 0000 0000 0000
000002b0: 0000 0000 0000 0000 0000 0000 0000 0000
000002c0: 0000 0000 0000 0000 0000 0000 0000 0000
000002d0: 0000 0000 0000 0000 0000 0000 0000 0000
000002e0: 0000 0000 0000 0000 0000 0000 0000 0000
000002f0: 0000 0000 0000 0000 0000 0000 0000 0000
00000300: 0000 0000 0000 0000 0000 0000 0000 0000
00000310: 0000 0000 0000 0000 0000 0000 0000 0000
00000320: 0000 0000 0000 0000 0000 0000 0000 0000
00000330: 0000 0000 0000 0000 0000 0000 0000 0000
00000340: 0000 0000 0000 0000 0000 0000 0000 0000
00000350: 0000 0000 0000 0000 0000 0000 0000 0000
00000360: 0000 0000 0000 0000 0000 0000 0000 0000
00000370: 0000 0000 0000 0000 0000 0000 0000 0000
00000380: 0000 0000 0000 0000 0000 0000 0000 0000
00000390: 0000 0000 0000 0000 0000 0000 0000 0000
000003a0: 0000 0000 0000 0000 0000 0000 0000 0000
000003b0: 0000 0000 0000 0000 0000 0000 0000 0000
000003c0: 0000 0000 0000 0000 0000 0000 0000 0000
000003d0: 0000 0000 0000 0000 0000 0000 0000 0000
000003e0: 0000 0000 0000 0000 0000 0000 0000 0000
000003f0: 0000 0000 0000 0000 0000 0000 0000 0000

symbolic_fun.1.mask f4 [1, 5]
0.0 0.0 0.0 0.0 0.0
00000000: 0000 0000 0000 0000 0000 0000 0000 0000
00000010: 0000 0000

symbolic_fun.1.affine f4 [1, 5, 4]
0.0 0.0 0.0 0.0 0.0 0.0 0.0 0.0
0.0 0.0 0.0 0.0 0.0 0.0 0.0 0.0
0.0 0.0 0.0 0.0
00000000: 0000 0000 0000 0000 0000 0000 0000 0000
00000010: 0000 0000 0000 0000 0000 0000 0000 0000
00000020: 0000 0000 0000 0000 0000 0000 0000 0000
00000030: 0000 0000 0000 0000 0000 0000 0000 0000
00000040: 0000 0000 0000 0000 0000 0000 0000 0000

symbolic_fun.2.mask f4 [2, 1]
0.0 0.0
00000000: 0000 0000 0000 0000

symbolic_fun.2.affine f4 [2, 1, 4]
0.0 0.0 0.0 0.0 0.0 0.0 0.0 0.0
00000000: 0000 0000 0000 0000 0000 0000 0000 0000
00000010: 0000 0000 0000 0000 0000 0000 0000 0000
