workspace/results/ascad/KAN_ASCADf_snr/1/KAN-1Hidden.ckpt (torch, 5622 bytes, 15 tensors)

biases.1.weight f4 [1, 2]
-0.055115264 -0.1223099
00000000: 8bc0 61bd 9d7d fabd

act_fun.0.grid f4 [2, 4]
-2.8307462 -1.0733051 0.6841359 2.441577 -2.705753 -1.0086255 0.6885021 2.3856294
00000000: f22a 35c0 1062 89bf 8823 2f3f cc42 1c40
00000010: 0f2b 2dc0 a41a 81bf ac41 303f 27ae 1840

act_fun.0.coef f4 [2, 6]
-0.039680157 -0.12621155 -0.2400647 0.31426018 -0.4323972 -1.1411966 -0.4121567 -0.44448397
-0.37790245 0.17409755 -0.2903295 -0.6271274
00000000: a987 22bd 9a3d 01be 85d3 75be b6e6 a03e
00000010: 2a63 ddbe bb12 92bf 3406 d3be 6793 e3be
00000020: 6e7c c1be a146 323e 11a6 94be 6c8b 20bf

act_fun.0.scale_base f4 [2]
0.52751404 0.3242028
00000000: 290b 073f e9fd a53e

act_fun.0.scale_sp f4 [2]
1.9487778 1.5856098
00000000: 8d71 f93f 43f5 ca3f

act_fun.0.mask f4 [2]
1.0 1.0
00000000: 0000 803f 0000 803f

act_fun.1.grid f4 [2, 4]
-0.50154537 0.39831686 1.2981791 2.1980412 -0.50154537 0.39831686 1.2981791 2.1980412
00000000: 4765 00bf 30f0 cb3e bc2a a63f b5ac 0c40
00000010: 4765 00bf 30f0 cb3e bc2a a63f b5ac 0c40

act_fun.1.coef f4 [2, 6]
0.6260347 -0.037983112 -0.05379247 -0.11148631 -0.16862272 -0.12413544 -0.14320192 0.3838904
-0.02445416 -0.6947422 -0.35906783 -0.09270091
00000000: cf43 203f 2e94 1bbd 7e55 5cbd ef52 e4bd
00000010: 6fab 2cbe b93a febd 86a3 12be 488d c43e
00000020: 1754 c8bc a0da 31bf bdd7 b7be fad9 bdbd

act_fun.1.scale_base f4 [2]
0.8702135 0.6965317
00000000: 50c6 5e3f e74f 323f

act_fun.1.scale_sp f4 [2]
1.4440246 1.6724914
00000000: ccd5 b83f 3314 d63f

act_fun.1.mask f4 [2]
1.0 1.0
00000000: 0000 803f 0000 803f

symbolic_fun.0.mask f4 [1, 2]
0.0 0.0
00000000: 0000 0000 0000 0000

symbolic_fun.0.affine f4 [1, 2, 4]
0.0 0.0 0.0 0.0 0.0 0.0 0.0 0.0
00000000: 0000 0000 0000 0000 0000 0000 0000 0000
00000010: 0000 0000 0000 0000 0000 0000 0000 0000

symbolic_fun.1.mask f4 [2, 1]
0.0 0.0
00000000: 0000 0000 0000 0000

symbolic_fun.1.affine f4 [2, 1, 4]
0.0 0.0 0.0 0.0 0.0 0.0 0.0 0.0
00000000: 0000 0000 0000 0000 0000 0000 0000 0000
00000010: 0000 0000 0000 0000 0000 0000 0000 0000
