workspace/results/ascad/KAN_ASCADf/0/KAN-2Hidden.ckpt (torch, 259902 bytes, 23 tensors)

biases.0.weight f4 [1, 5]
00000000: a3e7 c8bc ec61 9cbc e868 27bd 3fa5 e0bc
00000010: 4404 c3bc
-0.024524515 -0.019089662 -0.04087153 -0.027422545 -0.023805745

biases.2.weight f4 [1, 2]
00000000: b743 133e efa4 11be
0.143813 -0.14223073

act_fun.0.grid f4 [3500, 4]
00000000: 1719 3ac0 7865 77bf 6c99 793f 13a6 3a40
00000010: f3bc 38c0 dc96 81bf 5c98 5c3f 9b17 2f40
00000020: c366 38c0 1ec6 74bf d00e 783f ef38 3940
00000030: bc53 25c0 1cb1 55bf b8ec 693f a262 2a40
00000040: dbd2 1ac0 8643 38bf 60c4 7a3f 1173 2b40
00000050: f458 18c0 b248 5cbf 6cd2 283f 627b 0b40
00000060: 71e9 07c0 be8d 1abf 488a 6a3f 93e8 1b40
00000070: ca59 13c0 04c2 32bf 20e3 673f 10a2 2040
00000080: 26be 25c0 6a5a 66bf c443 4a3f 7cb8 1e40
00000090: dae4 24c0 8ace 51bf 54f6 6f3f cc6e 2c40
000000a0: 3c45 2cc0 708e 7bbf 10f8 393f a4df 1b40
000000b0: 5bca 23c0 a85f 3abf 0e35 8d3f f7cc 3b40
000000c0: d470 1ac0 4cc8 0fbf 5c19 a53f 6e0b 4940
000000d0: 9ee6 17c0 b447 3bbf 100b 693f 7457 2340
000000e0: 9203 45c0 2c5c a8bf 303b e53e e27c 0d40
000000f0: 51ad 25c0 f836 4cbf 5447 7e3f 6731 3240
00000100: 5c42 11c0 52a6 4cbf ccbc 2b3f fa07 0940
00000110: bdce 1bc0 3c5c 58bf 7c82 3e3f 4d58 1540
00000120: d8a3 19c0 b868 50bf f0bd 453f 26f9 1640
00000130: 5d42 1bc0 c0dc 66bf f44f 1f3f 295f 0940
00000140: 49e1 23c0 8e31 6abf 0822 3b3f 671d 1840
00000150: 4c45 18c0 e21a 37bf 6cdf 723f 6e36 2740
00000160: c46a 2bc0 b4a2 54bf d432 823f 805b 3740
00000170: 2c89 4ac0 f459 98bf e0bc 483f 6a8b 3040
00000180: 2b8b 44c0 1ce2 a3bf 3ca4 023f 2b43 1340
00000190: 2216 5dc0 a68e bebf e03b f43e 4a56 1c40
000001a0: 0231 45c0 aae0 aabf c082 d23e 0411 0a40
000001b0: 68f7 3cc0 8c28 99bf 703b 0f3f fe31 1440
000001c0: ef48 5ec0 1c42 dabf 60da 803d 665d ea3f
000001d0: bdbe 54c0 9c66 b1bf 8460 0d3f 8f63 1f40
000001e0: 8657 30c0 a4d8 77bf d0ac 513f 90cc 2640
000001f0: ac8a 1cc0 20eb 4bbf 7054 5a3f 0025 2040
00000200: 5213 03c0 682f fcbe f00e 883f dc94 2740
00000210: cf28 f9bf d060 eebe 67f8 813f 80c4 1f40
00000220: f9b3 12c0 d0b2 12bf 22b5 923f d561 3740
00000230: 0eba 13c0 5262 23bf ca11 843f 5eea 2c40
00000240: 3a67 1bc0 d4bf 58bf 401d 3c3f 943e 1440
00000250: 1865 1fc0 2893 5dbf 106e 423f d29b 1840
00000260: d5a0 19c0 0839 3dbf 4411 6c3f e356 2540
00000270: f9a4 04c0 e062 c7be 8298 a53f dd84 3e40
00000280: 7b5c d9bf 3089 c5be c62f 6d3f 0849 0f40
00000290: 5391 02c0 7eaf 2dbf 50e6 2e3f 07df 0240
000002a0: 4dc9 02c0 9c23 31bf fcdd 283f e5b7 0040
000002b0: 5904 14c0 9c21 57bf 2cce 213f 7daf 0640
000002c0: 2785 fdbf a0f5 01bf 0e1f 773f ee0c 1c40
000002d0: 8775 29c0 8858 4cbf 8692 863f a7a8 3940
000002e0: cd54 36c0 6a1f 90bf 8cd5 183f 7b7a 1440
000002f0: 0621 2bc0 4061 60bf 98c1 6b3f 1cf9 2d40
00000300: 4a04 15c0 da26 47bf 74c3 453f 70ab 1440
00000310: 5b91 09c0 8e68 44bf 5074 1d3f 96a8 ff3f
00000320: 8f54 0cc0 d837 2ebf 8ce2 543f 3bff 1540
00000330: 28d8 15c0 587b 46bf f069 4a3f ced3 1640
00000340: f75b 10c0 9625 27bf b024 733f bd5b 2340
00000350: fb20 34c0 c4d4 92bf dc30 053f cf02 0c40
00000360: bc73 33c0 0c48 8fbf c0ae 103f 66fb 0f40
00000370: 4070 2fc0 fe08 8bbf 089d 113f 0253 0e40
00000380: 2c8c 20c0 5ca9 74bf f8dd 183f 5299 0940
00000390: edaf 18c0 26b6 72bf d0a6 fa3e 7aae f63f
000003a0: 4074 04c0 52d0 26bf 5c30 443f 42cc 0b40
000003b0: 4c58 f5bf 04e0 05bf 90f0 5e3f 48f0 1040
000003c0: 8e90 fabf b4c0 0ebf b49f 573f 0780 0f40
000003d0: 382e 05c0 5285 18bf 3cae 633f 72f8 1740
000003e0: cc1c 2dc0 8992 80bf 0c29 323f ca5d 1940
000003f0: b02f 4dc0 041c b4bf 609d c83e 5a35 0c40
-2.9077814 -0.96639204 0.9749973 2.9163864 -2.8865325 -1.0124164 0.8616998 2.7358158
-2.881272 -0.956148 0.968976 2.8941 -2.5832357 -0.8347337 0.9137683 2.66227
-2.4191196 -0.7197803 0.97955894 2.678898 -2.3804293 -0.86048424 0.6594608 2.1794057
-2.1236231 -0.6037253 0.9161725 2.4360702 -2.3023553 -0.69827294 0.9058094 2.5098915
-2.5897307 -0.8998171 0.7900965 2.48001 -2.576468 -0.8195578 0.9373524 2.6942625
-2.6917257 -0.9826422 0.7264414 2.435525 -2.5592258 -0.7280221 1.1031816 2.934385
-2.4131365 -0.56165004 1.2898364 3.1413226 -2.3734508 -0.73156285 0.91032505 2.5522127
-3.078343 -1.3153129 0.4477172 2.2107472 -2.5887034 -0.79771376 0.9932759 2.7842653
-2.2696753 -0.79941285 0.67084956 2.1411119 -2.4344933 -0.8451574 0.74417853 2.3335145
-2.4006252 -0.8140979 0.77242947 2.3589568 -2.4259255 -0.9018059 0.62231374 2.146433
-2.5606253 -0.91481864 0.730988 2.3767946 -2.3792295 -0.71525395 0.94872165 2.6126971
-2.6783915 -0.83060765 1.0171762 2.8649597 -3.1646223 -1.1902452 0.784132 2.7585092
-3.0709941 -1.2803378 0.5103185 2.3009746 -3.4544759 -1.4887283 0.4770193 2.4427667
-3.0811162 -1.3349812 0.4111538 2.1572886 -2.9526005 -1.1965499 0.5595007 2.3155513
-3.4732015 -1.7051425 0.06291652 1.8309753 -3.3241417 -1.3859439 0.55225396 2.4904516
-2.755342 -0.9681494 0.81904316 2.6062355 -2.4459639 -0.7965565 0.8528509 2.5022583
-2.0480542 -0.49254918 1.0629559 2.6184607 -1.9465579 -0.46558237 1.0153931 2.4963684
-2.2922347 -0.57304096 1.1461527 2.8653462 -2.3082309 -0.638219 1.0317929 2.7018046
-2.4281754 -0.84667706 0.7348213 2.3163195 -2.4905453 -0.8655267 0.7594919 2.3845105
-2.4004414 -0.7391515 0.92213845 2.5834281 -2.0725691 -0.38942623 1.2937167 2.9768593
-1.6981348 -0.38581228 0.9265102 2.2388325 -2.04012 -0.67845905 0.6832018 2.0448625
-2.0435364 -0.6919496 0.6596372 2.011224 -2.3127654 -0.8403566 0.6320522 2.104461
-1.980626 -0.5076542 0.9653176 2.4382892 -2.6477983 -0.7982259 1.0513465 2.9009187
-2.8489258 -1.1259587 0.59700847 2.3199756 -2.6738906 -0.8764839 0.92092276 2.7183294
-2.3283868 -0.7779366 0.7725136 2.3229637 -2.1494968 -0.7672204 0.61505604 1.9973323
-2.192661 -0.6805396 0.83158183 2.343703 -2.3413181 -0.7753196 0.790679 2.3566775
-2.255613 -0.65291727 0.94977856 2.5524743 -2.814513 -1.1471181 0.5202768 2.1876714
-2.8039389 -1.1193862 0.5651665 2.2497191 -2.7412262 -1.0862119 0.56880236 2.2238164
-2.5085554 -0.9557092 0.597137 2.149983 -2.3857377 -0.94809186 0.48955393 1.9271996
-2.0695953 -0.6516162 0.7663629 2.184342 -1.9167571 -0.52294946 0.8708582 2.2646656
-1.9575365 -0.5576279 0.8422806 2.2421892 -2.080946 -0.5957843 0.88937736 2.374539
-2.7048826 -1.0044719 0.6959388 2.3963494 -3.2060356 -1.407105 0.39182568 2.1907563

act_fun.0.coef f4 [3500, 6]
00000000: 8ac2 48be 5689 80bd 648f f93c e553 aebd
00000010: 2816 613d e815 963f 12f0 93be 73da c1bd
00000020: f99c 503d 3112 b1bd cfca 753d 84e4 0f3f
00000030: 5012 3d3e 8469 0d3d 7e67 9cbd b35e b93b
00000040: cb53 aa3c 2455 bb3e e14b e63d 8bb2 9cbd
00000050: 1e4a 97bc 4fde e63c 5963 14be 3d20 a93e
00000060: 6a1b 793e e078 ebbd 62fd f8bb 388d 043d
00000070: 6a8b f1bd fe5e 3d3e ef20 243f 91c9 4abd
00000080: 9b8d 83bd f0de 103d 6c4a febd aa58 673e
00000090: ed1f be3e 78d1 d1bd f9cb d23a bb22 d5bc
000000a0: 2ae0 2cbd 11f9 1c3e e9d5 ea3e 5ade bdbd
000000b0: 90ce 67bc 3e41 0e3d a59b 14be d01e 8bbd
000000c0: 9268 7b3e be03 5fbc 551a 3bbd ea0f 383c
000000d0: 6e61 7cbd de87 f9bc 9e9b 603e ff83 3a3e
000000e0: c989 8fbc 0d5f dabd f810 cfbd 09dd 22be
000000f0: fc9b 1ebd 0022 923e d767 8b3d 6c6e 55be
00000100: 738e 2bbe dfb4 8cbd 7568 863e aaf9 453e
00000110: c1cf 3abc 2a57 b0bd 906d 35be 321a dabe
00000120: aa30 2e3f 6fbe b13d c904 87bd 609c 9bbc
00000130: 6cf2 bcbd de4b 6b3e d1ee 21bb 442f 703c
00000140: 4717 243d 7853 10be b104 dd3d f421 a73e
00000150: 0df6 aa3d c306 1c3e f6dd 403e 71a8 09be
00000160: f7ba 82be cff2 2d3f 75d8 423e 02f6 2d3c
00000170: bc43 563d 3487 84bd d1dd 14be 4274 1e3e
00000180: b5be 09bd ebd7 80bd 5af7 1bbd fb60 18bd
00000190: fd93 8dbd d094 083f 7be3 3a3f 8f22 3a3e
000001a0: d22e 02be a7c7 d6bd e0a7 da3d 89d9 eb3e
000001b0: 6c93 fe3d b990 f73d c440 cbbd bc1b 88bc
000001c0: f446 8dbc 74a0 e23e a298 36bd 38c8 dabc
000001d0: d276 44bd ac55 bc3c 1e14 81bd f0e3 6d3e
000001e0: a269 d23e 6f41 96bd 22c0 00bd 0802 f6bc
000001f0: de58 d1bc 1c8b 1e3f dffd 13be 44fb 66bd
00000200: b3d7 43bc 6fca 56bd 32c0 b33d 3063 aebe
00000210: 6bac 6cbf b24b 90be d1da a73d aa45 cf3b
00000220: 7898 313d ac10 03bf 89f0 263d d7f8 4abe
00000230: 8618 77bb b2ca 47bd 9e35 203e 15f8 f1bd
00000240: 7211 1d3e be59 42be 0d2e dd3b 4282 98bd
00000250: d390 023e 19ed 253e ef87 1f3f 2fe4 aebe
00000260: f2d5 c3bd e130 7c3c 3400 133e dcea f43e
00000270: 3e15 2bbe b0f3 89be b18b 4a3d 612c 84bd
00000280: e103 9c3c e041 1c3f 5ee0 9abe d244 7cbe
00000290: 1249 b83d d71c ecbd ebb5 b73d a427 373f
000002a0: fd14 c43e 7f16 babd a6a7 1abd 17f7 9cbd
000002b0: 99cf a63d 3eeb a73e 0483 c2bc 09e2 3dbd
000002c0: 8a03 353c 4477 2fbd e146 373c 298a 8c3e
000002d0: 5f77 813e 26e2 043c 3960 68bd f8c0 47bd
000002e0: 29f5 023e e5cc d43d 8f21 113e 98fe 893d
000002f0: 71d5 06bd c49e 9fbd 0b49 ee3d 07cf 31be
00000300: e7b6 f43e bc14 1a3d fc7d 88bd 2b7e 26bd
00000310: 1db0 433d dea1 8cbe d668 103f 54f4 19bd
00000320: 9196 d9bc cfb1 a1bd b984 f73c b245 b93e
00000330: 4b54 873e f160 093e edda a2bc ae7c e8bd
00000340: e401 bdbc 7362 e3bb 0ac3 4f3e 0dcf 323e
00000350: 61cc 27bd f264 7abd cb79 a4bd e996 ccbe
00000360: 0aa5 a33e b4d2 e93d f7e5 9cbd fc6a 22bd
00000370: f640 9f3c 9711 7abe 6c3b 35bd 9a46 c33d
00000380: 6c13 a1bd 4e15 13bd 9b16 c93d 0ef9 23be
00000390: 282d 353d 0a9e 243e 406f e9bc ac0a b3bd
000003a0: fd16 d13c 4547 c2be bdd4 2b3f 489e 113e
000003b0: d3cd ddbd b22f d2bd 9173 013e c4ea 26bd
000003c0: fe8a ea3e 7916 3dbd c495 c3bd fbcb 2a3d
000003d0: 5a1b f6bc 6140 163d 0556 f73e a774 eb3d
000003e0: 63ff d9bd c7c7 6cbd 41d9 b4bb 9f21 a63d
000003f0: 02a5 483e 8f5d fb3d c0c3 debd e406 a6bc
-0.19605461 -0.06276195 0.030463882 -0.08512095 0.05495277 1.1725435 -0.28894097 -0.09465494
0.05093095 -0.08646048 0.060007866 0.5620806 0.18464017 0.034524456 -0.07636927 0.005657041
0.020791909 0.36588395 0.112449415 -0.07651242 -0.018467959 0.028182177 -0.14491023 0.33032408
0.24326864 -0.114976645 -0.007598565 0.03236124 -0.11794169 0.18493268 0.6411275 -0.049508635
-0.064234935 0.03536886 -0.124165386 0.22592416 0.37133732 -0.10245031 0.0016082517 -0.026017537
-0.042205967 0.15329386 0.45866325 -0.09270926 -0.014148369 0.03473019 -0.14512499 -0.067929864
0.24551609 -0.013611732 -0.04567941 0.011234263 -0.061616354 -0.030460294 0.21934363 0.18214415
-0.017521756 -0.10662661 -0.101106584 -0.1590463 -0.038722977 0.28541565 0.06806915 -0.20842904
-0.16753559 -0.06870436 0.2625157 0.1933352 -0.011402071 -0.08610375 -0.17717576 -0.4259811
0.68043005 0.086789005 -0.065927096 -0.018995464 -0.09225926 0.2297816 -0.0024708996 0.0146597065
0.04006126 -0.14094341 0.107919104 0.32643092 0.08347712 0.15236954 0.18834671 -0.13443162
-0.25533268 0.6794862 0.19027884 0.010617735 0.05231069 -0.064711004 -0.14537741 0.15474036
-0.033629138 -0.06291183 -0.03807769 -0.037201863 -0.06912992 0.5335207 0.7300336 0.18177246
-0.12713173 -0.104872994 0.10676551 0.46064404 0.12430462 0.120881505 -0.099244624 -0.016614787
-0.017245747 0.4426304 -0.044579156 -0.0267068 -0.04796488 0.02299007 -0.06302665 0.23231483
0.41096216 -0.07336699 -0.031433232 -0.030030265 -0.02555507 0.61931014 -0.14452313 -0.05639197
-0.011953282 -0.05243915 0.08776893 -0.3406005 -0.9245059 -0.2818275 0.08196033 0.0063254433
0.043358296 -0.51197314 0.040756736 -0.19821487 -0.0037703826 -0.04877729 0.15645453 -0.11814896
0.15338686 -0.18979546 0.0067498744 -0.0744672 0.12750559 0.16203727 0.62316793 -0.34158465
-0.09562291 0.015392513 0.14355546 0.47835433 -0.16707322 -0.2694373 0.049449626 -0.06453777
0.019044818 0.6103802 -0.30249304 -0.24635628 0.08998312 -0.11528938 0.08970245 0.7154486
0.38297263 -0.09086322 -0.03775754 -0.07664316 0.08145065 0.32796663 -0.023744114 -0.046358142
0.011048207 -0.04283835 0.011186332 0.27449158 0.25286385 0.008110559 -0.05673239 -0.048768014
0.12788834 0.10390643 0.14172958 0.06738013 -0.032918397 -0.07793954 0.116350256 -0.17364131
0.47795793 0.03761743 -0.066646546 -0.040647667 0.047775377 -0.27467245 0.56409967 -0.037586525
-0.026561053 -0.078952424 0.030214654 0.36185986 0.26431498 0.13415886 -0.019879783 -0.11351906
-0.02307219 -0.0069392263 0.20289245 0.17461796 -0.040966395 -0.061131425 -0.08031043 -0.39958885
0.31961852 0.114171416 -0.0766105 -0.03965281 0.019440155 -0.24420772 -0.044246122 0.095349506
-0.078650326 -0.03590899 0.09818765 -0.16012976 0.044232517 0.16075912 -0.028495431 -0.0874227
0.025523657 -0.37945 0.6712149 0.14220536 -0.108302735 -0.102630034 0.12641741 -0.040751234
0.45809168 -0.04616401 -0.0955005 0.041698437 -0.03004234 0.03668249 0.48307815 0.11496859
-0.10644414 -0.05780771 -0.0055190627 0.081118815 0.19594195 0.12273704 -0.1087718 -0.020266958

act_fun.0.scale_base f4 [3500]
00000000: 4303 52be 42bd 72be 2c2c 2fbc 71f5 39be
00000010: 5a09 d23d 60f8 a33d 2c41 04be 5493 12bf
00000020: b7a0 d5bc 356d f1be 68ad 44be 6928 66be
00000030: ae87 cbbd cb15 583e 1b2a 17bd 286a 7dbe
00000040: 9956 5abe 9c04 5cbe f732 0d3e 3eed f13d
00000050: 6f66 e63d 9e17 abbe 1bf6 d5bd b29d e93e
00000060: 9e31 7a3e 9c4b e13d dbd9 8b3d 9dce 1d3e
00000070: 1411 e33e 0173 a83e 9843 883e d76b 34be
00000080: 3a54 10be ba45 f1bb 7ddc 67be 0641 c1bd
00000090: 305e cf3b 083a b73c 7240 913c 77a1 a73d
000000a0: 7e3f e8bc 11e4 0c3e 82d0 aebd 0011 b8bc
000000b0: 6efb a8bd a82e 883e 6090 f9be 8b37 d9be
000000c0: f705 3fbe 341a 043e 938c 3b3e c854 dfbd
000000d0: b600 efbd ad62 93bd 0390 4d3e 9120 1bbd
000000e0: 38df f5bd a5fc 143e 7064 a23e a7e7 293f
000000f0: 64d4 9cbe 17f1 abbe b4fd eb3e 1e1b e5bd
00000100: 3caf 2cbe 1333 b63c 6115 b73d bf75 f33d
00000110: 1fb6 97be 50c2 e13e 018c 9bbd 48a8 bc3d
00000120: 41d9 a6be 66a5 0ebe ef04 87bd 8987 a5be
00000130: 1ad8 e0be d531 663d f461 d4bd 0d5c 5e3d
00000140: dc64 04be 933a 963d 53b9 acbe 2a76 a53d
00000150: d798 f93d 8f27 10bc 3335 a33e eb91 0a3e
00000160: e08d a1ba e986 e23e 1e1f 8cbe 4912 903c
00000170: 4bcc 70be 2468 48be 8c59 91bc 9bbd 813c
00000180: 29b1 b63e 0ec2 8fbe db1c 133e 3c4b d13d
00000190: 92a8 06bf c476 83be 1882 7b3d 174e 293e
000001a0: 2451 b73d a531 00bd 74c7 b43c 723f 483d
000001b0: 4bcf 553d 0014 10be 3f35 143e f1e0 a3be
000001c0: 1c4b 1fbd 4b0a e4be c36e bfbd 0146 e5bd
000001d0: e6a6 dd3d 4f6c cc3c 7dbe 74be 217f edbd
000001e0: 2090 8ebe 8c1b 80be 17f0 a23e 85d1 19be
000001f0: f027 0bbd d111 f73d ce3c 493d 18bf 233e
00000200: 682e 46be cd33 cabd 4f59 ccbd 34c4 e2bd
00000210: cdbb 133d d34d eb3c a85f df3e 804b 6fbe
00000220: 73f1 f3bb c8dc 953c e898 ad3c 0df2 e6bd
00000230: c2d4 6f3e 68c7 11be fa7c 2dbe 1520 98bd
00000240: 3f21 83be 7c32 07be f031 24be 1605 483c
00000250: 7657 d3bd 034d 6bbc 835c 8b3d 1865 bbbd
00000260: 8ff0 7e3c 3c39 a2be 2594 d3be 09c0 3bbe
00000270: 9e60 6abe c3f8 833d 6011 933c fce9 85bd
00000280: e8d5 be3d 58b7 99be c2cf dfbc e100 1fbe
00000290: 5084 a43c 903f 58be f0c6 be3d c879 713e
000002a0: 6438 d93d eb4f 66bd 8dd6 7dbe a48d 13be
000002b0: b5b5 57be a573 cfbe b0a1 88bd 6f22 cfbe
000002c0: 5917 62bd 86b5 25be f1f0 c2be 0ea6 e0bd
000002d0: 76a5 b43e 2fa1 fe3d d279 f23e 6138 903e
000002e0: 86fb 09be e466 2bbe 90ac ae3e b03f 80bd
000002f0: ff71 f73d 5d22 6bbe 1b6f 99be db62 85be
00000300: d0d1 bbbd ddeb 4d3e 0dea 8f3d 0454 d43c
00000310: 42ce b3bc 09c2 983d 0cea 61bd 5c52 583e
00000320: 4938 173d d80b 6cbe 789e c23c f902 c43c
00000330: 0239 f33d 36fe d1be 328e b13c b934 74be
00000340: de16 9f3d f505 28be 7ae5 cdbb 319f 973d
00000350: f34d c4be 0554 b53d 1560 a1bd 5ef9 97be
00000360: 0efa 253e ad6b 3a3e 05f0 18be fcd7 cbbb
00000370: f24d 2dbe e3fe 11be 4c18 6cbe 9a18 ec3d
00000380: 4693 74bd 2dd0 a23e 9aa7 9e3d 773b 073d
00000390: 6512 8ebd 6215 9a3d bef9 29bd 11ab 08bf
000003a0: edd9 02be 3f97 2ebd 003b cd3d 4002 babd
000003b0: ddc8 4fbe de5d 3e3e 7d86 1c3e dde7 a1be
000003c0: 58d8 5abe 82fc d9be a1fe f4bd 681a 25be
000003d0: 9eb5 903e 9c1e bcbd 48f7 08be dc7d 15be
000003e0: e90b 1ebd 771d 323e c9a8 b53d fd18 edbd
000003f0: 9c8b 25be eef9 0c3d e72c ce3e 24fd 323d
-0.20509057 -0.23705009 -0.010691684 -0.18160035 0.1025569 0.08006358 -0.12915486 -0.57256055
-0.026077611 -0.4715363 -0.19206774 -0.22476353 -0.09937988 0.21102063 -0.03690539 -0.24747527
-0.21322097 -0.21486133 0.13788973 0.118128285 0.112500064 -0.33416456 -0.104473315 0.45628124
0.2443299 0.110007495 0.06828662 0.15410848 0.44348967 0.3290024 0.2661407 -0.17619263
-0.1409463 -0.0073630484 -0.22642703 -0.0943623 0.0063283667 0.022366539 0.017730925 0.08185094
-0.028350588 0.13758875 -0.085358635 -0.022469044 -0.082510814 0.26598096 -0.48742962 -0.42425188
-0.18654619 0.1290062 0.18315344 -0.109048426 -0.116700575 -0.07196555 0.20074467 -0.037872855
-0.12005466 0.14549501 0.31717253 0.663691 -0.3063079 -0.33582374 0.46091998 -0.11186813
-0.16863722 0.022241151 0.089396246 0.11887693 -0.29631135 0.4409356 -0.07595063 0.092117846
-0.32587627 -0.13930282 -0.06592738 -0.32329968 -0.43914872 0.056199867 -0.103702456 0.054287005
-0.129291 0.07335391 -0.3373514 0.08079179 0.12187355 -0.008798494 0.31876525 0.13532226
-0.0012325607 0.44243553 -0.2736749 0.017586844 -0.23515432 -0.19570976 -0.017742895 0.015837481
0.35682037 -0.2807774 0.14366476 0.10219428 -0.5260097 -0.25676548 0.061403364 0.16533695
0.08951023 -0.031297345 0.022067763 0.04888863 0.052199643 -0.1407013 0.14473437 -0.32007554
-0.03888999 -0.44539103 -0.09347298 -0.11194993 0.10822849 0.02495399 -0.2390079 -0.115965135
-0.27844334 -0.25021017 0.318238 -0.15021332 -0.033973634 0.12063945 0.049130253 0.15990865
-0.1935364 -0.098731615 -0.09977972 -0.11072579 0.036067773 0.028723633 0.43627667 -0.23368645
-0.0074445545 0.018293753 0.021191075 -0.11276636 0.23421004 -0.14236224 -0.16942206 -0.07427994
-0.25611302 -0.13202852 -0.16034675 0.012208244 -0.10319416 -0.014361623 0.068047546 -0.091501415
0.015560283 -0.3168429 -0.41323963 -0.18334974 -0.22888419 0.06443932 0.017952621 -0.065387696
0.09318143 -0.30022693 -0.027320746 -0.15527679 0.020082623 -0.21117997 0.09315288 0.23581612
0.10606459 -0.05622856 -0.24788876 -0.144095 -0.2106541 -0.40517917 -0.066714644 -0.40455958
-0.055198047 -0.16182527 -0.3807445 -0.109691724 0.35282487 0.12433087 0.47358567 0.28168014
-0.13474855 -0.16738468 0.3411603 -0.062621474 0.1208229 -0.22962327 -0.2996758 -0.26051983
-0.09170878 0.20109506 0.070270635 0.025918968 -0.021948937 0.07458884 -0.055154845 0.21125168
0.036918912 -0.23051393 0.023757204 0.023927199 0.11876108 -0.4101426 0.02167425 -0.23848237
0.077680334 -0.16408522 -0.0062834593 0.0740341 -0.3834072 0.08853916 -0.07879654 -0.2968244
0.1620867 0.18205138 -0.1493531 -0.0062208157 -0.16924265 -0.14257388 -0.23056144 0.1152813
-0.059710763 0.3179945 0.07746811 0.033015694 -0.06937102 0.0752361 -0.04149794 -0.53386027
-0.12778445 -0.04262471 0.10021019 -0.090824604 -0.20291467 0.18590495 0.15285678 -0.3162221
-0.21371591 -0.4257546 -0.11962629 -0.16123354 0.28263563 -0.09185526 -0.1337558 -0.14598793
-0.038585577 0.17394052 0.08870084 -0.11577032 -0.16166538 0.03441804 0.40268633 0.043698445

act_fun.0.scale_sp f4 [3500]
00000000: eff2 843f ca0a 803f e713 763f d83c 773f
00000010: ac5b 693f cf12 8b3f 5417 6b3f 65de 763f
00000020: da17 4e3f c84a 873f 6818 9a3f 08a8 8d3f
00000030: 634e 933f c9d4 8a3f a5fa b13f 2656 603f
00000040: 383b 883f bb1b 9c3f 2bd5 7b3f f247 513f
00000050: 3ba5 743f f60f 643f c45c b33f 34cc 7e3f
00000060: e868 863f 5f86 993f f5b2 a03f bbea af3f
00000070: 259e 893f 3942 523f 7f9c 793f cc3e 7a3f
00000080: 3b47 843f 73bd 833f c00c 813f c70d 7d3f
00000090: b183 773f fcd4 613f 9c41 813f 53ab 943f
000000a0: 4a96 833f e899 893f c0d8 7b3f 7d4a 553f
000000b0: 9ff7 663f fbbc 6a3f cb78 813f ed26 833f
000000c0: 39d0 773f 3be1 703f 53c9 863f cb39 6d3f
000000d0: e5f2 6b3f a132 803f b54a 833f ce25 613f
000000e0: cdc7 3a3f 6e09 5f3f 0a9c 4e3f d798 703f
000000f0: 4338 813f fa6b 503f a68a 903f 571b 873f
00000100: 1865 6e3f 1990 993f ee16 843f dce6 963f
00000110: 9d52 7e3f a21e 753f 1b5c 923f 6862 7c3f
00000120: b29e 7b3f 7f44 7c3f 3bdd 8b3f 7bc0 9c3f
00000130: 4c85 7d3f 505f 623f c840 633f 17ca 5f3f
00000140: e037 6a3f 61be 663f bafc 523f a378 7c3f
00000150: 4573 3f3f cb57 7b3f 3a89 763f 5820 8b3f
00000160: fe2f 713f a404 923f 10ff 923f e365 783f
00000170: 1fb2 8a3f e6ef 363f 16e3 6b3f d87c 5e3f
00000180: 17f1 893f 8aff 333f daed 673f 8b94 523f
00000190: c6d3 713f cd8d 6b3f 38c9 8f3f 7fe7 583f
000001a0: c1ac 6a3f f6d4 723f abc1 6b3f 1539 5f3f
000001b0: 4bd5 653f 149c 6f3f 92aa 643f 5609 573f
000001c0: 58b8 5c3f cce6 7d3f 7d7f 803f cbaa 8b3f
000001d0: 1cca 953f 8167 7b3f 2032 803f 233e 9d3f
000001e0: 2edd 613f 3cee 823f 5cc2 5b3f 282d 3a3f
000001f0: b24f 533f 2e54 653f 7d00 693f b769 983f
00000200: d04b 883f e923 633f ce57 593f 00f1 703f
00000210: 8cca 643f 61f6 733f a223 723f 378b 5e3f
00000220: 0aa5 493f 8547 5c3f 4f33 993f a56c 7e3f
00000230: 0047 9f3f dc88 803f d5cd a13f 41cb 903f
00000240: 288e 7f3f e3d7 533f a745 8a3f 1294 983f
00000250: 331f 8d3f c705 a43f 12e7 aa3f f85f aa3f
00000260: 3076 ab3f 63f4 b33f aef6 9d3f 4700 9c3f
00000270: a754 a43f 9567 9d3f 69bc 4d3f 9bd6 673f
00000280: 3abe 5d3f 60e4 6a3f fac8 683f 16b5 703f
00000290: 180f 693f 745a 833f 5529 603f e85c 873f
000002a0: 8884 723f a83b 833f 4207 973f 3197 a43f
000002b0: 385e 883f 06af 753f 7836 773f 9311 713f
000002c0: fd1e 593f 2bcd 5b3f cee7 7e3f 82d3 803f
000002d0: 14ab ae3f 155f dc3f 8f3b cf3f d9f2 ab3f
000002e0: cc84 953f 001d 403f 7177 633f 21c9 693f
000002f0: 2651 833f 9047 883f a58e 5e3f 68e2 8b3f
00000300: 6829 4f3f c21a 813f e014 643f 4944 a53f
00000310: a3db 773f 2cdb 883f 9b4b 7a3f ccad 873f
00000320: 8444 703f 2db6 5b3f 57b2 6b3f 888d 893f
00000330: 4218 4a3f 4dfe 853f e303 863f 6c77 863f
00000340: 7804 9e3f 9225 bc3f 4813 873f 3ed9 4c3f
00000350: 2a57 703f ec39 653f cc46 6d3f b34b 573f
00000360: 37b8 593f 9ce0 663f 3562 843f e09b 753f
00000370: b37c 823f bb3c 933f a741 e43f fcf7 a53f
00000380: 2f5d 933f 889f 683f cd6c 833f cebd 7f3f
00000390: 8135 873f 4378 833f dfcd 773f 0000 7a3f
000003a0: 406d 583f 21da 8a3f 9f9a 8e3f cc1e 883f
000003b0: 1bb7 3a3f c767 3a3f 0627 453f 1dec 5b3f
000003c0: 5e0b 6c3f bb57 7e3f 654b 6b3f e100 613f
000003d0: dd70 4c3f 9b6e 583f 39a3 8d3f 17ad 3f3f
000003e0: 673f 3f3f 33ed 583f 37f0 513f e2f6 6e3f
000003f0: caeb a13f b23d 993f a896 683f 1da1 8b3f
1.0386637 1.0003293 0.9612412 0.96577215 0.91155505 1.0865115 0.9183247 0.964331
0.80505145 1.0569696 1.2038698 1.1066904 1.1508297 1.0846187 1.3904616 0.8763145
1.0643072 1.2195963 0.98372144 0.81750405 0.9556462 0.89086854 1.4012685 0.9953034
1.0500765 1.1994132 1.2554613 1.3743509 1.0751387 0.821323 0.9750442 0.9775207
1.0334238 1.029219 1.0082016 0.9884915 0.9668532 0.88215613 1.0098147 1.1614784
1.028024 1.0750093 0.9837761 0.83316785 0.9022159 0.9169461 1.0114988 1.0246254
0.968021 0.94093674 1.0530189 0.9266631 0.921675 1.0015451 1.0257174 0.8794831
0.7296112 0.87123764 0.80706847 0.93983215 1.0095295 0.8141476 1.1292312 1.0555218
0.93123007 1.19971 1.0319498 1.1789203 0.9934481 0.95749867 1.1434358 0.98587656
0.98289025 0.98542017 1.0926889 1.224624 0.9903152 0.88426685 0.88770723 0.8741774
0.9149151 0.90134245 0.8241688 0.9862158 0.7478526 0.98180836 0.9630314 1.0869246
0.94213855 1.1407666 1.1484089 0.97030467 1.0835608 0.71459806 0.9214338 0.86909246
1.07767 0.70311797 0.9059731 0.8225791 0.94463766 0.92013246 1.1233282 0.84728235
0.9166985 0.948562 0.9209239 0.87196475 0.89778584 0.9359753 0.8932277 0.8399862
0.86218786 0.99180293 1.0038906 1.0911497 1.1702304 0.9820481 1.0015297 1.2284588
0.8822812 1.0228953 0.85843444 0.7272515 0.8254348 0.89581573 0.9101637 1.1907262
1.0648136 0.8872667 0.84899604 0.94117737 0.8937156 0.9529782 0.9458562 0.86931175
0.78767455 0.8604663 1.1968783 0.9938453 1.2443542 1.0041766 1.264094 1.1312028
0.9982629 0.8275129 1.0802506 1.1920187 1.1025146 1.2814263 1.3351767 1.3310537
1.3395443 1.4058956 1.2340906 1.2187585 1.2838334 1.2297236 0.80365616 0.90561837
0.8661839 0.9175472 0.90931666 0.94026315 0.91038656 1.0261979 0.8756307 1.0575228
0.94733477 1.0252581 1.179909 1.285864 1.0653753 0.9597019 0.9656749 0.9416744
0.8481291 0.85859936 0.99572456 1.0064547 1.3645959 1.7216517 1.6190051 1.3433486
1.1681151 0.7504425 0.8885413 0.91322523 1.025914 1.0646839 0.8693641 1.0928469
0.80922556 1.0086291 0.8909435 1.2911464 0.96819514 1.0691886 0.97771615 1.0599914
0.93854547 0.85824853 0.92069 1.0746317 0.78943264 1.0468231 1.0469936 1.0505195
1.2345114 1.4698966 1.0552759 0.80018985 0.93883 0.89541507 0.9268615 0.8409988
0.85046715 0.90186477 1.034247 0.9594097 1.0194305 1.1502908 1.7832536 1.2966304
1.1512812 0.90868425 1.0267578 0.99898994 1.0563203 1.0271076 0.9679851 0.9765625
0.845417 1.0847818 1.1140937 1.0634398 0.72935647 0.728146 0.7701267 0.85907155
0.92204845 0.99352616 0.9191192 0.87891966 0.79859716 0.8454377 1.1065437 0.7487349
0.7470612 0.8473694 0.82007164 0.93345463 1.2650082 1.1971953 0.90854883 1.0908543

act_fun.0.mask f4 [3500]
00000000: 0000 803f 0000 803f 0000 803f 0000 803f
00000010: 0000 803f 0000 803f 0000 803f 0000 803f
00000020: 0000 803f 0000 803f 0000 803f 0000 803f
00000030: 0000 803f 0000 803f 0000 803f 0000 803f
00000040: 0000 803f 0000 803f 0000 803f 0000 803f
00000050: 0000 803f 0000 803f 0000 803f 0000 803f
00000060: 0000 803f 0000 803f 0000 803f 0000 803f
00000070: 0000 803f 0000 803f 0000 803f 0000 803f
00000080: 0000 803f 0000 803f 0000 803f 0000 803f
00000090: 0000 803f 0000 803f 0000 803f 0000 803f
000000a0: 0000 803f 0000 803f 0000 803f 0000 803f
000000b0: 0000 803f 0000 803f 0000 803f 0000 803f
000000c0: 0000 803f 0000 803f 0000 803f 0000 803f
000000d0: 0000 803f 0000 803f 0000 803f 0000 803f
000000e0: 0000 803f 0000 803f 0000 803f 0000 803f
000000f0: 0000 803f 0000 803f 0000 803f 0000 803f
00000100: 0000 803f 0000 803f 0000 803f 0000 803f
00000110: 0000 803f 0000 803f 0000 803f 0000 803f
00000120: 0000 803f 0000 803f 0000 803f 0000 803f
00000130: 0000 803f 0000 803f 0000 803f 0000 803f
00000140: 0000 803f 0000 803f 0000 803f 0000 803f
00000150: 0000 803f 0000 803f 0000 803f 0000 803f
00000160: 0000 803f 0000 803f 0000 803f 0000 803f
00000170: 0000 803f 0000 803f 0000 803f 0000 803f
00000180: 0000 803f 0000 803f 0000 803f 0000 803f
00000190: 0000 803f 0000 803f 0000 803f 0000 803f
000001a0: 0000 803f 0000 803f 0000 803f 0000 803f
000001b0: 0000 803f 0000 803f 0000 803f 0000 803f
000001c0: 0000 803f 0000 803f 0000 803f 0000 803f
000001d0: 0000 803f 0000 803f 0000 803f 0000 803f
000001e0: 0000 803f 0000 803f 0000 803f 0000 803f
000001f0: 0000 803f 0000 803f 0000 803f 0000 803f
00000200: 0000 803f 0000 803f 0000 803f 0000 803f
00000210: 0000 803f 0000 803f 0000 803f 0000 803f
00000220: 0000 803f 0000 803f 0000 803f 0000 803f
00000230: 0000 803f 0000 803f 0000 803f 0000 803f
00000240: 0000 803f 0000 803f 0000 803f 0000 803f
00000250: 0000 803f 0000 803f 0000 803f 0000 803f
00000260: 0000 803f 0000 803f 0000 803f 0000 803f
00000270: 0000 803f 0000 803f 0000 803f 0000 803f
00000280: 0000 803f 0000 803f 0000 803f 0000 803f
00000290: 0000 803f 0000 803f 0000 803f 0000 803f
000002a0: 0000 803f 0000 803f 0000 803f 0000 803f
000002b0: 0000 803f 0000 803f 0000 803f 0000 803f
000002c0: 0000 803f 0000 803f 0000 803f 0000 803f
000002d0: 0000 803f 0000 803f 0000 803f 0000 803f
000002e0: 0000 803f 0000 803f 0000 803f 0000 803f
000002f0: 0000 803f 0000 803f 0000 803f 0000 803f
00000300: 0000 803f 0000 803f 0000 803f 0000 803f
00000310: 0000 803f 0000 803f 0000 803f 0000 803f
00000320: 0000 803f 0000 803f 0000 803f 0000 803f
00000330: 0000 803f 0000 803f 0000 803f 0000 803f
00000340: 0000 803f 0000 803f 0000 803f 0000 803f
00000350: 0000 803f 0000 803f 0000 803f 0000 803f
00000360: 0000 803f 0000 803f 0000 803f 0000 803f
00000370: 0000 803f 0000 803f 0000 803f 0000 803f
00000380: 0000 803f 0000 803f 0000 803f 0000 803f
00000390: 0000 803f 0000 803f 0000 803f 0000 803f
000003a0: 0000 803f 0000 803f 0000 803f 0000 803f
000003b0: 0000 803f 0000 803f 0000 803f 0000 803f
000003c0: 0000 803f 0000 803f 0000 803f 0000 803f
000003d0: 0000 803f 0000 803f 0000 803f 0000 803f
000003e0: 0000 803f 0000 803f 0000 803f 0000 803f
000003f0: 0000 803f 0000 803f 0000 803f 0000 803f
1.0 1.0 1.0 1.0 1.0 1.0 1.0 1.0
1.0 1.0 1.0 1.0 1.0 1.0 1.0 1.0
1.0 1.0 1.0 1.0 1.0 1.0 1.0 1.0
1.0 1.0 1.0 1.0 1.0 1.0 1.0 1.0
1.0 1.0 1.0 1.0 1.0 1.0 1.0 1.0
1.0 1.0 1.0 1.0 1.0 1.0 1.0 1.0
1.0 1.0 1.0 1.0 1.0 1.0 1.0 1.0
1.0 1.0 1.0 1.0 1.0 1.0 1.0 1.0
1.0 1.0 1.0 1.0 1.0 1.0 1.0 1.0
1.0 1.0 1.0 1.0 1.0 1.0 1.0 1.0
1.0 1.0 1.0 1.0 1.0 1.0 1.0 1.0
1.0 1.0 1.0 1.0 1.0 1.0 1.0 1.0
1.0 1.0 1.0 1.0 1.0 1.0 1.0 1.0
1.0 1.0 1.0 1.0 1.0 1.0 1.0 1.0
1.0 1.0 1.0 1.0 1.0 1.0 1.0 1.0
1.0 1.0 1.0 1.0 1.0 1.0 1.0 1.0
1.0 1.0 1.0 1.0 1.0 1.0 1.0 1.0
1.0 1.0 1.0 1.0 1.0 1.0 1.0 1.0
1.0 1.0 1.0 1.0 1.0 1.0 1.0 1.0
1.0 1.0 1.0 1.0 1.0 1.0 1.0 1.0
1.0 1.0 1.0 1.0 1.0 1.0 1.0 1.0
1.0 1.0 1.0 1.0 1.0 1.0 1.0 1.0
1.0 1.0 1.0 1.0 1.0 1.0 1.0 1.0
1.0 1.0 1.0 1.0 1.0 1.0 1.0 1.0
1.0 1.0 1.0 1.0 1.0 1.0 1.0 1.0
1.0 1.0 1.0 1.0 1.0 1.0 1.0 1.0
1.0 1.0 1.0 1.0 1.0 1.0 1.0 1.0
1.0 1.0 1.0 1.0 1.0 1.0 1.0 1.0
1.0 1.0 1.0 1.0 1.0 1.0 1.0 1.0
1.0 1.0 1.0 1.0 1.0 1.0 1.0 1.0
1.0 1.0 1.0 1.0 1.0 1.0 1.0 1.0
1.0 1.0 1.0 1.0 1.0 1.0 1.0 1.0

act_fun.1.grid f4 [5, 4]
00000000: 5d9f 0cc2 a0c5 c3c1 0c99 5cc1 609b 46c0
00000010: 4d2a 0bc2 bd32 cac1 c021 7cc1 10bc c7c0
00000020: c9c8 30c2 faa7 f6c1 63be 8bc1 3053 83c0
00000030: bb22 25c2 606d e8c1 4b95 86c1 d8f4 92c0
00000040: 47dd 4fc2 33af 0fc2 3e02 9fc1 b030 75c0
-35.15563 -24.471497 -13.787365 -3.1032333 -34.79131 -25.274775 -15.75824 -6.241707
-44.19608 -30.83202 -17.467962 -4.1039047 -41.283916 -29.053406 -16.822897 -4.592388
-51.96609 -35.921093 -19.876095 -3.8310966

act_fun.1.coef f4 [5, 6]
00000000: 144a 883b 417e d0bd 18bd 9fbc 88e5 bd3b
00000010: 6043 a4bd 539c 4cbd 96d7 1bbd 6b32 92be
00000020: 5b3f a9bd 24b4 8a3d aca6 ee3b c5cc 8cbe
00000030: 2402 b03d 0144 133e 8810 e6bd 1729 adbc
00000040: 4dd2 6b3e 8b1a 8a3d 48fe 69be 4a4c 503d
00000050: 06af 3fbb 766b e03c b552 bcbd 7b2e 78be
00000060: 9fb7 903e cad1 063d 98ee b1bc 71bf a23c
00000070: 1671 adbd 4204 07be
0.0041592214 -0.10180331 -0.019499347 0.0057951845 -0.08020663 -0.04995377 -0.038047396 -0.2855409
-0.08264037 0.0677264 0.0072830524 -0.27499977 0.08594158 0.1438141 -0.11233622 -0.021137757
0.23029442 0.06743344 -0.22850907 0.050854005 -0.002924861 0.027394991 -0.091954626 -0.24236481
0.28265092 0.032914914 -0.021720216 0.019866677 -0.08468835 -0.13185218

act_fun.1.scale_base f4 [5]
00000000: 2660 eb3e 1e2a 783d 4a6c 523f 70c0 203e
00000010: d54f df3e
0.45971793 0.06058704 0.82196486 0.15698409 0.43615595

act_fun.1.scale_sp f4 [5]
00000000: cea9 3d3f 9f80 8f3f 8ffd 3d3f adc8 533f
00000010: 13ca fa3e
0.74087226 1.1211127 0.74215025 0.8272808 0.48982295

act_fun.1.mask f4 [5]
00000000: 0000 803f 0000 803f 0000 803f 0000 803f
00000010: 0000 803f
1.0 1.0 1.0 1.0 1.0

act_fun.2.grid f4 [2, 4]
00000000: 8e17 1bbe 89ab d2bd ec4f 5ebd 4046 babb
00000010: 8e17 1bbe 89ab d2bd ec4f 5ebd 4046 babb
-0.15145704 -0.10286624 -0.05427544 -0.005684644 -0.15145704 -0.10286624 -0.05427544 -0.005684644

act_fun.2.coef f4 [2, 6]
00000000: 61c6 98bf f431 59bf 812e a9be e3f9 663b
00000010: 111f b93e 4e0d 943f 70e9 a43f 5b08 663f
00000020: 8cdf bd3e 201e 843c b78e b6be 6c36 97bf
-1.193554 -0.8484185 -0.33043292 0.003524416 0.36156514 1.156656 1.288374 0.898565
0.37084615 0.016127646 -0.35655758 -1.1813483

act_fun.2.scale_base f4 [2]
00000000: cc86 f23f 923b 863e
1.8947387 0.26217324

act_fun.2.scale_sp f4 [2]
00000000: cb03 2a40 b551 2a40
2.6564815 2.661237

act_fun.2.mask f4 [2]
00000000: 0000 803f 0000 803f
1.0 1.0

symbolic_fun.0.mask f4 [5, 700]
00000000: 0000 0000 0000 0000 0000 0000 0000 0000
00000010: 0000 0000 0000 0000 0000 0000 0000 0000
00000020: 0000 0000 0000 0000 0000 0000 0000 0000
00000030: 0000 0000 0000 0000 0000 0000 0000 0000
00000040: 0000 0000 0000 0000 0000 0000 0000 0000
00000050: 0000 0000 0000 0000 0000 0000 0000 0000
00000060: 0000 0000 0000 0000 0000 0000 0000 0000
00000070: 0000 0000 0000 0000 0000 0000 0000 0000
00000080: 0000 0000 0000 0000 0000 0000 0000 0000
00000090: 0000 0000 0000 0000 0000 0000 0000 0000
000000a0: 0000 0000 0000 0000 0000 0000 0000 0000
000000b0: 0000 0000 0000 0000 0000 0000 0000 0000
000000c0: 0000 0000 0000 0000 0000 0000 0000 0000
000000d0: 0000 0000 0000 0000 0000 0000 0000 0000
000000e0: 0000 0000 0000 0000 0000 0000 0000 0000
000000f0: 0000 0000 0000 0000 0000 0000 0000 0000
00000100: 0000 0000 0000 0000 0000 0000 0000 0000
00000110: 0000 0000 0000 0000 0000 0000 0000 0000
00000120: 0000 0000 0000 0000 0000 0000 0000 0000
00000130: 0000 0000 0000 0000 0000 0000 0000 0000
00000140: 0000 0000 0000 0000 0000 0000 0000 0000
00000150: 0000 0000 0000 0000 0000 0000 0000 0000
00000160: 0000 0000 0000 0000 0000 0000 0000 0000
00000170: 0000 0000 0000 0000 0000 0000 0000 0000
00000180: 0000 0000 0000 0000 0000 0000 0000 0000
00000190: 0000 0000 0000 0000 0000 0000 0000 0000
000001a0: 0000 0000 0000 0000 0000 0000 0000 0000
000001b0: 0000 0000 0000 0000 0000 0000 0000 0000
000001c0: 0000 0000 0000 0000 0000 0000 0000 0000
000001d0: 0000 0000 0000 0000 0000 0000 0000 0000
000001e0: 0000 0000 0000 0000 0000 0000 0000 0000
000001f0: 0000 0000 0000 0000 0000 0000 0000 0000
00000200: 0000 0000 0000 0000 0000 0000 0000 0000
00000210: 0000 0000 0000 0000 0000 0000 0000 0000
00000220: 0000 0000 0000 0000 0000 0000 0000 0000
00000230: 0000 0000 0000 0000 0000 0000 0000 0000
00000240: 0000 0000 0000 0000 0000 0000 0000 0000
00000250: 0000 0000 0000 0000 0000 0000 0000 0000
00000260: 0000 0000 0000 0000 0000 0000 0000 0000
00000270: 0000 0000 0000 0000 0000 0000 0000 0000
00000280: 0000 0000 0000 0000 0000 0000 0000 0000
00000290: 0000 0000 0000 0000 0000 0000 0000 0000
000002a0: 0000 0000 0000 0000 0000 0000 0000 0000
000002b0: 0000 0000 0000 0000 0000 0000 0000 0000
000002c0: 0000 0000 0000 0000 0000 0000 0000 0000
000002d0: 0000 0000 0000 0000 0000 0000 0000 0000
000002e0: 0000 0000 0000 0000 0000 0000 0000 0000
000002f0: 0000 0000 0000 0000 0000 0000 0000 0000
00000300: 0000 0000 0000 0000 0000 0000 0000 0000
00000310: 0000 0000 0000 0000 0000 0000 0000 0000
00000320: 0000 0000 0000 0000 0000 0000 0000 0000
00000330: 0000 0000 0000 0000 0000 0000 0000 0000
00000340: 0000 0000 0000 0000 0000 0000 0000 0000
00000350: 0000 0000 0000 0000 0000 0000 0000 0000
00000360: 0000 0000 0000 0000 0000 0000 0000 0000
00000370: 0000 0000 0000 0000 0000 0000 0000 0000
00000380: 0000 0000 0000 0000 0000 0000 0000 0000
00000390: 0000 0000 0000 0000 0000 0000 0000 0000
000003a0: 0000 0000 0000 0000 0000 0000 0000 0000
000003b0: 0000 0000 0000 0000 0000 0000 0000 0000
000003c0: 0000 0000 0000 0000 0000 0000 0000 0000
000003d0: 0000 0000 0000 0000 0000 0000 0000 0000
000003e0: 0000 0000 0000 0000 0000 0000 0000 0000
000003f0: 0000 0000 0000 0000 0000 0000 0000 0000
0.0 0.0 0.0 0.0 0.0 0.0 0.0 0.0
0.0 0.0 0.0 0.0 0.0 0.0 0.0 0.0
0.0 0.0 0.0 0.0 0.0 0.0 0.0 0.0
0.0 0.0 0.0 0.0 0.0 0.0 0.0 0.0
0.0 0.0 0.0 0.0 0.0 0.0 0.0 0.0
0.0 0.0 0.0 0.0 0.0 0.0 0.0 0.0
0.0 0.0 0.0 0.0 0.0 0.0 0.0 0.0
0.0 0.0 0.0 0.0 0.0 0.0 0.0 0.0
0.0 0.0 0.0 0.0 0.0 0.0 0.0 0.0
0.0 0.0 0.0 0.0 0.0 0.0 0.0 0.0
0.0 0.0 0.0 0.0 0.0 0.0 0.0 0.0
0.0 0.0 0.0 0.0 0.0 0.0 0.0 0.0
0.0 0.0 0.0 0.0 0.0 0.0 0.0 0.0
0.0 0.0 0.0 0.0 0.0 0.0 0.0 0.0
0.0 0.0 0.0 0.0 0.0 0.0 0.0 0.0
0.0 0.0 0.0 0.0 0.0 0.0 0.0 0.0
0.0 0.0 0.0 0.0 0.0 0.0 0.0 0.0
0.0 0.0 0.0 0.0 0.0 0.0 0.0 0.0
0.0 0.0 0.0 0.0 0.0 0.0 0.0 0.0
0.0 0.0 0.0 0.0 0.0 0.0 0.0 0.0
0.0 0.0 0.0 0.0 0.0 0.0 0.0 0.0
0.0 0.0 0.0 0.0 0.0 0.0 0.0 0.0
0.0 0.0 0.0 0.0 0.0 0.0 0.0 0.0
0.0 0.0 0.0 0.0 0.0 0.0 0.0 0.0
0.0 0.0 0.0 0.0 0.0 0.0 0.0 0.0
0.0 0.0 0.0 0.0 0.0 0.0 0.0 0.0
0.0 0.0 0.0 0.0 0.0 0.0 0.0 0.0
0.0 0.0 0.0 0.0 0.0 0.0 0.0 0.0
0.0 0.0 0.0 0.0 0.0 0.0 0.0 0.0
0.0 0.0 0.0 0.0 0.0 0.0 0.0 0.0
0.0 0.0 0.0 0.0 0.0 0.0 0.0 0.0
0.0 0.0 0.0 0.0 0.0 0.0 0.0 0.0

symbolic_fun.0.affine f4 [5, 700, 4]
00000000: 0000 0000 0000 0000 0000 0000 0000 0000
00000010: 0000 0000 0000 0000 0000 0000 0000 0000
00000020: 0000 0000 0000 0000 0000 0000 0000 0000
00000030: 0000 0000 0000 0000 0000 0000 0000 0000
00000040: 0000 0000 0000 0000 0000 0000 0000 0000
00000050: 0000 0000 0000 0000 0000 0000 0000 0000
00000060: 0000 0000 0000 0000 0000 0000 0000 0000
00000070: 0000 0000 0000 0000 0000 0000 0000 0000
00000080: 0000 0000 0000 0000 0000 0000 0000 0000
00000090: 0000 0000 0000 0000 0000 0000 0000 0000
000000a0: 0000 0000 0000 0000 0000 0000 0000 0000
000000b0: 0000 0000 0000 0000 0000 0000 0000 0000
000000c0: 0000 0000 0000 0000 0000 0000 0000 0000
000000d0: 0000 0000 0000 0000 0000 0000 0000 0000
000000e0: 0000 0000 0000 0000 0000 0000 0000 0000
000000f0: 0000 0000 0000 0000 0000 0000 0000 0000
00000100: 0000 0000 0000 0000 0000 0000 0000 0000
00000110: 0000 0000 0000 0000 0000 0000 0000 0000
00000120: 0000 0000 0000 0000 0000 0000 0000 0000
00000130: 0000 0000 0000 0000 0000 0000 0000 0000
00000140: 0000 0000 0000 0000 0000 0000 0000 0000
00000150: 0000 0000 0000 0000 0000 0000 0000 0000
00000160: 0000 0000 0000 0000 0000 0000 0000 0000
00000170: 0000 0000 0000 0000 0000 0000 0000 0000
00000180: 0000 0000 0000 0000 0000 0000 0000 0000
00000190: 0000 0000 0000 0000 0000 0000 0000 0000
000001a0: 0000 0000 0000 0000 0000 0000 0000 0000
000001b0: 0000 0000 0000 0000 0000 0000 0000 0000
000001c0: 0000 0000 0000 0000 0000 0000 0000 0000
000001d0: 0000 0000 0000 0000 0000 0000 0000 0000
000001e0: 0000 0000 0000 0000 0000 0000 0000 0000
000001f0: 0000 0000 0000 0000 0000 0000 0000 0000
00000200: 0000 0000 0000 0000 0000 0000 0000 0000
00000210: 0000 0000 0000 0000 0000 0000 0000 0000
00000220: 0000 0000 0000 0000 0000 0000 0000 0000
00000230: 0000 0000 0000 0000 0000 0000 0000 0000
00000240: 0000 0000 0000 0000 0000 0000 0000 0000
00000250: 0000 0000 0000 0000 0000 0000 0000 0000
00000260: 0000 0000 0000 0000 0000 0000 0000 0000
00000270: 0000 0000 0000 0000 0000 0000 0000 0000
00000280: 0000 0000 0000 0000 0000 0000 0000 0000
00000290: 0000 0000 0000 0000 0000 0000 0000 0000
000002a0: 0000 0000 0000 0000 0000 0000 0000 0000
000002b0: 0000 0000 0000 0000 0000 0000 0000 0000
000002c0: 0000 0000 0000 0000 0000 0000 0000 0000
000002d0: 0000 0000 0000 0000 0000 0000 0000 0000
000002e0: 0000 0000 0000 0000 0000 0000 0000 0000
000002f0: 0000 0000 0000 0000 0000 0000 0000 0000
00000300: 0000 0000 0000 0000 0000 0000 0000 0000
00000310: 0000 0000 0000 0000 0000 0000 0000 0000
00000320: 0000 0000 0000 0000 0000 0000 0000 0000
00000330: 0000 0000 0000 0000 0000 0000 0000 0000
00000340: 0000 0000 0000 0000 0000 0000 0000 0000
00000350: 0000 0000 0000 0000 0000 0000 0000 0000
00000360: 0000 0000 0000 0000 0000 0000 0000 0000
00000370: 0000 0000 0000 0000 0000 0000 0000 0000
00000380: 0000 0000 0000 0000 0000 0000 0000 0000
00000390: 0000 0000 0000 0000 0000 0000 0000 0000
000003a0: 0000 0000 0000 0000 0000 0000 0000 0000
000003b0: 0000 0000 0000 0000 0000 0000 0000 0000
000003c0: 0000 0000 0000 0000 0000 0000 0000 0000
000003d0: 0000 0000 0000 0000 0000 0000 0000 0000
000003e0: 0000 0000 0000 0000 0000 0000 0000 0000
000003f0: 0000 0000 0000 0000 0000 0000 0000 0000
0.0 0.0 0.0 0.0 0.0 0.0 0.0 0.0
0.0 0.0 0.0 0.0 0.0 0.0 0.0 0.0
0.0 0.0 0.0 0.0 0.0 0.0 0.0 0.0
0.0 0.0 0.0 0.0 0.0 0.0 0.0 0.0
0.0 0.0 0.0 0.0 0.0 0.0 0.0 0.0
0.0 0.0 0.0 0.0 0.0 0.0 0.0 0.0
0.0 0.0 0.0 0.0 0.0 0.0 0.0 0.0
0.0 0.0 0.0 0.0 0.0 0.0 0.0 0.0
0.0 0.0 0.0 0.0 0.0 0.0 0.0 0.0
0.0 0.0 0.0 0.0 0.0 0.0 0.0 0.0
0.0 0.0 0.0 0.0 0.0 0.0 0.0 0.0
0.0 0.0 0.0 0.0 0.0 0.0 0.0 0.0
0.0 0.0 0.0 0.0 0.0 0.0 0.0 0.0
0.0 0.0 0.0 0.0 0.0 0.0 0.0 0.0
0.0 0.0 0.0 0.0 0.0 0.0 0.0 0.0
0.0 0.0 0.0 0.0 0.0 0.0 0.0 0.0
0.0 0.0 0.0 0.0 0.0 0.0 0.0 0.0
0.0 0.0 0.0 0.0 0.0 0.0 0.0 0.0
0.0 0.0 0.0 0.0 0.0 0.0 0.0 0.0
0.0 0.0 0.0 0.0 0.0 0.0 0.0 0.0
0.0 0.0 0.0 0.0 0.0 0.0 0.0 0.0
0.0 0.0 0.0 0.0 0.0 0.0 0.0 0.0
0.0 0.0 0.0 0.0 0.0 0.0 0.0 0.0
0.0 0.0 0.0 0.0 0.0 0.0 0.0 0.0
0.0 0.0 0.0 0.0 0.0 0.0 0.0 0.0
0.0 0.0 0.0 0.0 0.0 0.0 0.0 0.0
0.0 0.0 0.0 0.0 0.0 0.0 0.0 0.0
0.0 0.0 0.0 0.0 0.0 0.0 0.0 0.0
0.0 0.0 0.0 0.0 0.0 0.0 0.0 0.0
0.0 0.0 0.0 0.0 0.0 0.0 0.0 0.0
0.0 0.0 0.0 0.0 0.0 0.0 0.0 0.0
0.0 0.0 0.0 0.0 0.0 0.0 0.0 0.0

symbolic_fun.1.mask f4 [1, 5]
00000000: 0000 0000 0000 0000 0000 0000 0000 0000
00000010: 0000 0000
0.0 0.0 0.0 0.0 0.0

symbolic_fun.1.affine f4 [1, 5, 4]
00000000: 0000 0000 0000 0000 0000 0000 0000 0000
00000010: 0000 0000 0000 0000 0000 0000 0000 0000
00000020: 0000 0000 0000 0000 0000 0000 0000 0000
00000030: 0000 0000 0000 0000 0000 0000 0000 0000
00000040: 0000 0000 0000 0000 0000 0000 0000 0000
0.0 0.0 0.0 0.0 0.0 0.0 0.0 0.0
0.0 0.0 0.0 0.0 0.0 0.0 0.0 0.0
0.0 0.0 0.0 0.0

symbolic_fun.2.mask f4 [2, 1]
00000000: 0000 0000 0000 0000
0.0 0.0

symbolic_fun.2.affine f4 [2, 1, 4]
00000000: 0000 0000 0000 0000 0000 0000 0000 0000
00000010: 0000 0000 0000 0000 0000 0000 0000 0000
0.0 0.0 0.0 0.0 0.0 0.0 0.0 0.0
