workspace/results/simulation/KAN_All/7/KAN-1Hidden.ckpt (torch, 5622 bytes, 15 tensors)

biases.1.weight f4 [1, 2]
-0.058374383 -0.06707583
00000000: fa19 6fbd 0e5f 89bd

act_fun.0.grid f4 [2, 4]
-0.01 0.33 0.67 1.01 -0.01 0.33 0.67 1.01
00000000: 0ad7 23bc c3f5 a83e 1f85 2b3f ae47 813f
00000010: 0ad7 23bc c3f5 a83e 1f85 2b3f ae47 813f

act_fun.0.coef f4 [2, 6]
0.22419348 -0.0075716465 -0.18815538 0.09081889 -0.18285342 -0.27400115 0.08067694 -0.090533555
-0.25898635 0.11985724 -0.054622278 -0.2644962
00000000: fa92 653e 931b f8bb ceab 40be 41ff b93d
00000010: ed3d 3bbe e149 8cbe f439 a53d a869 b9bd
00000020: dc99 84be b677 f53d 9cbb 5fbd 0c6c 87be

act_fun.0.scale_base f4 [2]
0.849685 0.5307096
00000000: f584 593f 96dc 073f

act_fun.0.scale_sp f4 [2]
1.2395501 1.2785624
00000000: 94a9 9e3f efa7 a33f

act_fun.0.mask f4 [2]
1.0 1.0
00000000: 0000 803f 0000 803f

act_fun.1.grid f4 [2, 4]
-0.11614949 0.16954985 0.4552492 0.7409485 -0.11614949 0.16954985 0.4552492 0.7409485
00000000: c9df edbd 7a9e 2d3e 6c16 e93e cdae 3d3f
00000010: c9df edbd 7a9e 2d3e 6c16 e93e cdae 3d3f

act_fun.1.coef f4 [2, 6]
0.83385485 0.13857846 -0.23268172 -0.08763052 0.2977639 0.41578946 -0.50326973 0.012745686
0.19826086 -0.13928556 -0.6873965 -0.76680213
00000000: 8377 553f 83e7 0d3e 1e44 6ebe a177 b3bd
00000010: 8374 983e 5be2 d43e 49d6 00bf 48d3 503c
00000020: e504 4b3e e0a0 0ebe 38f9 2fbf 254d 44bf

act_fun.1.scale_base f4 [2]
0.9327133 0.83076453
00000000: 4dc6 6e3f fcac 543f

act_fun.1.scale_sp f4 [2]
1.5353397 1.7313741
00000000: 0386 c43f ab9d dd3f

act_fun.1.mask f4 [2]
1.0 1.0
00000000: 0000 803f 0000 803f

symbolic_fun.0.mask f4 [1, 2]
0.0 0.0
00000000: 0000 0000 0000 0000

symbolic_fun.0.affine f4 [1, 2, 4]
0.0 0.0 0.0 0.0 0.0 0.0 0.0 0.0
00000000: 0000 0000 0000 0000 0000 0000 0000 0000
00000010: 0000 0000 0000 0000 0000 0000 0000 0000

symbolic_fun.1.mask f4 [2, 1]
0.0 0.0
00000000: 0000 0000 0000 0000

symbolic_fun.1.affine f4 [2, 1, 4]
0.0 0.0 0.0 0.0 0.0 0.0 0.0 0.0
00000000: 0000 0000 0000 0000 0000 0000 0000 0000
00000010: 0000 0000 0000 0000 0000 0000 0000 0000
