workspace/results/simulation/KAN_All/2/KAN-1Hidden.ckpt (torch, 5622 bytes, 15 tensors)

biases.1.weight f4 [1, 2]
-0.050306167 -0.06953947
00000000: d70d 4ebd b66a 8ebd

act_fun.0.grid f4 [2, 4]
-0.01 0.33 0.67 1.01 -0.01 0.33 0.67 1.01
00000000: 0ad7 23bc c3f5 a83e 1f85 2b3f ae47 813f
00000010: 0ad7 23bc c3f5 a83e 1f85 2b3f ae47 813f

act_fun.0.coef f4 [2, 6]
0.0996268 -0.07039189 -0.16737196 0.06260428 -0.1253186 -0.40970373 0.059270807 -0.16271982
-0.22743644 0.104992956 -0.10075256 -0.09579181
00000000: 2309 cc3d a029 90bd 8e63 2bbe ac36 803d
00000010: 8553 00be b0c4 d1be f2c5 723d 06a0 26be
00000020: 19e5 68be 8c06 d73d 5c57 cebd 7f2e c4bd

act_fun.0.scale_base f4 [2]
0.85202104 0.5250497
00000000: 0d1e 5a3f a869 063f

act_fun.0.scale_sp f4 [2]
1.1872785 1.2523216
00000000: bef8 973f 134c a03f

act_fun.0.mask f4 [2]
1.0 1.0
00000000: 0000 803f 0000 803f

act_fun.1.grid f4 [2, 4]
-0.11808986 0.16821897 0.4545278 0.74083656 -0.11808986 0.16821897 0.4545278 0.74083656
00000000: 19d9 f1bd 9841 2c3e deb7 e83e 77a7 3d3f
00000010: 19d9 f1bd 9841 2c3e deb7 e83e 77a7 3d3f

act_fun.1.coef f4 [2, 6]
0.90616286 0.15009275 -0.18166831 -0.15213943 0.30319256 0.73504525 -0.61676615 0.008521371
0.14414199 -0.072451904 -0.7141388 -1.0362304
00000000: 4afa 673f eab1 193e 4207 3abe 70ca 1bbe
00000010: 0e3c 9b3e ed2b 3c3f 63e4 1dbf 389d 0b3c
00000020: f599 133e aa61 94bd cdd1 36bf 33a3 84bf

act_fun.1.scale_base f4 [2]
0.92530197 0.8484292
00000000: 97e0 6c3f a832 593f

act_fun.1.scale_sp f4 [2]
1.5777225 1.7409627
00000000: d0f2 c93f ded7 de3f

act_fun.1.mask f4 [2]
1.0 1.0
00000000: 0000 803f 0000 803f

symbolic_fun.0.mask f4 [1, 2]
0.0 0.0
00000000: 0000 0000 0000 0000

symbolic_fun.0.affine f4 [1, 2, 4]
0.0 0.0 0.0 0.0 0.0 0.0 0.0 0.0
00000000: 0000 0000 0000 0000 0000 0000 0000 0000
00000010: 0000 0000 0000 0000 0000 0000 0000 0000

symbolic_fun.1.mask f4 [2, 1]
0.0 0.0
00000000: 0000 0000 0000 0000

symbolic_fun.1.affine f4 [2, 1, 4]
0.0 0.0 0.0 0.0 0.0 0.0 0.0 0.0
00000000: 0000 0000 0000 0000 0000 0000 0000 0000
00000010: 0000 0000 0000 0000 0000 0000 0000 0000
