workspace/results/ascad/KAN_ASCADf/4/KAN-2Hidden.ckpt (torch, 259902 bytes, 23 tensors)

biases.0.weight f4 [1, 5]
-0.037620336 -0.02499201 -0.03000904 -0.03855654 -0.02793756
00000000: c817 1abd 0bbc ccbc 85d5 f5bc 76ed 1dbd
00000010: 4fdd e4bc

biases.2.weight f4 [1, 2]
-0.09306863 0.08289242
00000000: c49a bebd 80c3 a93d

act_fun.0.grid f4 [3500, 4]
-2.545021 -0.9663923 0.6122365 2.190865 -2.5363858 -0.8957008 0.74498415 2.385669
-2.881272 -1.16931 0.54265213 2.254614 -2.5832357 -0.9371946 0.70884657 2.3548875
-2.7364957 -0.9313644 0.8737669 2.678898 -2.3804293 -0.752393 0.87564325 2.5036793
-2.447887 -0.8199011 0.8080847 2.4360704 -2.3023553 -0.69827294 0.9058094 2.5098915
-2.2530813 -0.5631677 1.1267459 2.8166595 -2.576468 -0.8195578 0.9373524 2.6942625
-2.6917257 -0.7934848 1.1047561 3.002997 -2.5592258 -0.7280221 1.1031816 2.934385
-2.4131365 -0.56165004 1.2898364 3.1413226 -2.3734508 -0.5271603 1.3191302 3.1654205
-2.3256156 -0.5625857 1.2004442 2.963474 -2.5887034 -0.79771376 0.9932759 2.7842653
-2.2696753 -0.5554805 1.1587143 2.872909 -1.9596926 -0.5286237 0.9024452 2.3335142
-2.0620837 -0.58840334 0.88527703 2.3589573 -2.141403 -0.61728334 0.9068363 2.4309556
-2.2713652 -0.72197866 0.82740784 2.3767943 -2.3792295 -0.8336332 0.7119632 2.2575593
-2.6783915 -0.83060765 1.0171762 2.8649597 -3.1646223 -1.1902452 0.784132 2.7585092
-3.0709941 -1.1019387 0.8671167 2.8361719 -2.9647057 -1.162215 0.6402757 2.4427664
-3.0811162 -1.3349812 0.4111538 2.1572886 -2.9526005 -1.1965499 0.5595007 2.3155513
-2.992822 -1.2247629 0.5432961 2.3113549 -2.8784037 -1.0887853 0.7008331 2.4904513
-3.1368833 -1.3496907 0.4375019 2.2246943 -2.7979798 -1.1485724 0.50083494 2.1502423
-2.4054782 -0.84997344 0.70553136 2.2610362 -1.9465579 -0.46558237 1.0153931 2.4963684
-1.8251818 -0.4173566 0.9904686 2.3982935 -1.8092273 -0.4718846 0.86545813 2.2028008
-2.4281754 -0.84667706 0.7348213 2.3163195 -2.4905453 -0.8655267 0.7594919 2.3845105
-1.4076675 -0.07730234 1.2530628 2.583428 -2.0725691 -0.38942623 1.2937167 2.9768593
-2.0245488 -0.38581228 1.2529242 2.8916605 -2.04012 -0.52790403 0.9843118 2.4965274
-2.2558923 -0.76273465 0.730423 2.2235804 -2.830086 -1.0990169 0.6320522 2.3631213
-3.0803547 -1.1186147 0.84312534 2.8048654 -2.6477983 -0.9298619 0.7880745 2.5060108
-2.8489258 -1.1259587 0.59700847 2.3199756 -2.6738906 -0.9958664 0.68215775 2.3601818
-2.3283868 -0.7779366 0.7725136 2.3229637 -2.5621798 -0.7672205 1.0277388 2.8226979
-2.5690246 -0.9314486 0.7061274 2.3437033 -2.731151 -0.9052639 0.9206233 2.7465105
-2.690894 -1.0881981 0.51449776 2.1171935 -3.2296948 -1.4239061 0.38188267 2.1876712
-3.1634858 -1.3590841 0.4453175 2.249719 -3.0708957 -1.3059916 0.45891237 2.2238164
-2.5085554 -0.9557092 0.597137 2.149983 -2.3857377 -0.8380165 0.70970464 2.2574255
-2.395283 -0.7601788 0.8749254 2.5100296 -2.2368665 -0.7363558 0.7641549 2.2646656
-2.305847 -0.78983486 0.7261772 2.2421892 -2.5244944 -0.8914833 0.7415278 2.3745387
-2.7048826 -0.7625085 1.1798656 3.1222396 -2.3099036 -0.510973 1.2879577 3.0868883
00000000: a0e1 22c0 7c65 77bf 88bb 1c3f 2237 0c40
00000010: 2554 22c0 a64c 65bf 48b7 3e3f cdae 1840
00000020: c366 38c0 f3ab 95bf 40eb 0a3f 994b 1040
00000030: bc53 25c0 fceb 6fbf f876 353f 7ab6 1640
00000040: bf22 2fc0 e66d 6ebf 30af 5f3f 1173 2b40
00000050: f458 18c0 d49c 40bf 282a 603f 483c 2040
00000060: 2eaa 1cc0 0ae5 51bf a4de 4e3f 94e8 1b40
00000070: ca59 13c0 04c2 32bf 20e3 673f 10a2 2040
00000080: 7c32 10c0 c22b 10bf 3639 903f 2644 3440
00000090: dae4 24c0 8ace 51bf 54f6 6f3f cc6e 2c40
000000a0: 3c45 2cc0 d221 4bbf a668 8d3f 1a31 4040
000000b0: 5bca 23c0 a85f 3abf 0e35 8d3f f7cc 3b40
000000c0: d470 1ac0 4cc8 0fbf 5c19 a53f 6e0b 4940
000000d0: 9ee6 17c0 faf3 06bf 42d9 a83f 4096 4a40
000000e0: e3d6 14c0 9e05 10bf 28a8 993f 8fa9 3d40
000000f0: 51ad 25c0 f836 4cbf 5447 7e3f 6731 3240
00000100: 5c42 11c0 f833 0ebf c050 943f bedd 3740
00000110: 35d7 fabf e253 07bf a606 673f 4c58 1540
00000120: 2ef9 03c0 9aa1 16bf 84a1 623f 28f9 1640
00000130: bf0c 09c0 4806 1ebf 6c26 683f c794 1b40
00000140: 0c5e 11c0 98d3 38bf 00d1 533f 661d 1840
00000150: 4c45 18c0 fc68 55bf 3843 363f da7b 1040
00000160: c46a 2bc0 b4a2 54bf d432 823f 805b 3740
00000170: 2c89 4ac0 f459 98bf e0bc 483f 6a8b 3040
00000180: 2b8b 44c0 540c 8dbf 5cfb 5d3f d783 3540
00000190: bdbd 3dc0 76c3 94bf 1ce9 233f 4956 1c40
000001a0: 0231 45c0 aae0 aabf c082 d23e 0411 0a40
000001b0: 68f7 3cc0 8c28 99bf 703b 0f3f fe31 1440
000001c0: 658a 3fc0 08c5 9cbf 7415 0b3f 3ded 1340
000001d0: c437 38c0 515d 8bbf cc69 333f 8e63 1f40
000001e0: b2c2 48c0 aac2 acbf 4000 e03e 6461 0e40
000001f0: 1a12 33c0 6c04 93bf b836 003f 929d 0940
00000200: 5bf3 19c0 dc97 59bf b49d 343f d1b4 1040
00000210: cf28 f9bf d060 eebe 67f8 813f 80c4 1f40
00000220: 8f9f e9bf c4af d5be 5a8f 7d3f a47d 1940
00000230: c394 e7bf dc9a f1be aa8e 5d3f b0fa 0c40
00000240: 3a67 1bc0 d4bf 58bf 401d 3c3f 943e 1440
00000250: 1865 1fc0 2893 5dbf 106e 423f d29b 1840
00000260: 732e b4bf b050 9ebd 5d64 a03f e256 2540
00000270: f9a4 04c0 e062 c7be 8298 a53f dd84 3e40
00000280: 3592 01c0 3089 c5be d25f a03f f710 3940
00000290: 5391 02c0 b824 07bf dcfb 7b3f 1bc7 1f40
000002a0: 8a60 10c0 9442 43bf 00fd 3a3f 244f 0e40
000002b0: 2120 35c0 96ac 8cbf 2cce 213f 613d 1740
000002c0: 8824 45c0 c42e 8fbf 10d7 573f ea82 3340
000002d0: 8775 29c0 6e0b 6ebf 40bf 493f 7b62 2040
000002e0: cd54 36c0 6a1f 90bf 8cd5 183f 7b7a 1440
000002f0: 0621 2bc0 1af1 7ebf e4a1 2e3f 380d 1740
00000300: 4a04 15c0 da26 47bf 74c3 453f 70ab 1440
00000310: c1fa 23c0 9068 44bf f28c 833f 15a7 3440
00000320: e66a 24c0 6a73 6ebf c4c4 343f 3cff 1540
00000330: 2ecb 2ec0 60bf 67bf f8ad 6b3f d4c6 2f40
00000340: 9b37 2cc0 134a 8bbf 20b6 033f 1980 0740
00000350: 52b3 4ec0 8e42 b6bf 2086 c33e ce02 0c40
00000360: 8d76 4ac0 78f6 adbf a800 e43e 65fb 0f40
00000370: 8e89 44c0 bc2a a7bf 90f6 ea3e 0253 0e40
00000380: 2c8c 20c0 5ca9 74bf f8dd 183f 5299 0940
00000390: edaf 18c0 4088 56bf 34af 353f a979 1040
000003a0: 514c 19c0 149b 42bf 1cfb 5f3f 53a4 2040
000003b0: d228 0fc0 d081 3cbf a89f 433f 48f0 1040
000003c0: ff92 13c0 9e32 4abf c0e6 393f 0780 0f40
000003d0: 5191 21c0 4038 64bf c4d4 3d3f 71f8 1740
000003e0: cc1c 2dc0 c233 43bf d605 973f c6d2 4740
000003f0: 76d5 13c0 20cf 02bf ccdb a43f 948f 4540

act_fun.0.coef f4 [3500, 6]
0.06390207 -0.16227248 0.005239105 0.015551964 -0.20361073 -0.32972685 -0.040744934 -0.1324759
0.17329952 -0.11511518 -0.24646503 -0.31072554 0.105461165 -0.14970206 0.011906442 0.0012431977
-0.10632256 0.03653786 -0.00077846745 -0.06524066 -0.042942576 0.0185392 -0.090170376 -0.008928743
0.16186349 -0.076872565 0.012302299 -0.033901118 -0.111900546 0.197622 0.008587758 -0.1831307
-0.0002750958 -0.01657242 0.0073272614 -0.2320477 0.4531162 -0.22137937 -0.02968509 0.002214543
0.098801255 -0.34478077 0.26034114 -0.17789017 -0.04098019 0.017731955 0.07418932 -0.35542512
-0.14241907 -0.066940814 -0.010516417 0.008580457 -0.10229398 -0.0697036 -0.27447838 -0.23809664
0.0014783205 0.0076171705 -0.013636017 -0.09023232 -0.5371358 -0.11955771 0.0034035933 -0.088088796
0.0748938 0.31880113 -0.971824 -0.22906835 0.03591732 -0.102115564 0.10898101 0.7799205
-0.48038954 -0.18454897 0.052961074 -0.08761695 0.053940766 0.5986755 0.0055728313 -0.030914184
-0.07739364 0.006037634 0.024343358 -0.07608317 -0.21277492 -0.18845053 -0.036605235 0.032382667
0.13182361 0.4779466 -0.20679784 0.10029532 -0.04779524 -0.04022033 -0.019998332 0.07434227
0.2786465 0.04623795 -0.06424521 -0.067705505 0.045860514 0.29586783 0.111020476 -0.039221592
-0.063328564 -0.031295143 0.0057136305 0.62818843 -0.2154298 -0.007822411 -0.0034762188 -0.04608899
0.005743689 0.24910684 -0.06067838 -0.02073055 -0.03862589 -0.014915993 -0.0021630325 0.54859674
-0.18539986 -0.09425199 0.0029437596 -0.047097202 -0.019623809 0.5122157 -0.33382806 -0.04584976
-0.07759523 0.015501553 0.00896977 -0.36121196 -0.13631117 -0.23086381 -0.017833404 0.044147868
-0.02840011 -0.16486345 0.11728153 -0.11022813 0.020595953 -0.077003986 -0.094176464 0.00020226488
0.08710932 -0.14631353 -0.014466243 -0.055565342 0.058677834 0.24846461 0.62186205 -0.1766355
-0.09420963 0.0046258643 0.07265664 0.42604992 0.6066766 -0.3217088 -0.013790436 -0.013088471
-0.067377046 0.26275036 0.013582096 -0.32469967 -0.031768467 0.034061134 -0.06520865 -0.341423
0.69701207 -0.27934676 -0.011917315 -0.0019938706 -0.11727354 -0.042670377 0.26779857 0.021541664
-0.047932267 -0.082374156 0.093472466 0.21965894 -0.021114841 -0.07880197 -0.15501465 -0.028153917
0.15077226 0.3273437 -0.17187388 0.12117285 -0.054898266 -0.11029291 0.115460955 0.18356758
-0.14774261 0.018006513 -0.11096481 -0.017541815 0.13526809 0.12972583 -0.091345355 -0.03010984
-0.1255293 0.056628678 0.10782452 -0.15799308 0.09468176 0.037991066 -0.20118473 0.032017373
0.20257133 0.035463475 0.39282963 -0.07998719 -0.15673257 0.1018682 0.060117908 -0.39576545
-0.041731838 -0.062474396 -0.07409827 -0.035637975 0.1434255 -0.36467117 0.36223727 -0.06581828
-0.0989627 0.02637924 0.04816842 -0.10201454 -0.49558997 -0.3257982 0.17309368 0.121852316
-0.18560097 -0.44237092 -0.072695464 -0.08816682 0.036186907 -0.15717466 0.29297945 0.17572363
0.17364688 0.01619123 -0.03241387 -0.05801515 0.15259595 0.23570284 -0.15374483 -0.021186752
-0.029025566 -0.045250494 0.103344195 0.30367768 -0.3423835 -0.03183412 -0.011172642 -0.018377868
00000000: 17df 823d c22a 26be ccac ab3b aacd 7e3c
00000010: 557f 50be f5d1 a8be 29e4 26bd c3a7 07be
00000020: 6e75 313e 82c1 ebbd 5461 7cbe 6b17 9fbe
00000030: 06fc d73d 7f4b 19be 3d13 433c cbf2 a23a
00000040: a4bf d9bd b9a8 153d 1112 4cba e59c 85bd
00000050: 8ee4 2fbd 85df 973c 3fab b8bd dd49 12bc
00000060: 8bbf 253e 5d6f 9dbd 958f 493c e6db 0abd
00000070: 1d2c e5bd 6c5d 4a3e abb3 0c3c 9d86 3bbe
00000080: bc3a 90b9 e2c2 87bc 8619 f03b ea9d 6dbe
00000090: d9fe e73e 46b1 62be 252e f3bc de21 113b
000000a0: 5058 ca3d 1b87 b0be 6f4b 853e d728 36be
000000b0: d8da 27bd 9b42 913c 92f0 973d 48fa b5be
000000c0: 4ed6 11be 4418 89bd 0d4d 2cbc 0c95 0c3c
000000d0: 827f d1bd c3c0 8ebd 6e88 8cbe 9bcf 73be
000000e0: 34c4 c13a 7599 f93b 9a69 5fbc b9cb b8bd
000000f0: bb81 09bf acda f4bd d20e 5f3b e667 b4bd
00000100: ec61 993d e739 a33e 75c9 78bf e590 6abe
00000110: 0a1e 133d f721 d1bd 7031 df3d dfa8 473f
00000120: 9ef5 f5be 68fa 3cbe b6ed 583d 8470 b3bd
00000130: fef0 5c3d cc42 193f 4c9c b63b be3f fdbc
00000140: 8f80 9ebd 58d7 c53b b96b c73c 7ed1 9bbd
00000150: abe1 59be 2df9 40be 5fef 15bd b0a3 043d
00000160: c5fc 063e 6bb5 f43e d0c2 53be a267 cd3d
00000170: f1c4 43bd 13be 24bd 8bd3 a3bc c340 983d
00000180: c1aa 8e3e 0164 3d3d fe92 83bd 2fa9 8abd
00000190: 3cd8 3b3d fd7b 973e b45e e33d d2a6 20bd
000001a0: 68b2 81bd 562f 00bd 6839 bb3b f5d0 203f
000001b0: a199 5cbe 9229 00bc 46d1 63bb cfc7 3cbd
000001c0: 8e35 bc3b dd15 7f3e e589 78bd 1dd3 a9bc
000001d0: 2e36 1ebd 3662 74bc aac1 0dbb d670 0c3f
000001e0: 76d9 3dbe 3007 c1bd 17ec 403b ffe8 40bd
000001f0: 1cc2 a0bc 9120 033f 83eb aabe f5cc 3bbd
00000200: 3fea 9ebd 3afa 7d3c f1f5 123c c6f0 b8be
00000210: 2895 0bbe 9067 6cbe 5c17 92bc 65d4 343d
00000220: 59a7 e8bc f7d1 28be 4c31 f03d 49bf e1bd
00000230: d8b8 a83c 44b4 9dbd 97df c0bd 1117 5439
00000240: 5f66 b23d 37d3 15be d203 6dbc 7c98 63bd
00000250: 2b58 703d 826d 7e3e 5a32 1f3f f0df 34be
00000260: faf0 c0bd 9094 973b 01cd 943d 3723 da3e
00000270: 284f 1b3f 04b7 a4be 48f1 61bc 0771 56bc
00000280: fafc 89bd 3787 863e 7187 5e3c 093f a6be
00000290: a71f 02bd b083 0b3d 1d8c 85bd ffce aebe
000002a0: 626f 323f 8a06 8fbe d840 43bc 99ab 02bb
000002b0: 1c2d f0bd 22c7 2ebd e51c 893e 2578 b03c
000002c0: a054 44bd c8b3 a8bd 7e6e bf3d 46ee 603e
000002d0: 08f9 acbc ed62 a1bd 29bc 1ebe 0ba3 e6bc
000002e0: 0b64 1a3e 9899 a73e b5ff 2fbe 7929 f83d
000002f0: 01dd 60bd 40e1 e1bd cb76 ec3d 24f9 3b3e
00000300: d749 17be 6582 933c 8541 e3bd dab3 8fbc
00000310: b883 0a3e d9d6 043e 4613 bbbd e9a8 f6bc
00000320: c18a 00be 79f3 673d 1ad3 dc3d f0c8 21be
00000330: 83e8 c13d 859c 1b3d 5f03 4ebe a624 033d
00000340: dc6e 4f3e 2642 113d f720 c93e 53d0 a3bd
00000350: 817e 20be 46a0 d03d 323e 763d c5a1 cabe
00000360: 01ef 2abd 27e5 7fbd d5c0 97bd 20f9 11bd
00000370: 22de 123e 2eb6 babe 2a77 b93e bccb 86bd
00000380: f5ac cabd 4719 d83c 404c 453d 00ed d0bd
00000390: f8bd fdbe 06cf a6be 783f 313e b58d f93d
000003a0: 2e0e 3ebe 717e e2be 5ce1 94bd ce90 b4bd
000003b0: b938 143d 65f2 20be 6701 963e e5f0 333e
000003c0: 7dd0 313e 78a3 843c 68c4 04bd 4ba1 6dbd
000003d0: 1d42 1c3e 165c 713e 496f 1dbe d78f adbc
000003e0: 06c7 edbc 9558 39bd 1fa6 d33d a47b 9b3e
000003f0: e44c afbe 7f64 02bd 750d 37bc 2f8d 96bc

act_fun.0.scale_base f4 [3500]
-0.4803184 -0.646351 -0.20291822 -0.17768767 0.061705455 0.07558579 -0.03408053 -0.42049426
-0.047297634 -0.3369189 0.040006027 0.062151212 0.0029648421 0.251166 0.3320484 -0.073747076
-0.28241786 -0.27299896 0.093082935 0.17974502 0.0943251 -0.36347988 -0.10528046 0.23212172
0.16945428 0.0017442466 -0.06885115 -0.09776672 0.15190838 0.3873047 0.41378292 -0.08688964
-0.006255773 0.10024794 0.060576826 0.096832044 0.13034172 0.08162549 0.01073436 0.15659495
0.033266325 0.21858987 -0.041907493 0.027568195 0.03258758 0.6415744 -0.2111055 -0.32420763
-0.23955406 0.12192188 0.20033121 -0.089233875 -0.16560785 0.10617869 0.16785493 0.049190138
0.004367231 0.29720527 0.3940745 0.67427766 -0.30433714 -0.31179833 0.28586304 -0.22366387
-0.0328655 0.22062692 0.23050109 0.31042275 -0.1896393 0.4958184 -0.04992479 0.0048893867
-0.289988 -0.13599712 -0.15531175 -0.08786163 -0.3572496 0.12309146 0.0719807 0.20091897
0.103646345 0.22780524 -0.2882633 -0.03421569 0.17521334 -0.14722246 0.3465992 0.08594011
0.034028005 0.54962575 -0.24807248 0.08104107 -0.38957646 -0.30471087 -0.11240191 -0.011589803
0.1711922 -0.42678314 0.06021587 0.10377428 -0.63916326 -0.33018452 -0.08009966 -0.074789286
-0.06447231 -0.019555558 0.08527647 0.08281298 0.025590291 -0.16130039 0.14296341 -0.23787679
-0.0072533716 -0.4818127 -0.089372806 -0.021566365 0.2815069 0.031610865 0.08677381 -0.1521529
-0.10210737 -0.14166318 0.41417336 -0.14510079 -0.043810405 0.06331537 0.042518497 -0.020920066
-0.3027059 -0.12575789 -0.2422548 0.0994796 0.04515953 0.0043361317 0.4626802 -0.21275993
-0.14836234 -0.049241584 -0.10797766 -0.17029509 -0.23191881 -0.18816444 0.33037078 0.10631318
-0.08463338 0.018896941 0.025257554 0.12093244 -0.13578184 0.051482867 -0.11629654 -0.1429564
0.023573713 -0.042344514 -0.367665 0.0057959743 -0.26799163 -0.053037345 -0.049268242 0.07750076
0.106097914 -0.30168772 0.01564102 0.07228146 0.24631055 -0.0705215 0.21545133 0.34589854
0.17481972 0.19448991 -0.13432723 0.08600609 -0.06848953 -0.37272638 -0.037447132 -0.2404558
-0.049570892 -0.076464936 -0.44232503 -0.12060497 0.091573656 -0.30233976 0.33380327 0.17812704
-0.20343201 -0.18711588 0.2603955 -0.022754747 0.2216865 -0.22633721 -0.23202842 -0.38333023
0.051370554 0.10398246 0.21820764 0.18633324 -0.0046549602 0.12260501 -0.04672589 0.1830465
0.12729928 -0.29049554 0.0010013258 -0.00025365528 -0.075503305 -0.41807005 0.16619618 -0.106319696
0.119376294 -0.13028519 -0.04863006 0.109538764 -0.31976625 0.1359748 -0.1752423 -0.3872602
0.1455504 0.25648966 -0.17026544 0.060486704 0.023128789 -0.0846466 -0.16610466 -0.025628237
-0.21751694 0.3210629 -0.028400041 -0.101753935 -0.053576663 0.12572956 -0.023502411 -0.30184627
-0.055799033 -0.3468366 -0.12419155 0.20924464 -0.16084671 0.075510934 0.107728094 -0.45182705
-0.31003442 -0.3105217 0.021523312 -0.2645651 0.39966667 0.039169084 0.046301935 -0.01526389
-0.14259471 0.1433535 0.13024455 -0.19032599 -0.3069542 0.015053751 0.35639 -0.13832942
00000000: 4bec f5be 4277 25bf cbc9 4fbe c2f3 35be
00000010: dcbe 7c3d b9cc 9a3d 0798 0bbd 064b d7be
00000020: 2abb 41bd a280 acbe 5cdd 233d 4592 7e3d
00000030: cc4d 423b d498 803e 3f02 aa3e b508 97bd
00000040: 1399 90be 85c6 8bbe 44a2 be3d 140f 383e
00000050: 852d c13d 091a babe 489d d7bd 51b1 6d3e
00000060: 6c85 2d3e 349f e43a d501 8dbd eb39 c8bd
00000070: df8d 1b3e cd4c c63e 5bdb d33e 32f3 b1bd
00000080: 3afd ccbb cb4e cd3d 681f 783d e14f c63d
00000090: 4d78 053e 442b a73d 2bdf 2f3c 6d5a 203e
000000a0: 4542 083d 06d6 5f3e 31a7 2bbd b2d6 e13c
000000b0: 8e7a 053d 383e 243f 0a2c 58be 8bfe a5be
000000c0: a94d 75be 2eb2 f93d a023 4d3e 40c0 b6bd
000000d0: 1b95 29be 3774 d93d 2ae2 2b3e 997b 493d
000000e0: fd1a 8f3b 4a2b 983e 22c4 c93e 769d 2c3f
000000f0: 14d2 9bbe 08a4 9fbe a45c 923e 2408 65be
00000100: f99d 06bd 06ec 613e 7a08 6c3e bbef 9e3e
00000110: ce30 42be e9db fd3e f07d 4cbd 2637 a03b
00000120: 4f79 94be d442 0bbe 0b0a 1fbe ccf0 b3bd
00000130: 6be9 b6be 6017 fc3d 9e6a 933d b4bd 4d3e
00000140: 8944 d43d c745 693e 3f97 93be c025 0cbd
00000150: 206b 333e 7cc1 16be 7375 b13e 5e01 b03d
00000160: f360 0b3d 46b4 0c3f b606 7ebe dcf8 a53d
00000170: 9176 c7be 1003 9cbe f932 e6bd 28e3 3dbc
00000180: 024d 2f3e 5283 dabe eba4 763d 9c87 d43d
00000190: 34a0 23bf f20d a9be 4a0b a4bd 202b 99bd
000001a0: 0f0a 84bd fa32 a0bc 6ea5 ae3d da99 a93d
000001b0: bba2 d13c ee2b 25be 0065 123e f995 73be
000001c0: b1ad edbb 27b0 f6be 1709 b7bd f2ab b0bc
000001d0: ac21 903e 657a 013d 78b6 b13d f8cd 1bbe
000001e0: ab1d d1bd 2710 11be 880e d43e 4d95 14be
000001f0: 8a72 33bd 7dab 813d e027 2e3d 8f60 abbc
00000200: 45fc 9abe adc6 00be a411 78be f6bb cb3d
00000210: 33f9 383d 1c16 8e3b 6be4 ec3e bddd 59be
00000220: 4cec 17be 8bb1 49bd 6423 ddbd d661 2ebe
00000230: 207c 6dbe 2eae 40be 5c26 a93e b9ba d93d
00000240: 4454 adbd c2cd 9a3c eee8 ce3c 6dab f73d
00000250: 650a 0bbe b3df 523d e12c eebd 2a63 12be
00000260: a91d c13c 7171 2dbd 963e bcbe 28ec bd3b
00000270: 3336 89be b03d 59bd 7fcd 49bd b8b8 9e3d
00000280: dd49 d93d d076 9abe 9921 803c 4d08 943d
00000290: d538 7c3e 946d 90bd 469f 5c3e 9d19 b13e
000002a0: f103 333e 5d28 473e 148d 09be f623 b03d
000002b0: 3d44 8cbd fed5 bebe 2a62 19bd 0c3a 76be
000002c0: d90a 4bbd a699 9cbd 6d78 e2be bdff f6bd
000002d0: f88a bb3d 47cc 9abe 43e8 aa3e ef66 363e
000002e0: 7b50 50be 4e9b 3fbe 8f52 853e 2a68 babc
000002f0: c901 633e f1c4 67be dc98 6dbe dc43 c4be
00000300: ee69 523d c2f4 d43d d371 5f3e 24ce 3e3e
00000310: a388 98bb 5618 fb3d a663 3fbd 8b70 3b3e
00000320: be5a 023e d5bb 94be eb3e 833a 09fd 84b9
00000330: 7aa1 9abd 470d d6be 552f 2a3e 24be d9bd
00000340: 8f7b f43d 7b69 05be 5030 47bd dc55 e03d
00000350: 67b8 a3be fa3c 0b3e b872 33be f846 c6be
00000360: 2a0b 153e 9d52 833e 105a 2ebe e8c0 773d
00000370: 9678 bd3c 325b adbd 5717 2abe 4ff2 d1bc
00000380: c3bc 5ebe 5b62 a43e 34a7 e8bc 5e64 d0bd
00000390: 3473 5bbd 40bf 003e 2188 c0bc 988b 9abe
000003a0: 878d 64bd 9194 b1be 2458 febd 3a44 563e
000003b0: 00b5 24be 7aa5 9a3d 8ca0 dc3d e055 e7be
000003c0: d5bc 9ebe b3fc 9ebe a851 b03c 1475 87be
000003d0: 1ca1 cc3e c36f 203d 19a7 3d3d 6515 7abc
000003e0: 5904 12be 43cb 123e d45e 053e d1e4 42be
000003f0: 1a29 9dbe 02a4 763c c078 b63e 3aa6 0dbe

act_fun.0.scale_sp f4 [3500]
1.1008925 1.2945056 0.87483513 0.9019179 0.8467375 0.9617309 0.9433282 1.0275166
0.87227803 1.0455006 1.0139885 1.3056033 1.1317973 0.94650835 0.9944496 0.89036494
0.92447484 1.02603 0.8459293 0.8614507 0.9586448 0.9583778 1.0461076 0.9755191
0.92610264 1.0824854 1.1450692 1.0690511 1.132842 0.9771747 1.1154065 1.0986745
1.0718895 0.96426284 1.2188401 1.1711571 1.0081815 0.94923913 1.5738598 1.2282976
0.8424708 0.9056447 0.78178096 0.9352816 0.90877724 1.1429383 1.1423392 0.96156573
1.109177 0.9987852 1.2447301 1.0211602 1.2153959 1.1999673 1.0379697 1.0413135
1.0961845 1.2138075 1.157563 0.90798 0.89859253 0.9335624 0.93712723 1.0573391
1.1772437 0.9519949 0.9282305 0.9929128 1.0772278 0.8619819 0.9036905 0.8767493
0.95865285 0.8119537 1.1540098 1.2382562 0.9087882 1.1298039 1.1434599 0.95922846
1.0925083 1.0719067 0.97202575 0.8955281 0.90219015 0.90906423 1.1703411 0.8611577
1.0054313 1.1519672 1.1287878 1.3522508 1.0228006 0.78961766 0.98305607 0.98293257
1.0057257 1.0059557 0.94219023 0.9325666 1.03469 1.1099997 0.90326655 1.2271422
0.93783236 0.97227025 1.0090998 0.96440196 0.8785997 0.81998616 0.8257961 0.85419124
0.99373496 1.0779009 1.0906198 1.0671955 1.086825 0.9865466 1.2535988 0.9872596
1.1163222 1.2162911 1.0181824 0.6936853 0.7312734 0.9183561 1.0107256 1.1109513
1.0241412 0.96057045 0.8920194 0.93301964 1.1866739 0.9141423 0.98485273 0.95406586
0.8156527 0.8112968 0.95694166 0.9985291 0.994233 0.96673834 1.2954353 1.1351569
0.9084668 1.048032 0.9828264 0.8726406 1.0016637 1.1259258 1.0968264 1.0793947
1.1168404 1.142481 1.1868358 1.1598355 1.2592065 1.2150607 0.91506714 1.0416138
0.87277853 0.89853 1.0198836 0.9656931 0.90476453 0.8482616 1.0637622 1.1471536
1.061672 1.138913 0.9918696 1.3579236 0.9967848 0.96985275 0.8701278 0.9008971
0.8380011 0.8242021 0.924235 1.0785109 1.0293887 1.230306 1.0994157 1.1101402
1.0854192 0.9017213 0.88786954 0.92690533 1.0485685 0.94217443 0.7715099 0.9606116
1.1225601 0.7847902 1.0674235 0.9354329 1.0893834 0.8624711 0.88551646 0.9223498
1.158089 0.9283343 0.9404072 0.93541425 1.0229149 1.025591 0.9498504 0.9805677
1.1533103 1.102681 1.0969597 0.88560826 0.9953242 0.9718874 0.9472348 0.9418176
0.89653885 1.031832 0.91322076 1.0027648 0.9797345 1.1225885 0.8469634 0.9868027
1.0323694 0.9188576 0.9078111 0.9151378 0.968589 1.0417825 0.95860916 0.85895973
0.94461524 1.0818789 0.9168855 0.9410864 1.0990542 1.1322151 1.1710931 0.96184355
0.81477916 1.0872707 1.0705771 0.8260228 1.3234366 1.0363657 0.94969326 1.0094731
0.9610741 0.87009406 0.82063377 0.9911158 1.0169121 0.9396885 1.0793546 0.9986021
00000000: 0cea 8c3f 5cb2 a53f 32f5 5f3f 17e4 663f
00000010: cac3 583f ff33 763f f57d 713f aa85 833f
00000020: 9d4d 5f3f f7d2 853f 60ca 813f 021e a73f
00000030: bcde 903f 5f4e 723f 4094 7e3f f5ee 633f
00000040: 62aa 6c3f f354 833f d38e 583f 0888 5c3f
00000050: bf69 753f 3f58 753f dbe6 853f 9fbb 793f
00000060: 1015 6d3f e28e 8a3f a191 923f abd6 883f
00000070: f700 913f 1f28 7a3f a4c5 8e3f 5ea1 8c3f
00000080: ad33 893f eed9 763f f402 9c3f 7ae8 953f
00000090: 170c 813f 5601 733f 3d74 c93f db38 9d3f
000000a0: 2bac 573f 55d8 673f cc22 483f 9d6e 6f3f
000000b0: a0a5 683f cd4b 923f 2c38 923f 2c29 763f
000000c0: 83f9 8d3f 63b0 7f3f 5153 9f3f 61b5 823f
000000d0: 1892 9b3f 8798 993f 31dc 843f c349 853f
000000e0: c64f 8c3f 0b5e 9b3f 062b 943f 6171 683f
000000f0: 290a 663f f2fd 6e3f 92e7 6f3f e356 873f
00000100: ecaf 963f f0b5 733f 84a0 6d3f 892f 7e3f
00000110: 9ae2 893f d9aa 5c3f 4358 673f a472 603f
00000120: 466a 753f 33dc 4f3f 98b6 933f 2e7f 9e3f
00000130: 58a6 683f 6a9d 903f e55c 923f ff8f 753f
00000140: 50d7 8b3f 3d34 893f aed6 783f 5441 653f
00000150: eff5 663f 6fb8 683f bdcd 953f d574 5c3f
00000160: f9b1 803f a973 933f 1e7c 903f 8e16 ad3f
00000170: 21eb 823f 6224 4a3f 90a9 7b3f 78a1 7b3f
00000180: 9fbb 803f 28c3 803f 6133 713f afbc 6e3f
00000190: b970 843f 7814 8e3f 7a3c 673f ff12 9d3f
000001a0: c815 703f b4e6 783f 2f2a 813f 0ce3 763f
000001b0: e9eb 603f 9dea 513f 6067 533f 47ac 5a3f
000001c0: 6a65 7e3f a8f8 893f 6e99 8b3f dd99 883f
000001d0: 151d 8b3f 518e 7c3f ed75 a03f 0cbd 7c3f
000001e0: a5e3 8e3f 6daf 9b3f cd53 823f 5c95 313f
000001f0: bc34 3b3f 6319 6b3f 755f 813f a733 8e3f
00000200: 0f17 833f f2e7 753f 625b 643f 60da 6e3f
00000210: eee4 973f 3b05 6a3f 4f1f 7c3f a93d 743f
00000220: 9ece 503f 26b1 4f3f 21fa 743f 9a9f 7f3f
00000230: 0e86 7e3f 2a7c 773f d3d0 a53f d24c 913f
00000240: 4891 683f ea25 863f 839a 7b3f 6065 5f3f
00000250: 8436 803f 561e 903f cf64 8c3f 9b29 8a3f
00000260: a0f4 8e3f d13c 923f 3cea 973f 7d75 943f
00000270: ae2d a13f 1c87 9b3f d741 6a3f 9a53 853f
00000280: 6a6e 5f3f 1006 663f 8c8b 823f aa37 773f
00000290: a69e 673f ac27 593f 5c29 883f eed5 923f
000002a0: dee4 873f e7c7 913f 2beb 7d3f 71d0 ad3f
000002b0: 4a2d 7f3f 4548 783f b2c0 5e3f 31a1 663f
000002c0: 3d87 563f e9fe 523f aa9a 6c3f a50c 8a3f
000002d0: 02c3 833f ab7a 9d3f a7b9 8c3f 1319 8e3f
000002e0: 04ef 8a3f 35d7 663f 6b4b 633f ab49 6d3f
000002f0: 7e37 863f 5832 713f ac81 453f a4ea 753f
00000300: 0db0 8f3f 03e8 483f 55a1 883f 8878 6f3f
00000310: ea70 8b3f e8ca 5c3f 35b1 623f 1e1f 6c3f
00000320: 433c 943f 51a7 6d3f 87be 703f 4f77 6f3f
00000330: e0ee 823f 9146 833f 6529 733f 7c06 7b3f
00000340: ac9f 933f a724 8d3f 2d69 8c3f 39b7 623f
00000350: 91cd 7e3f 9dcd 783f fb7d 723f f51a 713f
00000360: 9283 653f 1213 843f d6c8 693f 995a 803f
00000370: e1cf 7a3f fbb0 8f3f 98d2 583f 1a9f 7c3f
00000380: ae24 843f 403a 6b3f 4f66 683f 7946 6a3f
00000390: 73f5 773f 2159 853f 6967 753f c9e4 5b3f
000003a0: 4ed2 713f 027b 8a3f 02b9 6a3f 0aeb 703f
000003b0: cfad 8c3f 6dec 903f 61e6 953f 613b 763f
000003c0: 5e95 503f b02b 8b3f ac08 893f 3b76 533f
000003d0: 5f66 a93f a2a7 843f 191f 733f 6a36 813f
000003e0: f408 763f 7cbe 5e3f 0e15 523f c4b9 7d3f
000003f0: 2d2a 823f 6d8f 703f 4b28 8a3f 63a4 7f3f

act_fun.0.mask f4 [3500]
1.0 1.0 1.0 1.0 1.0 1.0 1.0 1.0
1.0 1.0 1.0 1.0 1.0 1.0 1.0 1.0
1.0 1.0 1.0 1.0 1.0 1.0 1.0 1.0
1.0 1.0 1.0 1.0 1.0 1.0 1.0 1.0
1.0 1.0 1.0 1.0 1.0 1.0 1.0 1.0
1.0 1.0 1.0 1.0 1.0 1.0 1.0 1.0
1.0 1.0 1.0 1.0 1.0 1.0 1.0 1.0
1.0 1.0 1.0 1.0 1.0 1.0 1.0 1.0
1.0 1.0 1.0 1.0 1.0 1.0 1.0 1.0
1.0 1.0 1.0 1.0 1.0 1.0 1.0 1.0
1.0 1.0 1.0 1.0 1.0 1.0 1.0 1.0
1.0 1.0 1.0 1.0 1.0 1.0 1.0 1.0
1.0 1.0 1.0 1.0 1.0 1.0 1.0 1.0
1.0 1.0 1.0 1.0 1.0 1.0 1.0 1.0
1.0 1.0 1.0 1.0 1.0 1.0 1.0 1.0
1.0 1.0 1.0 1.0 1.0 1.0 1.0 1.0
1.0 1.0 1.0 1.0 1.0 1.0 1.0 1.0
1.0 1.0 1.0 1.0 1.0 1.0 1.0 1.0
1.0 1.0 1.0 1.0 1.0 1.0 1.0 1.0
1.0 1.0 1.0 1.0 1.0 1.0 1.0 1.0
1.0 1.0 1.0 1.0 1.0 1.0 1.0 1.0
1.0 1.0 1.0 1.0 1.0 1.0 1.0 1.0
1.0 1.0 1.0 1.0 1.0 1.0 1.0 1.0
1.0 1.0 1.0 1.0 1.0 1.0 1.0 1.0
1.0 1.0 1.0 1.0 1.0 1.0 1.0 1.0
1.0 1.0 1.0 1.0 1.0 1.0 1.0 1.0
1.0 1.0 1.0 1.0 1.0 1.0 1.0 1.0
1.0 1.0 1.0 1.0 1.0 1.0 1.0 1.0
1.0 1.0 1.0 1.0 1.0 1.0 1.0 1.0
1.0 1.0 1.0 1.0 1.0 1.0 1.0 1.0
1.0 1.0 1.0 1.0 1.0 1.0 1.0 1.0
1.0 1.0 1.0 1.0 1.0 1.0 1.0 1.0
00000000: 0000 803f 0000 803f 0000 803f 0000 803f
00000010: 0000 803f 0000 803f 0000 803f 0000 803f
00000020: 0000 803f 0000 803f 0000 803f 0000 803f
00000030: 0000 803f 0000 803f 0000 803f 0000 803f
00000040: 0000 803f 0000 803f 0000 803f 0000 803f
00000050: 0000 803f 0000 803f 0000 803f 0000 803f
00000060: 0000 803f 0000 803f 0000 803f 0000 803f
00000070: 0000 803f 0000 803f 0000 803f 0000 803f
00000080: 0000 803f 0000 803f 0000 803f 0000 803f
00000090: 0000 803f 0000 803f 0000 803f 0000 803f
000000a0: 0000 803f 0000 803f 0000 803f 0000 803f
000000b0: 0000 803f 0000 803f 0000 803f 0000 803f
000000c0: 0000 803f 0000 803f 0000 803f 0000 803f
000000d0: 0000 803f 0000 803f 0000 803f 0000 803f
000000e0: 0000 803f 0000 803f 0000 803f 0000 803f
000000f0: 0000 803f 0000 803f 0000 803f 0000 803f
00000100: 0000 803f 0000 803f 0000 803f 0000 803f
00000110: 0000 803f 0000 803f 0000 803f 0000 803f
00000120: 0000 803f 0000 803f 0000 803f 0000 803f
00000130: 0000 803f 0000 803f 0000 803f 0000 803f
00000140: 0000 803f 0000 803f 0000 803f 0000 803f
00000150: 0000 803f 0000 803f 0000 803f 0000 803f
00000160: 0000 803f 0000 803f 0000 803f 0000 803f
00000170: 0000 803f 0000 803f 0000 803f 0000 803f
00000180: 0000 803f 0000 803f 0000 803f 0000 803f
00000190: 0000 803f 0000 803f 0000 803f 0000 803f
000001a0: 0000 803f 0000 803f 0000 803f 0000 803f
000001b0: 0000 803f 0000 803f 0000 803f 0000 803f
000001c0: 0000 803f 0000 803f 0000 803f 0000 803f
000001d0: 0000 803f 0000 803f 0000 803f 0000 803f
000001e0: 0000 803f 0000 803f 0000 803f 0000 803f
000001f0: 0000 803f 0000 803f 0000 803f 0000 803f
00000200: 0000 803f 0000 803f 0000 803f 0000 803f
00000210: 0000 803f 0000 803f 0000 803f 0000 803f
00000220: 0000 803f 0000 803f 0000 803f 0000 803f
00000230: 0000 803f 0000 803f 0000 803f 0000 803f
00000240: 0000 803f 0000 803f 0000 803f 0000 803f
00000250: 0000 803f 0000 803f 0000 803f 0000 803f
00000260: 0000 803f 0000 803f 0000 803f 0000 803f
00000270: 0000 803f 0000 803f 0000 803f 0000 803f
00000280: 0000 803f 0000 803f 0000 803f 0000 803f
00000290: 0000 803f 0000 803f 0000 803f 0000 803f
000002a0: 0000 803f 0000 803f 0000 803f 0000 803f
000002b0: 0000 803f 0000 803f 0000 803f 0000 803f
000002c0: 0000 803f 0000 803f 0000 803f 0000 803f
000002d0: 0000 803f 0000 803f 0000 803f 0000 803f
000002e0: 0000 803f 0000 803f 0000 803f 0000 803f
000002f0: 0000 803f 0000 803f 0000 803f 0000 803f
00000300: 0000 803f 0000 803f 0000 803f 0000 803f
00000310: 0000 803f 0000 803f 0000 803f 0000 803f
00000320: 0000 803f 0000 803f 0000 803f 0000 803f
00000330: 0000 803f 0000 803f 0000 803f 0000 803f
00000340: 0000 803f 0000 803f 0000 803f 0000 803f
00000350: 0000 803f 0000 803f 0000 803f 0000 803f
00000360: 0000 803f 0000 803f 0000 803f 0000 803f
00000370: 0000 803f 0000 803f 0000 803f 0000 803f
00000380: 0000 803f 0000 803f 0000 803f 0000 803f
00000390: 0000 803f 0000 803f 0000 803f 0000 803f
000003a0: 0000 803f 0000 803f 0000 803f 0000 803f
000003b0: 0000 803f 0000 803f 0000 803f 0000 803f
000003c0: 0000 803f 0000 803f 0000 803f 0000 803f
000003d0: 0000 803f 0000 803f 0000 803f 0000 803f
000003e0: 0000 803f 0000 803f 0000 803f 0000 803f
000003f0: 0000 803f 0000 803f 0000 803f 0000 803f

act_fun.1.grid f4 [5, 4]
-31.615877 -21.656105 -11.696331 -1.7365589 -32.66372 -22.928755 -13.19379 -3.458828
-40.903114 -28.890392 -16.877672 -4.864952 -34.71652 -23.517061 -12.317604 -1.1181488
-41.406536 -29.170788 -16.93504 -4.699291
00000000: 51ed fcc1 b43f adc1 2c24 3bc1 9047 debf
00000010: a6a7 02c2 176e b7c1 c419 53c1 705d 5dc0
00000020: ca9c 23c2 861f e7c1 7905 87c1 b0ad 9bc0
00000030: b7dd 0ac2 f122 bcc1 e814 45c1 801f 8fbf
00000040: 4ba0 25c2 c65d e9c1 f67a 87c1 9860 96c0

act_fun.1.coef f4 [5, 6]
-0.18789318 -0.118261196 0.039925713 0.016532248 -0.04591067 0.07539362 -0.025853043 -0.037393745
0.014577934 -0.12239326 0.11336147 0.039472073 -0.17938614 -0.052962396 0.053194836 -0.053897917
0.0018948222 0.30297604 0.06477679 0.05579532 0.08231066 -0.13984062 -0.053081207 0.022389477
0.022026518 -0.2471325 -0.068857804 0.0895302 -0.076622225 -0.13454328
00000000: 1267 40be ed32 f2bd 2589 233d a36e 873c
00000010: d40c 3cbd f867 9a3d c3c9 d3bc 2f2a 19bd
00000020: 49d8 6e3c 51a9 fabd 0f2a e83d 78ad 213d
00000030: 00b1 37be 19ef 58bd d4e2 593d 10c4 5cbd
00000040: af5b f83a ad1f 9b3e b2a9 843d a289 643d
00000050: 7e92 a83d 6132 0fbe ae6b 59bd 236a b73c
00000060: f570 b43c 4d10 7dbe 5205 8dbd 9c5b b73d
00000070: 1dec 9cbd b7c5 09be

act_fun.1.scale_base f4 [5]
0.36954635 0.010443413 0.83942 0.1553184 0.15080242
00000000: 2e35 bd3e d91a 2b3c 3be4 563f c90b 1f3e
00000010: f36b 1a3e

act_fun.1.scale_sp f4 [5]
0.8232399 0.84461796 0.61712706 0.89920783 0.881369
00000000: dabf 523f e238 583f 0afc 1d3f 7c32 663f
00000010: 66a1 613f

act_fun.1.mask f4 [5]
1.0 1.0 1.0 1.0 1.0
00000000: 0000 803f 0000 803f 0000 803f 0000 803f
00000010: 0000 803f

act_fun.2.grid f4 [2, 4]
-0.1378404 -0.08438839 -0.030936375 0.02251564 -0.1378404 -0.08438839 -0.030936375 0.02251564
00000000: 0926 0dbe d2d3 acbd 486e fdbc b872 b83c
00000010: 0926 0dbe d2d3 acbd 486e fdbc b872 b83c

act_fun.2.coef f4 [2, 6]
0.7788309 0.761522 0.36080247 0.05613974 -0.14353758 -0.5123573 -0.7021429 -0.71263963
-0.32377505 -0.039336175 0.14764957 0.47812644
00000000: 7661 473f 1bf3 423f 1abb b83e c9f2 653d
00000010: 84fb 12be d929 03bf a3bf 33bf 8d6f 36bf
00000020: d8c5 a5be f81e 21bd 7331 173e fdcc f43e

act_fun.2.scale_base f4 [2]
0.43260947 1.220193
00000000: fd7e dd3e 492f 9c3f

act_fun.2.scale_sp f4 [2]
1.759801 1.7158216
00000000: 2941 e13f 0ba0 db3f

act_fun.2.mask f4 [2]
1.0 1.0
00000000: 0000 803f 0000 803f

symbolic_fun.0.mask f4 [5, 700]
0.0 0.0 0.0 0.0 0.0 0.0 0.0 0.0
0.0 0.0 0.0 0.0 0.0 0.0 0.0 0.0
0.0 0.0 0.0 0.0 0.0 0.0 0.0 0.0
0.0 0.0 0.0 0.0 0.0 0.0 0.0 0.0
0.0 0.0 0.0 0.0 0.0 0.0 0.0 0.0
0.0 0.0 0.0 0.0 0.0 0.0 0.0 0.0
0.0 0.0 0.0 0.0 0.0 0.0 0.0 0.0
0.0 0.0 0.0 0.0 0.0 0.0 0.0 0.0
0.0 0.0 0.0 0.0 0.0 0.0 0.0 0.0
0.0 0.0 0.0 0.0 0.0 0.0 0.0 0.0
0.0 0.0 0.0 0.0 0.0 0.0 0.0 0.0
0.0 0.0 0.0 0.0 0.0 0.0 0.0 0.0
0.0 0.0 0.0 0.0 0.0 0.0 0.0 0.0
0.0 0.0 0.0 0.0 0.0 0.0 0.0 0.0
0.0 0.0 0.0 0.0 0.0 0.0 0.0 0.0
0.0 0.0 0.0 0.0 0.0 0.0 0.0 0.0
0.0 0.0 0.0 0.0 0.0 0.0 0.0 0.0
0.0 0.0 0.0 0.0 0.0 0.0 0.0 0.0
0.0 0.0 0.0 0.0 0.0 0.0 0.0 0.0
0.0 0.0 0.0 0.0 0.0 0.0 0.0 0.0
0.0 0.0 0.0 0.0 0.0 0.0 0.0 0.0
0.0 0.0 0.0 0.0 0.0 0.0 0.0 0.0
0.0 0.0 0.0 0.0 0.0 0.0 0.0 0.0
0.0 0.0 0.0 0.0 0.0 0.0 0.0 0.0
0.0 0.0 0.0 0.0 0.0 0.0 0.0 0.0
0.0 0.0 0.0 0.0 0.0 0.0 0.0 0.0
0.0 0.0 0.0 0.0 0.0 0.0 0.0 0.0
0.0 0.0 0.0 0.0 0.0 0.0 0.0 0.0
0.0 0.0 0.0 0.0 0.0 0.0 0.0 0.0
0.0 0.0 0.0 0.0 0.0 0.0 0.0 0.0
0.0 0.0 0.0 0.0 0.0 0.0 0.0 0.0
0.0 0.0 0.0 0.0 0.0 0.0 0.0 0.0
00000000: 0000 0000 0000 0000 0000 0000 0000 0000
00000010: 0000 0000 0000 0000 0000 0000 0000 0000
00000020: 0000 0000 0000 0000 0000 0000 0000 0000
00000030: 0000 0000 0000 0000 0000 0000 0000 0000
00000040: 0000 0000 0000 0000 0000 0000 0000 0000
00000050: 0000 0000 0000 0000 0000 0000 0000 0000
00000060: 0000 0000 0000 0000 0000 0000 0000 0000
00000070: 0000 0000 0000 0000 0000 0000 0000 0000
00000080: 0000 0000 0000 0000 0000 0000 0000 0000
00000090: 0000 0000 0000 0000 0000 0000 0000 0000
000000a0: 0000 0000 0000 0000 0000 0000 0000 0000
000000b0: 0000 0000 0000 0000 0000 0000 0000 0000
000000c0: 0000 0000 0000 0000 0000 0000 0000 0000
000000d0: 0000 0000 0000 0000 0000 0000 0000 0000
000000e0: 0000 0000 0000 0000 0000 0000 0000 0000
000000f0: 0000 0000 0000 0000 0000 0000 0000 0000
00000100: 0000 0000 0000 0000 0000 0000 0000 0000
00000110: 0000 0000 0000 0000 0000 0000 0000 0000
00000120: 0000 0000 0000 0000 0000 0000 0000 0000
00000130: 0000 0000 0000 0000 0000 0000 0000 0000
00000140: 0000 0000 0000 0000 0000 0000 0000 0000
00000150: 0000 0000 0000 0000 0000 0000 0000 0000
00000160: 0000 0000 0000 0000 0000 0000 0000 0000
00000170: 0000 0000 0000 0000 0000 0000 0000 0000
00000180: 0000 0000 0000 0000 0000 0000 0000 0000
00000190: 0000 0000 0000 0000 0000 0000 0000 0000
000001a0: 0000 0000 0000 0000 0000 0000 0000 0000
000001b0: 0000 0000 0000 0000 0000 0000 0000 0000
000001c0: 0000 0000 0000 0000 0000 0000 0000 0000
000001d0: 0000 0000 0000 0000 0000 0000 0000 0000
000001e0: 0000 0000 0000 0000 0000 0000 0000 0000
000001f0: 0000 0000 0000 0000 0000 0000 0000 0000
00000200: 0000 0000 0000 0000 0000 0000 0000 0000
00000210: 0000 0000 0000 0000 0000 0000 0000 0000
00000220: 0000 0000 0000 0000 0000 0000 0000 0000
00000230: 0000 0000 0000 0000 0000 0000 0000 0000
00000240: 0000 0000 0000 0000 0000 0000 0000 0000
00000250: 0000 0000 0000 0000 0000 0000 0000 0000
00000260: 0000 0000 0000 0000 0000 0000 0000 0000
00000270: 0000 0000 0000 0000 0000 0000 0000 0000
00000280: 0000 0000 0000 0000 0000 0000 0000 0000
00000290: 0000 0000 0000 0000 0000 0000 0000 0000
000002a0: 0000 0000 0000 0000 0000 0000 0000 0000
000002b0: 0000 0000 0000 0000 0000 0000 0000 0000
000002c0: 0000 0000 0000 0000 0000 0000 0000 0000
000002d0: 0000 0000 0000 0000 0000 0000 0000 0000
000002e0: 0000 0000 0000 0000 0000 0000 0000 0000
000002f0: 0000 0000 0000 0000 0000 0000 0000 0000
00000300: 0000 0000 0000 0000 0000 0000 0000 0000
00000310: 0000 0000 0000 0000 0000 0000 0000 0000
00000320: 0000 0000 0000 0000 0000 0000 0000 0000
00000330: 0000 0000 0000 0000 0000 0000 0000 0000
00000340: 0000 0000 0000 0000 0000 0000 0000 0000
00000350: 0000 0000 0000 0000 0000 0000 0000 0000
00000360: 0000 0000 0000 0000 0000 0000 0000 0000
00000370: 0000 0000 0000 0000 0000 0000 0000 0000
00000380: 0000 0000 0000 0000 0000 0000 0000 0000
00000390: 0000 0000 0000 0000 0000 0000 0000 0000
000003a0: 0000 0000 0000 0000 0000 0000 0000 0000
000003b0: 0000 0000 0000 0000 0000 0000 0000 0000
000003c0: 0000 0000 0000 0000 0000 0000 0000 0000
000003d0: 0000 0000 0000 0000 0000 0000 0000 0000
000003e0: 0000 0000 0000 0000 0000 0000 0000 0000
000003f0: 0000 0000 0000 0000 0000 0000 0000 0000

symbolic_fun.0.affine f4 [5, 700, 4]
0.0 0.0 0.0 0.0 0.0 0.0 0.0 0.0
0.0 0.0 0.0 0.0 0.0 0.0 0.0 0.0
0.0 0.0 0.0 0.0 0.0 0.0 0.0 0.0
0.0 0.0 0.0 0.0 0.0 0.0 0.0 0.0
0.0 0.0 0.0 0.0 0.0 0.0 0.0 0.0
0.0 0.0 0.0 0.0 0.0 0.0 0.0 0.0
0.0 0.0 0.0 0.0 0.0 0.0 0.0 0.0
0.0 0.0 0.0 0.0 0.0 0.0 0.0 0.0
0.0 0.0 0.0 0.0 0.0 0.0 0.0 0.0
0.0 0.0 0.0 0.0 0.0 0.0 0.0 0.0
0.0 0.0 0.0 0.0 0.0 0.0 0.0 0.0
0.0 0.0 0.0 0.0 0.0 0.0 0.0 0.0
0.0 0.0 0.0 0.0 0.0 0.0 0.0 0.0
0.0 0.0 0.0 0.0 0.0 0.0 0.0 0.0
0.0 0.0 0.0 0.0 0.0 0.0 0.0 0.0
0.0 0.0 0.0 0.0 0.0 0.0 0.0 0.0
0.0 0.0 0.0 0.0 0.0 0.0 0.0 0.0
0.0 0.0 0.0 0.0 0.0 0.0 0.0 0.0
0.0 0.0 0.0 0.0 0.0 0.0 0.0 0.0
0.0 0.0 0.0 0.0 0.0 0.0 0.0 0.0
0.0 0.0 0.0 0.0 0.0 0.0 0.0 0.0
0.0 0.0 0.0 0.0 0.0 0.0 0.0 0.0
0.0 0.0 0.0 0.0 0.0 0.0 0.0 0.0
0.0 0.0 0.0 0.0 0.0 0.0 0.0 0.0
0.0 0.0 0.0 0.0 0.0 0.0 0.0 0.0
0.0 0.0 0.0 0.0 0.0 0.0 0.0 0.0
0.0 0.0 0.0 0.0 0.0 0.0 0.0 0.0
0.0 0.0 0.0 0.0 0.0 0.0 0.0 0.0
0.0 0.0 0.0 0.0 0.0 0.0 0.0 0.0
0.0 0.0 0.0 0.0 0.0 0.0 0.0 0.0
0.0 0.0 0.0 0.0 0.0 0.0 0.0 0.0
0.0 0.0 0.0 0.0 0.0 0.0 0.0 0.0
00000000: 0000 0000 0000 0000 0000 0000 0000 0000
00000010: 0000 0000 0000 0000 0000 0000 0000 0000
00000020: 0000 0000 0000 0000 0000 0000 0000 0000
00000030: 0000 0000 0000 0000 0000 0000 0000 0000
00000040: 0000 0000 0000 0000 0000 0000 0000 0000
00000050: 0000 0000 0000 0000 0000 0000 0000 0000
00000060: 0000 0000 0000 0000 0000 0000 0000 0000
00000070: 0000 0000 0000 0000 0000 0000 0000 0000
00000080: 0000 0000 0000 0000 0000 0000 0000 0000
00000090: 0000 0000 0000 0000 0000 0000 0000 0000
000000a0: 0000 0000 0000 0000 0000 0000 0000 0000
000000b0: 0000 0000 0000 0000 0000 0000 0000 0000
000000c0: 0000 0000 0000 0000 0000 0000 0000 0000
000000d0: 0000 0000 0000 0000 0000 0000 0000 0000
000000e0: 0000 0000 0000 0000 0000 0000 0000 0000
000000f0: 0000 0000 0000 0000 0000 0000 0000 0000
00000100: 0000 0000 0000 0000 0000 0000 0000 0000
00000110: 0000 0000 0000 0000 0000 0000 0000 0000
00000120: 0000 0000 0000 0000 0000 0000 0000 0000
00000130: 0000 0000 0000 0000 0000 0000 0000 0000
00000140: 0000 0000 0000 0000 0000 0000 0000 0000
00000150: 0000 0000 0000 0000 0000 0000 0000 0000
00000160: 0000 0000 0000 0000 0000 0000 0000 0000
00000170: 0000 0000 0000 0000 0000 0000 0000 0000
00000180: 0000 0000 0000 0000 0000 0000 0000 0000
00000190: 0000 0000 0000 0000 0000 0000 0000 0000
000001a0: 0000 0000 0000 0000 0000 0000 0000 0000
000001b0: 0000 0000 0000 0000 0000 0000 0000 0000
000001c0: 0000 0000 0000 0000 0000 0000 0000 0000
000001d0: 0000 0000 0000 0000 0000 0000 0000 0000
000001e0: 0000 0000 0000 0000 0000 0000 0000 0000
000001f0: 0000 0000 0000 0000 0000 0000 0000 0000
00000200: 0000 0000 0000 0000 0000 0000 0000 0000
00000210: 0000 0000 0000 0000 0000 0000 0000 0000
00000220: 0000 0000 0000 0000 0000 0000 0000 0000
00000230: 0000 0000 0000 0000 0000 0000 0000 0000
00000240: 0000 0000 0000 0000 0000 0000 0000 0000
00000250: 0000 0000 0000 0000 0000 0000 0000 0000
00000260: 0000 0000 0000 0000 0000 0000 0000 0000
00000270: 0000 0000 0000 0000 0000 0000 0000 0000
00000280: 0000 0000 0000 0000 0000 0000 0000 0000
00000290: 0000 0000 0000 0000 0000 0000 0000 0000
000002a0: 0000 0000 0000 0000 0000 0000 0000 0000
000002b0: 0000 0000 0000 0000 0000 0000 0000 0000
000002c0: 0000 0000 0000 0000 0000 0000 0000 0000
000002d0: 0000 0000 0000 0000 0000 0000 0000 0000
000002e0: 0000 0000 0000 0000 0000 0000 0000 0000
000002f0: 0000 0000 0000 0000 0000 0000 0000 0000
00000300: 0000 0000 0000 0000 0000 0000 0000 0000
00000310: 0000 0000 0000 0000 0000 0000 0000 0000
00000320: 0000 0000 0000 0000 0000 0000 0000 0000
00000330: 0000 0000 0000 0000 0000 0000 0000 0000
00000340: 0000 0000 0000 0000 0000 0000 0000 0000
00000350: 0000 0000 0000 0000 0000 0000 0000 0000
00000360: 0000 0000 0000 0000 0000 0000 0000 0000
00000370: 0000 0000 0000 0000 0000 0000 0000 0000
00000380: 0000 0000 0000 0000 0000 0000 0000 0000
00000390: 0000 0000 0000 0000 0000 0000 0000 0000
000003a0: 0000 0000 0000 0000 0000 0000 0000 0000
000003b0: 0000 0000 0000 0000 0000 0000 0000 0000
000003c0: 0000 0000 0000 0000 0000 0000 0000 0000
000003d0: 0000 0000 0000 0000 0000 0000 0000 0000
000003e0: 0000 0000 0000 0000 0000 0000 0000 0000
000003f0: 0000 0000 0000 0000 0000 0000 0000 0000

symbolic_fun.1.mask f4 [1, 5]
0.0 0.0 0.0 0.0 0.0
00000000: 0000 0000 0000 0000 0000 0000 0000 0000
00000010: 0000 0000

symbolic_fun.1.affine f4 [1, 5, 4]
0.0 0.0 0.0 0.0 0.0 0.0 0.0 0.0
0.0 0.0 0.0 0.0 0.0 0.0 0.0 0.0
0.0 0.0 0.0 0.0
00000000: 0000 0000 0000 0000 0000 0000 0000 0000
00000010: 0000 0000 0000 0000 0000 0000 0000 0000
00000020: 0000 0000 0000 0000 0000 0000 0000 0000
00000030: 0000 0000 0000 0000 0000 0000 0000 0000
00000040: 0000 0000 0000 0000 0000 0000 0000 0000

symbolic_fun.2.mask f4 [2, 1]
0.0 0.0
00000000: 0000 0000 0000 0000

symbolic_fun.2.affine f4 [2, 1, 4]
0.0 0.0 0.0 0.0 0.0 0.0 0.0 0.0
00000000: 0000 0000 0000 0000 0000 0000 0000 0000
00000010: 0000 0000 0000 0000 0000 0000 0000 0000
