workspace/results/simulation/KAN_All/6/KAN-1Hidden.ckpt (torch, 5622 bytes, 15 tensors)

biases.1.weight f4 [1, 2]
-0.057269625 -0.06450455
00000000: 8e93 6abd f61a 84bd

act_fun.0.grid f4 [2, 4]
-0.01 0.33 0.67 1.01 -0.01 0.33 0.67 1.01
00000000: 0ad7 23bc c3f5 a83e 1f85 2b3f ae47 813f
00000010: 0ad7 23bc c3f5 a83e 1f85 2b3f ae47 813f

act_fun.0.coef f4 [2, 6]
0.2903494 0.013692355 -0.22118506 0.103488296 -0.19808878 -0.43921065 0.0294223 -0.13339747
-0.22326164 0.08776971 -0.106282234 -0.07992442
00000000: ada8 943e e655 603c 567e 62be acf1 d33d
00000010: c9d7 4abe 38e0 e0be 0907 f13c 5999 08be
00000020: b39e 64be 9bc0 b33d 80aa d9bd 6aaf a3bd

act_fun.0.scale_base f4 [2]
0.83938205 0.5157451
00000000: bee1 563f df07 043f

act_fun.0.scale_sp f4 [2]
1.2901114 1.2332208
00000000: 5f22 a53f 2eda 9d3f

act_fun.0.mask f4 [2]
1.0 1.0
00000000: 0000 803f 0000 803f

act_fun.1.grid f4 [2, 4]
-0.117156275 0.16851515 0.45418656 0.7398579 -0.117156275 0.16851515 0.45418656 0.7398579
00000000: a1ef efbd 3c8f 2c3e 248b e83e 5467 3d3f
00000010: a1ef efbd 3c8f 2c3e 248b e83e 5467 3d3f

act_fun.1.coef f4 [2, 6]
0.7250646 0.1526924 -0.23159063 -0.08022774 0.36430195 0.50510633 -0.39722157 -0.00067664013
0.19462414 -0.15178342 -0.7465702 -0.7704014
00000000: d59d 393f 665b 1c3e 1826 6dbe 714e a4bd
00000010: c985 ba3e a64e 013f a060 cbbe 8d60 31ba
00000020: 8d4b 473e 1d6d 1bbe 3a1f 3fbf 0739 45bf

act_fun.1.scale_base f4 [2]
0.9621906 0.81892216
00000000: 2052 763f e2a4 513f

act_fun.1.scale_sp f4 [2]
1.5161382 1.7081169
00000000: d110 c23f 93a3 da3f

act_fun.1.mask f4 [2]
1.0 1.0
00000000: 0000 803f 0000 803f

symbolic_fun.0.mask f4 [1, 2]
0.0 0.0
00000000: 0000 0000 0000 0000

symbolic_fun.0.affine f4 [1, 2, 4]
0.0 0.0 0.0 0.0 0.0 0.0 0.0 0.0
00000000: 0000 0000 0000 0000 0000 0000 0000 0000
00000010: 0000 0000 0000 0000 0000 0000 0000 0000

symbolic_fun.1.mask f4 [2, 1]
0.0 0.0
00000000: 0000 0000 0000 0000

symbolic_fun.1.affine f4 [2, 1, 4]
0.0 0.0 0.0 0.0 0.0 0.0 0.0 0.0
00000000: 0000 0000 0000 0000 0000 0000 0000 0000
00000010: 0000 0000 0000 0000 0000 0000 0000 0000
