workspace/results/simulation/KAN_All/3/KAN-1Hidden.ckpt (torch, 5622 bytes, 15 tensors)

biases.1.weight f4 [1, 2]
000000 3e e4 70 bd 7f 74 85 bd
       -0.05881142 -0.065163605

act_fun.0.grid f4 [2, 4]
000000 0a d7 23 bc c3 f5 a8 3e 1f 85 2b 3f ae 47 81 3f
       -0.01 0.33 0.67 1.01
000010 0a d7 23 bc c3 f5 a8 3e 1f 85 2b 3f ae 47 81 3f
       -0.01 0.33 0.67 1.01

act_fun.0.coef f4 [2, 6]
000000 5d 00 e9 3d 0b 28 f9 bc 64 c3 42 be d0 48 e4 3d
       0.113770224 -0.030414602 -0.19019848 0.111467004
000010 d7 7e 54 be e8 ed 9a be 43 90 66 3c 8e df 13 be
       -0.2075151 -0.30259633 0.014072481 -0.14440748
000020 28 bc 4e be 87 ad a1 3d b0 2e 8e bd c3 92 0f be
       -0.20188963 0.07894426 -0.06942499 -0.14020829

act_fun.0.scale_base f4 [2]
000000 e4 7c 59 3f 50 e6 05 3f
       0.8495619 0.52304554

act_fun.0.scale_sp f4 [2]
000000 f3 56 a0 3f 64 0d 9b 3f
       1.2526535 1.2113461

act_fun.0.mask f4 [2]
000000 00 00 80 3f 00 00 80 3f
       1.0 1.0

act_fun.1.grid f4 [2, 4]
000000 8a b5 ef bd 4f df 2c 3e b2 cc e8 3e dd 94 3d 3f
       -0.11704548 0.1688206 0.4546867 0.7405527
000010 8a b5 ef bd 4f df 2c 3e b2 cc e8 3e dd 94 3d 3f
       -0.11704548 0.1688206 0.4546867 0.7405527

act_fun.1.coef f4 [2, 6]
000000 16 bf 70 3f a3 48 35 3e a2 83 3d be a9 38 09 be
       0.94041574 0.1770349 -0.18507245 -0.1340052
000010 10 2e 39 3e 75 0c 2a 3f 1c 9b 23 bf 32 94 9e bc
       0.18083978 0.6642526 -0.63908553 -0.019357774
000020 6b d8 20 3e a3 fc c0 bd d8 1f 1d bf ab cf 75 bf
       0.15707557 -0.09423187 -0.61376715 -0.9602

act_fun.1.scale_base f4 [2]
000000 02 59 64 3f 67 6c 5f 3f
       0.89198315 0.87274784

act_fun.1.scale_sp f4 [2]
000000 02 d5 c5 3f 7b 13 d6 3f
       1.545563 1.6724695

act_fun.1.mask f4 [2]
000000 00 00 80 3f 00 00 80 3f
       1.0 1.0

symbolic_fun.0.mask f4 [1, 2]
000000 00 00 00 00 00 00 00 00
       0.0 0.0

symbolic_fun.0.affine f4 [1, 2, 4]
000000 00 00 00 00 00 00 00 00 00 00 00 00 00 00 00 00
       0.0 0.0 0.0 0.0
000010 00 00 00 00 00 00 00 00 00 00 00 00 00 00 00 00
       0.0 0.0 0.0 0.0

symbolic_fun.1.mask f4 [2, 1]
000000 00 00 00 00 00 00 00 00
       0.0 0.0

symbolic_fun.1.affine f4 [2, 1, 4]
000000 00 00 00 00 00 00 00 00 00 00 00 00 00 00 00 00
       0.0 0.0 0.0 0.0
000010 00 00 00 00 00 00 00 00 00 00 00 00 00 00 00 00
       0.0 0.0 0.0 0.0
