workspace/results/simulation/KAN_All/1/KAN-1Hidden.ckpt (torch, 5622 bytes, 15 tensors)

biases.1.weight f4 [1, 2]
-0.065278344 -0.059321027
00000000: a7b0 85bd 9bfa 72bd

act_fun.0.grid f4 [2, 4]
-0.01 0.33 0.67 1.01 -0.01 0.33 0.67 1.01
00000000: 0ad7 23bc c3f5 a83e 1f85 2b3f ae47 813f
00000010: 0ad7 23bc c3f5 a83e 1f85 2b3f ae47 813f

act_fun.0.coef f4 [2, 6]
0.12122877 -0.06811148 -0.16933246 0.103406094 -0.2034874 -0.24039115 -0.0415165 -0.11821461
-0.22270061 0.08990504 -0.04180988 -0.11730759
00000000: ca46 f83d 087e 8bbd 7d65 2dbe 93c6 d33d
00000010: 005f 50be 1929 76be 350d 2abd 801a f2bd
00000020: a10b 64be 2220 b83d d640 2bbd f63e f0bd

act_fun.0.scale_base f4 [2]
0.85587764 0.5326399
00000000: cc1a 5b3f 175b 083f

act_fun.0.scale_sp f4 [2]
1.2280989 1.2239441
00000000: 5832 9d3f 33aa 9c3f

act_fun.0.mask f4 [2]
1.0 1.0
00000000: 0000 803f 0000 803f

act_fun.1.grid f4 [2, 4]
-0.11741323 0.16824913 0.45391148 0.73957384 -0.11741323 0.16824913 0.45391148 0.73957384
00000000: 5976 f0bd 8049 2c3e 1667 e83e b654 3d3f
00000010: 5976 f0bd 8049 2c3e 1667 e83e b654 3d3f

act_fun.1.coef f4 [2, 6]
0.7417743 0.14844266 -0.21166225 -0.07568415 0.27233642 0.53236604 -0.39769304 0.009455038
0.1789372 -0.16880555 -0.66761684 -0.8002972
00000000: ece4 3d3f 5a01 183e fdbd 58be 4b00 9bbd
00000010: ae6f 8b3e 2449 083f 6c9e cbbe 4ee9 1a3c
00000020: 503b 373e 5ddb 2cbe f0e8 2abf 47e0 4cbf

act_fun.1.scale_base f4 [2]
0.9442719 0.83170366
00000000: cebb 713f 88ea 543f

act_fun.1.scale_sp f4 [2]
1.4498641 1.6638027
00000000: 2695 b93f 7df7 d43f

act_fun.1.mask f4 [2]
1.0 1.0
00000000: 0000 803f 0000 803f

symbolic_fun.0.mask f4 [1, 2]
0.0 0.0
00000000: 0000 0000 0000 0000

symbolic_fun.0.affine f4 [1, 2, 4]
0.0 0.0 0.0 0.0 0.0 0.0 0.0 0.0
00000000: 0000 0000 0000 0000 0000 0000 0000 0000
00000010: 0000 0000 0000 0000 0000 0000 0000 0000

symbolic_fun.1.mask f4 [2, 1]
0.0 0.0
00000000: 0000 0000 0000 0000

symbolic_fun.1.affine f4 [2, 1, 4]
0.0 0.0 0.0 0.0 0.0 0.0 0.0 0.0
00000000: 0000 0000 0000 0000 0000 0000 0000 0000
00000010: 0000 0000 0000 0000 0000 0000 0000 0000
