workspace/results/ascad/MLP_ASCADf/MLP.pt (torch, 59360 bytes, 6 tensors)

0.weight f4 [20, 700]
-0.18776673 -0.09608701 0.024903476 0.11184835 0.12201687 -0.009665655 0.10545925 -0.016603045
0.19687696 0.0628126 -0.00064053276 0.051846262 0.09334051 -0.012382826 0.05451263 -0.18831275
-0.096636266 -0.018220428 0.025075592 0.03652877 0.16458552 -0.22178715 -0.028418953 0.101051785
-0.117298774 -0.020608071 -0.02890396 -0.06893798 -0.016129669 0.019705504 0.00957729 0.024094025
-0.09895841 -0.1511943 -0.025456088 -0.10519724 -0.12158449 -0.08717012 -0.15311694 0.007917917
0.10657454 0.099865556 -0.004902431 0.009732362 -0.014854832 0.07332463 -0.0033778509 0.039926294
-0.008697831 0.008584542 -0.031086626 -0.07467651 -0.10319838 0.061443526 0.21980205 0.015925609
-0.025254278 0.23841901 0.027052032 -0.09548925 -0.049935497 -0.024074806 -0.0014158398 0.1761818
-0.0057087047 0.07533063 -0.0911806 0.13008109 0.018538244 0.067424834 -0.032792393 0.036501184
-0.07517605 0.007018788 -0.012403639 0.1695314 -0.18549895 0.23142518 0.05978905 -0.12172503
-0.02618209 0.057128686 0.012942763 0.08185707 -0.11724688 -0.14991224 -0.048552535 0.09658912
0.019321619 -0.00040817173 -0.06072178 0.026747074 -0.11123548 0.08950251 0.054233875 -0.092736855
0.13786769 0.024378862 0.04015263 0.093519785 0.1281681 0.15863417 0.092938475 -0.01605512
0.19810449 -0.06359403 0.101214886 0.06306341 0.088298455 -0.10439302 -0.027692214 -0.002174703
-0.043606672 0.01485422 0.08962449 0.22703071 0.026009161 0.07982186 -0.040560547 0.050612666
0.08939772 -0.13238117 -0.08386474 -0.10864796 -0.15906307 -0.20059109 -0.2152261 -0.15350255
0.014830859 -0.066736266 -0.11353465 -0.00952145 -0.051745087 0.0013094741 0.12050631 0.026581721
0.061027523 0.028187579 0.19011891 -0.037410602 0.062907055 0.20377892 0.07751802 -0.0032922984
-0.1827278 -0.0122791445 -0.15154348 -0.09507887 0.08106066 -0.0846939 0.23356007 -0.12952048
-0.09765118 -0.005466654 0.09113649 -0.14498843 0.01665322 -0.28680667 -0.027824737 -0.0850623
-0.06811372 0.09720961 0.027696028 -0.11127378 0.066729 -0.0638708 -0.016215663 0.06503128
-0.13063592 -0.079536825 0.023984691 -0.040910132 0.050219562 0.0608463 0.21608075 0.13651639
0.31760368 0.2595332 0.23865837 0.09896504 0.033213794 0.030708322 -0.00057112466 0.26524752
0.09330331 0.12528321 0.32701665 -0.010888747 0.07861392 -0.0022678908 -0.19209602 -0.004389502
-0.13812992 -0.036582023 0.039513916 -0.12320426 0.042184405 0.04363564 0.06937529 -0.020890243
0.09373487 -0.031557452 -0.056036815 -0.1313771 -0.17490055 -0.038045574 0.029248575 0.15014035
0.033370707 0.22405581 -0.07856313 0.09958792 0.04595902 0.04316386 0.085889235 -0.12652156
0.08463863 0.084973976 -0.01667348 -0.20132744 0.13919422 -0.050527442 -0.020406267 0.0037361975
-0.01603206 0.0910764 0.0053075384 -0.10471146 0.058093853 0.093245216 0.069196396 -0.08267793
0.013603438 -0.015249669 -0.011323939 0.031243404 -0.023945287 -0.014297192 0.020641105 0.12536035
0.13698839 -0.10457617 0.066206254 0.07217239 -0.0104745785 0.07455207 -0.0003942262 -0.02539848
0.104625076 0.046617597 0.037533015 0.05842195 0.036967248 -0.023555394 0.021178817 0.051366903
00000000: ec45 40be 44c9 c4bd 6002 cc3c bf10 e53d
00000010: fbe3 f93d b25c 1ebc 05fb d73d 1c03 88bc
00000020: 1d9a 493e e4a3 803d 6de9 27ba bf5c 543d
00000030: 4f29 bf3d 56e1 4abc a348 5f3d 0fd5 40be
00000040: 3ce9 c5bd 0243 95bc 546b cd3c 319f 153d
00000050: 1b89 283e 2c1c 63be ddce e8bc 3df4 ce3d
00000060: 573a f0bd 42d2 a8bc ffc7 ecbc 5b2f 8dbd
00000070: 5e22 84bc 706d a13c 11ea 1c3c d560 c53c
00000080: b5aa cabd aed2 1abe 4989 d0bc a771 d7bd
00000090: 4a01 f9bd 3f86 b2bd b0ca 1cbe 27ba 013c
000000a0: c143 da3d 5086 cc3d 92a4 a0bb 7c74 1f3c
000000b0: ae61 73bc 392b 963d ef5e 5dbb c189 233d
000000c0: 5981 0ebc 2ea6 0c3c 61a9 febc 00f0 98bd
000000d0: ac59 d3bd 35ac 7b3d ca13 613e 6c76 823c
000000e0: 0fe2 cebc 1d24 743e 399c dd3c de8f c3bd
000000f0: 2a89 4cbd 8738 c5bc b393 b9ba 0069 343e
00000100: 1610 bbbb f246 9a3d e5bc babd fa33 053e
00000110: 84dd 973c 0816 8a3d 5151 06bd 4482 153d
00000120: e7f5 99bd dcfd e53b a238 4bbc a499 2d3e
00000130: 70f3 3dbe b9fa 6c3e 5de5 743d f94a f9bd
00000140: d37b d6bc c5ff 693d e20d 543c aea4 a73d
00000150: 221f f0bd 9882 19be 06df 46bd 84d0 c53d
00000160: 5f48 9e3c e2ff d5b9 67b7 78bd ae1c db3c
00000170: 6dcf e3bd 184d b73d 5724 5e3d d2ec bdbd
00000180: 302d 0d3e 2eb6 c73c 1677 243d 4d87 bf3d
00000190: 803e 033e ff70 223e 8756 be3d 0786 83bc
000001a0: e7db 4a3e 963d 82bd c049 cf3d 6427 813d
000001b0: d2d5 b43d 02cc d5bd c8da e2bc 7685 0ebb
000001c0: e99c 32bd 1d5f 733c 0b8d b73d bd7a 683e
000001d0: 2a11 d53c a579 a33d d122 26bd 3a4f 4f3d
000001e0: 2716 b73d ee8e 07be 47c1 abbd d282 debd
000001f0: 6ee1 22be c067 4dbe 3b64 5cbe c62f 1dbe
00000200: 22fd 723c 06ad 88bd db84 e8bd dbff 1bbc
00000210: a8f2 53bd a9a2 ab3a 03cc f63d e9c1 d93c
00000220: fff7 793d a3e9 e63c 88ae 423e dc3b 19bd
00000230: 6ad5 803d 6cab 503e c5c1 9e3d 9ac3 57bb
00000240: ff1c 3bbe 772e 49bc 372e 1bbe b6b8 c2bd
00000250: 2203 a63d ff73 adbd 5f2a 6f3e 04a1 04be
00000260: 58fd c7bd 9e21 b3bb c5a5 ba3d d977 14be
00000270: 556c 883c 53d8 92be b4f0 e3bc 2535 aebd
00000280: 357f 8bbd d515 c73d c8e2 e23c 82e3 e3bd
00000290: 37a9 883d b2ce 82bd b6d6 84bc 1f2f 853d
000002a0: 6cc5 05be 34e4 a2bd 8b7b c43c 6291 27bd
000002b0: 07b3 4d3d f839 793d 4644 5d3e f4ca 0b3e
000002c0: f39c a23e 89e1 843e dc62 743e 2fae ca3d
000002d0: 300b 083d 0590 fb3c 87b7 15ba 86ce 873e
000002e0: ce15 bf3d 3e4a 003e ba6e a73e b766 32bc
000002f0: 5600 a13d e5a0 14bb d2b4 44be d0d5 8fbb
00000300: ee71 0dbe 08d7 15bd 58d9 213d 8452 fcbd
00000310: 8ec9 2c3d 49bb 323d a214 8e3d 0422 abbc
00000320: 11f8 bf3d 6342 01bd dc86 65bd b887 06be
00000330: 2119 33be add5 1bbd b59a ef3c 64be 193e
00000340: b9af 083d e36e 653e b5e5 a0bd c0f4 cb3d
00000350: 863f 3c3d 96cc 303d b2e6 af3d de8e 01be
00000360: 0557 ad3d d606 ae3d d296 88bc c828 4ebe
00000370: ee88 0e3e ddf5 4ebd 0b2b a7bc feda 743b
00000380: ab55 83bc 4386 ba3d dcea ad3b f672 d6bd
00000390: d2f3 6d3d 59f7 be3d d7b6 8d3d 0c53 a9bd
000003a0: f4e0 5e3c bfd9 79bc 0b88 39bc 2bf2 ff3c
000003b0: e828 c4bc c53e 6abc 8917 a93c 775e 003e
000003c0: af46 0c3e 082c d6bd 2597 873d 1ecf 933d
000003d0: 919d 2bbc c1ae 983d 25b0 ceb9 7910 d0bc
000003e0: ac45 d63d 18f2 3e3d 38bc 193d db4b 6f3d
000003f0: f86a 173d 3ef7 c0bc 337f ad3c 1a66 523d

0.bias f4 [20]
-0.030878795 -0.17221789 -0.3270415 0.07206513 -0.022779562 -0.03562791 0.1345622 -0.4827551
-0.13719675 -0.353353 -0.023540948 0.07530526 -0.12943646 0.2103618 -0.17350529 -0.1803997
-0.18518476 -0.22572428 -0.06503932 -0.13632305
00000000: 87f5 fcbc e359 30be fc71 a7be e296 933d
00000010: 349c babc 92ee 11bd acca 093e ad2b f7be
00000020: 4e7d 0cbe afea b4be f2d8 c0bc a539 9a3d
00000030: fe8a 04be 1569 573e 5fab 31be b3ba 38be
00000040: 13a1 3dbe 4424 67be 5633 85bd 4598 0bbe

2.weight f4 [10, 20]
-0.64463186 0.43824613 0.17322992 0.505269 0.045905426 -0.04918376 0.15856573 0.25637266
0.34748816 0.19422786 -0.07710757 -0.527639 0.0031027228 -0.1539912 0.06533913 0.3733527
0.20053309 0.22933957 -0.10724748 -0.14913698 0.36104095 -0.5003957 -0.51460546 0.3695252
0.39889443 0.25941893 -0.09508179 -0.42302144 -0.1747718 -0.6280003 -0.15682988 0.053950563
0.43689296 -0.21059269 -0.28487203 0.05350733 0.023558792 0.3923011 0.13118866 -0.23401539
0.015073167 -0.17010508 -0.0030426958 0.52780885 -0.42110395 -0.17812365 0.45353678 0.19019131
0.05050609 0.26158172 -0.2105207 -0.7979043 0.32996204 -0.56553644 0.20343645 0.36897624
-0.016646286 -0.6440525 -0.67609507 -0.30753952 0.35087836 0.042763244 0.0368128 0.18369927
-0.11706471 -0.7587839 0.17340867 0.18646467 0.47983855 0.14062731 0.06151414 0.18593502
-0.09078515 0.045896187 -0.1069223 -0.28328928 -0.32475755 0.24452037 0.08262143 0.2071095
0.31651673 -0.3188973 -0.26219133 0.16522363 0.2642758 -0.30466503 0.14754125 -0.25850892
-0.13868171 0.37590507 0.25317636 -0.45927128 -0.31340358 -0.51242185 0.12006555 0.28881234
0.3466906 0.26702183 0.24674425 -0.70783293 0.26338065 -0.02063109 -0.3077868 -0.011962936
0.3220642 0.2576687 -0.32215267 -0.20158552 0.3289725 -0.15192102 -1.206521 0.40896207
0.37852117 0.49391598 -0.5287166 -0.49000221 -0.6140718 0.609698 -0.80238134 0.34879956
0.15331699 -0.22998734 -0.40689257 0.25071755 0.31412995 0.1629378 0.27316564 0.22358973
-0.39101282 -0.123333275 0.03412111 0.15024851 0.31215832 -0.1947856 -1.1495152 0.12682499
0.19293416 0.2796521 0.21720968 -0.28860325 -0.06255677 -0.07251512 -0.06363128 0.3894003
0.3084524 0.14116836 0.14114487 0.39233595 0.28651163 0.21238053 0.37512013 -0.2315261
-0.18554108 -0.33767414 0.24363269 -0.002061493 -0.9652416 -0.24491137 -0.26018107 -0.17638384
-0.22875312 0.021451324 0.08310282 -0.51941323 0.053575467 0.21964313 0.051118422 -0.108253285
-0.412888 -0.3168761 0.31563976 -0.3548157 -0.10211033 0.10808234 0.37974954 0.23038512
0.4231976 -0.13195193 -0.07038426 0.27100262 -0.4092609 0.39188647 0.07480831 -0.44163844
0.121601805 0.17272645 -0.7445926 0.31340358 -0.108057454 -0.36607674 0.19721368 0.4870593
-0.32899773 0.5665698 -0.19743255 -0.49999276 0.20215623 0.16498102 0.41180587 -0.4038321
00000000: 9806 25bf cc61 e03e 2f63 313e 4f59 013f
00000010: 5407 3c3d e974 49bd 0e5f 223e 4743 833e
00000020: f8e9 b13e abe3 463e 93ea 9dbd 5913 07bf
00000030: 0d57 4b3b deaf 1dbe 86d0 853d 1628 bf3e
00000040: 8c58 4d3e fed7 6a3e 91a4 dbbd 5db7 18be
00000050: 5cda b83e ef19 00bf 2fbd 03bf 6832 bd3e
00000060: e43b cc3e 8fd2 843e 3eba c2bd 4496 d8be
00000070: 61f7 32be a1c4 20bf 0398 20be 44fb 5c3d
00000080: 6fb0 df3e 9ca5 57be bfda 91be 812a 5b3d
00000090: 5efe c03c b1db c83e 5256 063e bba1 6fbe
000000a0: 72f5 763c 0730 2ebe f767 47bb 7b1e 073f
000000b0: f09a d7be 0c66 36be f935 e83e 83c1 423e
000000c0: 79df 4e3d 0aee 853e bd92 57be 7543 4cbf
000000d0: c9f0 a83e ffc6 10bf a551 503e 74ea bc3e
000000e0: cb5d 88bc a0e0 24bf 9114 2dbf d275 9dbe
000000f0: 54a6 b33e 8328 2f3d 05c9 163d a91b 3c3e
00000100: 9fbf efbd a93f 42bf 0b92 313e 98f0 3e3e
00000110: 66ad f53e 9b00 103e 40f6 7b3d c065 3e3e
00000120: 91ed b9bd a4fd 3b3d 14fa dabd 4b0b 91be
00000130: 9f46 a6be 8c63 7a3e 6d35 a93d 8314 543e
00000140: 7b0e a23e 8246 a3be f13d 86be 6230 293e
00000150: 284f 873e 0efd 9bbe 0e15 173e 485b 84be
00000160: 9402 0ebe a176 c03e 55a0 813e 9b25 ebbe
00000170: 6f76 a0be 142e 03bf ede4 f53d 36df 933e
00000180: 6e81 b13e 16b7 883e 86aa 7c3e 8a34 35bf
00000190: d4d9 863e 8802 a9bc 3b96 9dbe 3100 44bc
000001a0: 99e5 a43e 27ed 833e 32f1 a4be 6f6c 4ebe
000001b0: 156f a83e 2f91 1bbe 486f 9abf 7a63 d13e
000001c0: 87cd c13e 8ee2 fc3e f959 07bf 92e1 fabe
000001d0: cf33 1dbf 2b15 1c3f dd68 4dbf db95 b23e
000001e0: 21ff 1c3e cd81 6bbe 3954 d0be 0d5e 803e
000001f0: a4d5 a03e 2bd9 263e 5edc 8b3e b5f4 643e
00000200: d532 c8be 2896 fcbd 94c2 0b3d bfda 193e
00000210: 37d3 9f3e e075 47be 5023 93bf 69de 013e
00000220: 8890 453e 8f2e 8f3e 376c 5e3e cec3 93be
00000230: c41d 80bd cf82 94bd 1e51 82bd 7a5f c73e
00000240: 79ed 9d3e 708e 103e 4888 103e 42e0 c83e
00000250: a7b1 923e 487a 593e bf0f c03e 2e15 6dbe
00000260: 7bfe 3dbe a0e3 acbe d97a 793e 1d1a 07bb
00000270: 131a 77bf 0cca 7abe 7436 85be f79d 34be
00000280: 423e 6abe b0ba af3c d031 aa3d 44f8 04bf
00000290: f371 5b3d 21ea 603e 8d61 513d e6b3 ddbd
000002a0: 0e66 d3be 963d a2be 899b a13e 67aa b5be
000002b0: 381f d1bd 465a dd3d 886e c23e 14ea 6b3e
000002c0: 5bad d83e 681e 07be 9f25 90bd dbc0 8a3e
000002d0: a58a d1be 58a5 c83e 1935 993d 6f1e e2be
000002e0: 5e0a f93d 34df 303e 9f9d 3ebf 6f76 a03e
000002f0: 3a4d ddbd 696e bbbe 62f2 493e d65f f93e
00000300: 6472 a8be b80a 113f c22b 4abe 0dff ffbe
00000310: 0b02 4f3e c9f0 283e 38d8 d23e 15c3 cebe

2.bias f4 [10]
-0.08368975 0.15105715 0.1664733 0.34857836 -0.17044678 0.33141896 -0.0634174 -0.081741035
0.24528985 0.47164696
00000000: 8865 abbd baae 1a3e fa77 2a3e dd78 b23e
00000010: 9a89 2ebe bfaf a93e fbe0 81bd d867 a7bd
00000020: 432d 7b3e b67b f13e

4.weight f4 [2, 10]
-0.83777857 1.2579829 -1.0221475 -0.7212391 0.9991864 1.5352286 0.6176744 -0.6481054
0.44391373 -1.1801987 0.83765244 -1.2580361 1.0221179 0.72093534 -0.999143 -1.535357
-0.6177717 0.647999 -0.44413948 1.1800947
00000000: a878 56bf 9505 a13f bbd5 82bf 20a3 38bf
00000010: aeca 7f3f 5f82 c43f e91f 1e3f 3cea 25bf
00000020: a948 e33e c010 97bf 6470 563f 5407 a1bf
00000030: c2d4 823f 388f 383f d6c7 7fbf 9486 c4bf
00000040: 4926 1ebf 43e3 253f 4066 e3be 580d 973f

4.bias f4 [2]
0.050670993 -0.050002735
00000000: 638c 4f3d abcf 4cbd
