workspace/results/ascad/KAN_ASCADv_snr/7/KAN-1Hidden.ckpt (torch, 5622 bytes, 15 tensors)

biases.1.weight f4 [1, 2]
00000000: 670d 3fbd 2fc2 8cbd
-0.04664364 -0.06872975

act_fun.0.grid f4 [2, 4]
00000000: cec5 41c0 e6c4 8bbf a003 583f 42e4 3140
00000010: a47b 3cc0 a602 80bf f8e3 713f 4ef3 3840
-3.027698 -1.0919464 0.8438053 2.7795568 -2.9450464 -1.0000808 0.9448848 2.8898501

act_fun.0.coef f4 [2, 6]
00000000: c008 913e b6f7 b03e cabd 563c 8853 52be
00000010: 61f3 b1be 8012 56bf b545 89be a399 39be
00000020: 2400 eebd 8203 8bbe 66b6 cdbe dc78 2cbe
0.28326988 0.34563988 0.013106773 -0.20539677 -0.34755996 -0.8362198 -0.26810995 -0.18125014
-0.116211206 -0.27151114 -0.4017822 -0.16842979

act_fun.0.scale_base f4 [2]
00000000: d1b2 123f 86ae 6d3e
0.573041 0.23211107

act_fun.0.scale_sp f4 [2]
00000000: 66c8 d53f b84b cb3f
1.6701782 1.5882483

act_fun.0.mask f4 [2]
00000000: 0000 803f 0000 803f
1.0 1.0

act_fun.1.grid f4 [2, 4]
00000000: 5d12 01bf db5e 1b3f 0ae8 db3f 5310 3540
00000010: 5d12 01bf db5e 1b3f 0ae8 db3f 5310 3540
-0.50418645 0.6069161 1.7180188 2.8291214 -0.50418645 0.6069161 1.7180188 2.8291214

act_fun.1.coef f4 [2, 6]
00000000: dfdb 593e 744e 473e 5b71 c6bd 8d34 63be
00000010: 78f5 00be e56a 67be b4be 8a3e 75a1 643e
00000020: f5b6 40be ece0 8abe ebd5 28be 1a3f 76be
0.2127528 0.19463521 -0.096895896 -0.22188015 -0.12593639 -0.22599371 0.2709862 0.22327216
-0.18819793 -0.27124727 -0.16487853 -0.24047509

act_fun.1.scale_base f4 [2]
00000000: 85ea 4c3f 7499 523f
0.8004535 0.822654

act_fun.1.scale_sp f4 [2]
00000000: 3d16 a83f c3ad ae3f
1.3131787 1.3646778

act_fun.1.mask f4 [2]
00000000: 0000 803f 0000 803f
1.0 1.0

symbolic_fun.0.mask f4 [1, 2]
00000000: 0000 0000 0000 0000
0.0 0.0

symbolic_fun.0.affine f4 [1, 2, 4]
00000000: 0000 0000 0000 0000 0000 0000 0000 0000
00000010: 0000 0000 0000 0000 0000 0000 0000 0000
0.0 0.0 0.0 0.0 0.0 0.0 0.0 0.0

symbolic_fun.1.mask f4 [2, 1]
00000000: 0000 0000 0000 0000
0.0 0.0

symbolic_fun.1.affine f4 [2, 1, 4]
00000000: 0000 0000 0000 0000 0000 0000 0000 0000
00000010: 0000 0000 0000 0000 0000 0000 0000 0000
0.0 0.0 0.0 0.0 0.0 0.0 0.0 0.0
