workspace/results/ascad/KAN_ASCADv_snr/1/KAN-1Hidden.ckpt (torch, 5622 bytes, 15 tensors)

biases.1.weight f4 [1, 2]
0	0xbd9b8d4e	-0.07595311
1	0xbd658562	-0.056035407

act_fun.0.grid f4 [2, 4]
0	0xc041c5ce	-3.027698
1	0xbf8bc4e6	-1.0919464
2	0x3f5803a0	0.8438053
3	0x4031e442	2.7795568
4	0xc03c7ba4	-2.9450464
5	0xbf8002a6	-1.0000808
6	0x3f71e3f8	0.9448848
7	0x4038f34e	2.8898501

act_fun.0.coef f4 [2, 6]
0	0x3ea254fe	0.3170547
1	0x3f414305	0.7549289
2	0x3cc4ba25	0.024014542
3	0xbe9fd8b9	-0.31220034
4	0xbe589473	-0.21150379
5	0xbf6110f5	-0.879165
6	0xbd740eb9	-0.059584353
7	0xbe4e88c6	-0.20169362
8	0xbd89c868	-0.067276776
9	0xbe7a6b64	-0.24455029
10	0xbed41502	-0.41422278
11	0xbe918777	-0.28423664

act_fun.0.scale_base f4 [2]
0	0x3f268eea	0.6506182
1	0x3e41bba5	0.18919237

act_fun.0.scale_sp f4 [2]
0	0x3fe01b2a	1.750829
1	0x3fbf816e	1.4961374

act_fun.0.mask f4 [2]
0	0x3f800000	1.0
1	0x3f800000	1.0

act_fun.1.grid f4 [2, 4]
0	0xbf00cc02	-0.5031129
1	0x3f1b8908	0.6075597
2	0x3fdbef09	1.7182323
3	0x40350cc6	2.8289046
4	0xbf00cc02	-0.5031129
5	0x3f1b8908	0.6075597
6	0x3fdbef09	1.7182323
7	0x40350cc6	2.8289046

act_fun.1.coef f4 [2, 6]
0	0x3ee6673e	0.45000643
1	0x3e48fdc7	0.19628058
2	0xbe951aae	-0.29121917
3	0xbe1606e2	-0.14651063
4	0xbde89b13	-0.11357703
5	0xbe61a4b0	-0.2203548
6	0xbb19e12b	-0.0023480158
7	0x3e660f21	0.22466709
8	0xbb3533a7	-0.0027649195
9	0xbeeda082	-0.4641152
10	0xbe39e5b4	-0.18154031
11	0xbe76414e	-0.2404835

act_fun.1.scale_base f4 [2]
0	0x3f44a62d	0.76816064
1	0x3f529c18	0.8226943

act_fun.1.scale_sp f4 [2]
0	0x3fbaab66	1.4583557
1	0x3fac4852	1.345957

act_fun.1.mask f4 [2]
0	0x3f800000	1.0
1	0x3f800000	1.0

symbolic_fun.0.mask f4 [1, 2]
0	0x00000000	0.0
1	0x00000000	0.0

symbolic_fun.0.affine f4 [1, 2, 4]
0	0x00000000	0.0
1	0x00000000	0.0
2	0x00000000	0.0
3	0x00000000	0.0
4	0x00000000	0.0
5	0x00000000	0.0
6	0x00000000	0.0
7	0x00000000	0.0

symbolic_fun.1.mask f4 [2, 1]
0	0x00000000	0.0
1	0x00000000	0.0

symbolic_fun.1.affine f4 [2, 1, 4]
0	0x00000000	0.0
1	0x00000000	0.0
2	0x00000000	0.0
3	0x00000000	0.0
4	0x00000000	0.0
5	0x00000000	0.0
6	0x00000000	0.0
7	0x00000000	0.0
