workspace/results/ascad/KAN_ASCADv_snr/4/KAN-1Hidden.ckpt (torch, 5622 bytes, 15 tensors)

biases.1.weight f4 [1, 2]
000000 1a 2b b6 bb 35 f8 1f be
       -0.0055593373 -0.15622027

act_fun.0.grid f4 [2, 4]
000000 ce c5 41 c0 e6 c4 8b bf a0 03 58 3f 42 e4 31 40
       -3.027698 -1.0919464 0.8438053 2.7795568
000010 a4 7b 3c c0 a6 02 80 bf f8 e3 71 3f 4e f3 38 40
       -2.9450464 -1.0000808 0.9448848 2.8898501

act_fun.0.coef f4 [2, 6]
000000 12 a2 07 bf 60 c3 f7 be c6 4b 66 be 83 7e 84 3d
       -0.52981675 -0.48391247 -0.22489843 0.06469443
000010 9c fc bd be f0 27 60 bf 3a ac 39 be ff 76 ff be
       -0.37106788 -0.8756094 -0.18132105 -0.49895474
000020 c6 59 d6 be 2e 37 96 3d d1 78 aa be fa e9 19 bf
       -0.41865367 0.073347434 -0.332953 -0.60122645

act_fun.0.scale_base f4 [2]
000000 eb ff 15 3f 94 42 a9 3e
       0.58593625 0.33058608

act_fun.0.scale_sp f4 [2]
000000 74 54 ce 3f f2 82 cc 3f
       1.6119523 1.5977461

act_fun.0.mask f4 [2]
000000 00 00 80 3f 00 00 80 3f
       1.0 1.0

act_fun.1.grid f4 [2, 4]
000000 e5 e8 00 bf 7b 78 1b 3f ee ec db 3f ce 0e 35 40
       -0.5035537 0.60730714 1.718168 2.8290286
000010 e5 e8 00 bf 7b 78 1b 3f ee ec db 3f ce 0e 35 40
       -0.5035537 0.60730714 1.718168 2.8290286

act_fun.1.coef f4 [2, 6]
000000 e2 09 01 3f bf e3 15 bd ba 94 34 3c fb 08 16 bc
       0.50405705 -0.03659415 0.011021787 -0.009157415
000010 6b 1b 86 bd 88 e8 5a be ce e4 43 bd 6f f9 da 3e
       -0.06548198 -0.21377766 -0.047825627 0.42768428
000020 e7 b7 8e be 3f a5 45 bf fd 1f 84 be 8b f0 81 be
       -0.2787468 -0.7720527 -0.25805655 -0.25378832

act_fun.1.scale_base f4 [2]
000000 5d 1d 74 3f 40 ee 20 3f
       0.95357305 0.6286354

act_fun.1.scale_sp f4 [2]
000000 1a e6 ad 3f 91 bf d8 3f
       1.3585846 1.6933461

act_fun.1.mask f4 [2]
000000 00 00 80 3f 00 00 80 3f
       1.0 1.0

symbolic_fun.0.mask f4 [1, 2]
000000 00 00 00 00 00 00 00 00
       0.0 0.0

symbolic_fun.0.affine f4 [1, 2, 4]
000000 00 00 00 00 00 00 00 00 00 00 00 00 00 00 00 00
       0.0 0.0 0.0 0.0
000010 00 00 00 00 00 00 00 00 00 00 00 00 00 00 00 00
       0.0 0.0 0.0 0.0

symbolic_fun.1.mask f4 [2, 1]
000000 00 00 00 00 00 00 00 00
       0.0 0.0

symbolic_fun.1.affine f4 [2, 1, 4]
000000 00 00 00 00 00 00 00 00 00 00 00 00 00 00 00 00
       0.0 0.0 0.0 0.0
000010 00 00 00 00 00 00 00 00 00 00 00 00 00 00 00 00
       0.0 0.0 0.0 0.0
