workspace/results/ascad/KAN_ASCADf/1/KAN-2Hidden.ckpt (torch, 259902 bytes, 23 tensors)

biases.0.weight f4 [1, 5]
0	0xbce15df1	-0.027510615
1	0xbcd8f468	-0.02648373
2	0xbcaf1010	-0.021369964
3	0xbd21ffd2	-0.03955061
4	0xbce0eb19	-0.027455853

biases.2.weight f4 [1, 2]
0	0x3c4cd15b	0.012501086
1	0xbc952257	-0.018204851

act_fun.0.grid f4 [3500, 4]
0	0xc022e1a0	-2.545021
1	0xbf77657c	-0.9663923
2	0x3f1cbb88	0.6122365
3	0x400c3722	2.190865
4	0xc0225425	-2.5363858
5	0xbf654ca6	-0.8957008
6	0x3f3eb748	0.74498415
7	0x4018aecd	2.385669
8	0xc03866c3	-2.881272
9	0xbf95abf3	-1.16931
10	0x3f0aeb40	0.54265213
11	0x40104b99	2.254614
12	0xc02553bc	-2.5832357
13	0xbf6febfc	-0.9371946
14	0x3f3576f8	0.70884657
15	0x4016b67a	2.3548875
16	0xc02f22bf	-2.7364957
17	0xbf6e6de6	-0.9313644
18	0x3f5faf30	0.8737669
19	0x402b7311	2.678898
20	0xc01858f4	-2.3804293
21	0xbf409cd4	-0.752393
22	0x3f602a28	0.87564325
23	0x40203c48	2.5036793
24	0xc01caa2e	-2.447887
25	0xbf51e50a	-0.8199011
26	0x3f4edea4	0.8080847
27	0x401be894	2.4360704
28	0xc01359ca	-2.3023553
29	0xbf32c204	-0.69827294
30	0x3f67e320	0.9058094
31	0x4020a210	2.5098915
32	0xc010327c	-2.2530813
33	0xbf102bc2	-0.5631677
34	0x3f903936	1.1267459
35	0x40344426	2.8166595
36	0xc024e4da	-2.576468
37	0xbf51ce8a	-0.8195578
38	0x3f6ff654	0.9373524
39	0x402c6ecc	2.6942625
40	0xc02c453c	-2.6917257
41	0xbf4b21d2	-0.7934848
42	0x3f8d68a6	1.1047561
43	0x4040311a	3.002997
44	0xc023ca5b	-2.5592258
45	0xbf3a5fa8	-0.7280221
46	0x3f8d350e	1.1031816
47	0x403bccf7	2.934385
48	0xc01a70d4	-2.4131365
49	0xbf0fc84c	-0.56165004
50	0x3fa5195c	1.2898364
51	0x40490b6e	3.1413226
52	0xc017e69e	-2.3734508
53	0xbf06f3fa	-0.5271603
54	0x3fa8d942	1.3191302
55	0x404a9640	3.1654205
56	0xc014d6e3	-2.3256156
57	0xbf10059e	-0.5625857
58	0x3f99a828	1.2004442
59	0x403da98f	2.963474
60	0xc025ad51	-2.5887034
61	0xbf4c36f8	-0.79771376
62	0x3f7e4754	0.9932759
63	0x40323167	2.7842653
64	0xc011425c	-2.2696753
65	0xbf0e33f8	-0.5554805
66	0x3f9450c0	1.1587143
67	0x4037ddbe	2.872909
68	0xbffad735	-1.9596926
69	0xbf0753e2	-0.5286237
70	0x3f6706a6	0.9024452
71	0x4015584c	2.3335142
72	0xc003f92e	-2.0620837
73	0xbf16a19a	-0.58840334
74	0x3f62a184	0.88527703
75	0x4016f928	2.3589573
76	0xc0090cbf	-2.141403
77	0xbf1e0648	-0.61728334
78	0x3f68266c	0.9068363
79	0x401b94c7	2.4309556
80	0xc0115e0c	-2.2713652
81	0xbf38d398	-0.72197866
82	0x3f53d100	0.82740784
83	0x40181d66	2.3767943
84	0xc018454c	-2.3792295
85	0xbf5568fc	-0.8336332
86	0x3f364338	0.7119632
87	0x40107bda	2.2575593
88	0xc02b6ac4	-2.6783915
89	0xbf54a2b4	-0.83060765
90	0x3f8232d4	1.0171762
91	0x40375b80	2.8649597
92	0xc04a892c	-3.1646223
93	0xbf9859f4	-1.1902452
94	0x3f48bce0	0.784132
95	0x40308b6a	2.7585092
96	0xc0448b2b	-3.0709941
97	0xbf8d0c54	-1.1019387
98	0x3f5dfb5c	0.8671167
99	0x403583d7	2.8361719
100	0xc03dbdbd	-2.9647057
101	0xbf94c376	-1.162215
102	0x3f23e91c	0.6402757
103	0x401c5649	2.4427664
104	0xc0453102	-3.0811162
105	0xbfaae0aa	-1.3349812
106	0x3ed282c0	0.4111538
107	0x400a1104	2.1572886
108	0xc03cf768	-2.9526005
109	0xbf99288c	-1.1965499
110	0x3f0f3b70	0.5595007
111	0x401431fe	2.3155513
112	0xc03f8a65	-2.992822
113	0xbf9cc508	-1.2247629
114	0x3f0b1574	0.5432961
115	0x4013ed3d	2.3113549
116	0xc03837c4	-2.8784037
117	0xbf8b5d51	-1.0887853
118	0x3f3369cc	0.7008331
119	0x401f638e	2.4904513
120	0xc048c2b2	-3.1368833
121	0xbfacc2aa	-1.3496907
122	0x3ee00040	0.4375019
123	0x400e6164	2.2246943
124	0xc033121a	-2.7979798
125	0xbf93046c	-1.1485724
126	0x3f0036b8	0.50083494
127	0x40099d92	2.1502423
128	0xc019f35b	-2.4054782
129	0xbf5997dc	-0.84997344
130	0x3f349db4	0.70553136
131	0x4010b4d1	2.2610362
132	0xbff928cf	-1.9465579
133	0xbeee60d0	-0.46558237
134	0x3f81f867	1.0153931
135	0x401fc480	2.4963684
136	0xbfe99f8f	-1.8251818
137	0xbed5afc4	-0.4173566
138	0x3f7d8f5a	0.9904686
139	0x40197da4	2.3982935
140	0xbfe794c3	-1.8092273
141	0xbef19adc	-0.4718846
142	0x3f5d8eaa	0.86545813
143	0x400cfab0	2.2028008
144	0xc01b673a	-2.4281754
145	0xbf58bfd4	-0.84667706
146	0x3f3c1d40	0.7348213
147	0x40143e94	2.3163195
148	0xc01f6518	-2.4905453
149	0xbf5d9328	-0.8655267
150	0x3f426e10	0.7594919
151	0x40189bd2	2.3845105
152	0xbfb42e73	-1.4076675
153	0xbd9e50b0	-0.07730234
154	0x3fa0645d	1.2530628
155	0x402556e2	2.583428
156	0xc004a4f9	-2.0725691
157	0xbec762e0	-0.38942623
158	0x3fa59882	1.2937167
159	0x403e84dd	2.9768593
160	0xc0019235	-2.0245488
161	0xbec58930	-0.38581228
162	0x3fa05fd2	1.2529242
163	0x403910f7	2.8916605
164	0xc0029153	-2.04012
165	0xbf0724b8	-0.52790403
166	0x3f7bfbdc	0.9843118
167	0x401fc71b	2.4965274
168	0xc010608a	-2.2558923
169	0xbf434294	-0.76273465
170	0x3f3afd00	0.730423
171	0x400e4f24	2.2235804
172	0xc0352021	-2.830086
173	0xbf8cac96	-1.0990169
174	0x3f21ce2c	0.6320522
175	0x40173d61	2.3631213
176	0xc0452488	-3.0803547
177	0xbf8f2ec4	-1.1186147
178	0x3f57d710	0.84312534
179	0x403382ea	2.8048654
180	0xc0297587	-2.6477983
181	0xbf6e0b6e	-0.9298619
182	0x3f49bf40	0.7880745
183	0x4020627b	2.5060108
184	0xc03654cd	-2.8489258
185	0xbf901f6a	-1.1259587
186	0x3f18d58c	0.59700847
187	0x40147a7b	2.3199756
188	0xc02b2106	-2.6738906
189	0xbf7ef11a	-0.9958664
190	0x3f2ea1e4	0.68215775
191	0x40170d38	2.3601818
192	0xc015044a	-2.3283868
193	0xbf4726da	-0.7779366
194	0x3f45c374	0.7725136
195	0x4014ab70	2.3229637
196	0xc023fac1	-2.5621798
197	0xbf446890	-0.7672205
198	0x3f838cf2	1.0277388
199	0x4034a715	2.8226979
200	0xc0246ae6	-2.5690246
201	0xbf6e736a	-0.9314486
202	0x3f34c4c4	0.7061274
203	0x4015ff3c	2.3437033
204	0xc02ecb2e	-2.731151
205	0xbf67bf60	-0.9052639
206	0x3f6badf8	0.9206233
207	0x402fc6d4	2.7465105
208	0xc02c379b	-2.690894
209	0xbf8b4a13	-1.0881981
210	0x3f03b620	0.51449776
211	0x40078019	2.1171935
212	0xc04eb352	-3.2296948
213	0xbfb6428e	-1.4239061
214	0x3ec38620	0.38188267
215	0x400c02ce	2.1876712
216	0xc04a768d	-3.1634858
217	0xbfadf678	-1.3590841
218	0x3ee400a8	0.4453175
219	0x400ffb65	2.249719
220	0xc044898e	-3.0708957
221	0xbfa72abc	-1.3059916
222	0x3eeaf690	0.45891237
223	0x400e5302	2.2238164
224	0xc0208c2c	-2.5085554
225	0xbf74a95c	-0.9557092
226	0x3f18ddf8	0.597137
227	0x40099952	2.149983
228	0xc018afed	-2.3857377
229	0xbf568840	-0.8380165
230	0x3f35af34	0.70970464
231	0x401079a9	2.2574255
232	0xc0194c51	-2.395283
233	0xbf429b14	-0.7601788
234	0x3f5ffb1c	0.8749254
235	0x4020a453	2.5100296
236	0xc00f28d2	-2.2368665
237	0xbf3c81d0	-0.7363558
238	0x3f439fa8	0.7641549
239	0x4010f048	2.2646656
240	0xc01392ff	-2.305847
241	0xbf4a329e	-0.78983486
242	0x3f39e6c0	0.7261772
243	0x400f8007	2.2421892
244	0xc0219151	-2.5244944
245	0xbf643840	-0.8914833
246	0x3f3dd4c4	0.7415278
247	0x4017f871	2.3745387
248	0xc02d1ccc	-2.7048826
249	0xbf4333c2	-0.7625085
250	0x3f9705d6	1.1798656
251	0x4047d2c6	3.1222396
252	0xc013d576	-2.3099036
253	0xbf02cf20	-0.510973
254	0x3fa4dbcc	1.2879577
255	0x40458f94	3.0868883

act_fun.0.coef f4 [3500, 6]
0	0x3d8c7a76	0.06859295
1	0xbcbe737c	-0.023248427
2	0xbdc1c509	-0.094614096
3	0x3d6af843	0.057365667
4	0x3d0c2c45	0.034221906
5	0xbe8508d9	-0.25983313
6	0xbebaaaa4	-0.36458313
7	0x3d6ece75	0.05830236
8	0xbcd6f359	-0.026239084
9	0xbd44b4ef	-0.048024114
10	0x3dbd7ed5	0.09252707
11	0xbe182b7c	-0.14860338
12	0xbe992476	-0.2991063
13	0xbd55712e	-0.05210989
14	0x3b9aecf0	0.004727952
15	0xbd30a37d	-0.043124665
16	0x3db0e69c	0.08637735
17	0xbe4b3dbb	-0.19847767
18	0xbe374600	-0.17897797
19	0x3d9da965	0.07698325
20	0xbd43236c	-0.047641203
21	0xbd8eb740	-0.06968546
22	0x3e164288	0.14673817
23	0xbdf0d13c	-0.11758658
24	0x3e0789ef	0.13236211
25	0x3b9902f5	0.004669542
26	0xbd422a5f	-0.04740369
27	0xbcc10513	-0.02356199
28	0x3db7100a	0.08938606
29	0x3d868a58	0.06569356
30	0xbd3fa6b3	-0.046789836
31	0x3cf28fd6	0.029609602
32	0xbd1798b8	-0.03701088
33	0xbd81228b	-0.06305417
34	0x3e08a4c7	0.13344108
35	0xbdfbd961	-0.12297321
36	0x3f21f1bb	0.63259476
37	0xbdb8308a	-0.08993633
38	0xbca34d18	-0.019934222
39	0xbc8ac03d	-0.01693737
40	0x3d8ed59f	0.06974339
41	0xbe43990d	-0.19101353
42	0x3e9f56b1	0.31120828
43	0xbdf36d34	-0.11886063
44	0xbd320247	-0.043459203
45	0x3ca241be	0.019806739
46	0x3d4eb178	0.050462216
47	0xbd7b9295	-0.06141909
48	0x3e3f8095	0.18701394
49	0xbe14a5b3	-0.14516334
50	0xbcdd404c	-0.027008198
51	0x3d448bb8	0.04798481
52	0xbdb3beef	-0.08776652
53	0x3e7ae799	0.2450241
54	0xbdfe6163	-0.12420919
55	0xbe3e20d7	-0.18567215
56	0x3b86a73f	0.0041092928
57	0xbc9be72c	-0.01903113
58	0xbd1d7ccf	-0.038449105
59	0xbca2157f	-0.01978564
60	0xbebd842e	-0.37014908
61	0xbe1eda48	-0.15512955
62	0x3a509153	0.00079562253
63	0x3c3cf37b	0.01153266
64	0xbe29e1f0	-0.16590095
65	0xbd975597	-0.07389372
66	0xbd3c6448	-0.045994073
67	0xbda81822	-0.08207728
68	0xbd861dcd	-0.06548653
69	0x3ce5f8b2	0.028072689
70	0x3d2d0d35	0.042248923
71	0xbddc561d	-0.10758612
72	0xbeb74825	-0.3579723
73	0x3cbfb3c3	0.023401147
74	0xbcd7d191	-0.026345046
75	0xbd8bfa6c	-0.068348736
76	0x3e635cb3	0.2220333
77	0x3dfc3897	0.12315481
78	0xbe097020	-0.13421679
79	0x3d48f712	0.04906375
80	0xbd98eb9e	-0.074668154
81	0x3c3b9c2a	0.011450807
82	0x3d35d29d	0.04439031
83	0xbedb31af	-0.42811343
84	0xbeb13d9a	-0.3461731
85	0xbd766d2e	-0.060162716
86	0xbd42d47f	-0.047565933
87	0xbc11270b	-0.008859406
88	0x3e8ffb90	0.28121614
89	0x3f45b012	0.77221787
90	0xbe7ac4fd	-0.24489208
91	0xbc97e9c8	-0.018544093
92	0xbe361971	-0.17783143
93	0x3e0cc568	0.1374718
94	0x3e4cc8c0	0.19998455
95	0xbe6210c5	-0.2207671
96	0x3d937012	0.0719911
97	0xbd81b630	-0.06333578
98	0xbb7442bc	-0.0037271222
99	0xbd259787	-0.04042771
100	0x3e3f22cb	0.18665616
101	0x3f160877	0.58606666
102	0xba2bdb2f	-0.0006555793
103	0xbe90d47d	-0.28287116
104	0x3c237e3c	0.009978827
105	0x3d90a09a	0.07061882
106	0xbd63afbe	-0.055587523
107	0x3e4929ee	0.19644901
108	0x38429b43	4.6397803e-05
109	0xbe073bf6	-0.13206467
110	0xbc160037	-0.009155325
111	0x3ccb8808	0.024845138
112	0xbc744c10	-0.014910713
113	0x3e6d3750	0.23165631
114	0x3e0e4b59	0.1389593
115	0xbc8bcd2f	-0.017065613
116	0xbc83f62c	-0.016108595
117	0xbcc78064	-0.024353214
118	0x3c368b74	0.011141647
119	0x3ec2dba5	0.380582
120	0x3eb335ae	0.35001892
121	0xbd4e96d9	-0.05043683
122	0xbd611889	-0.05495504
123	0xbc6b3e83	-0.014358166
124	0x3e0f5e75	0.14000876
125	0x3e98a1d1	0.29810956
126	0x3e2a46d6	0.16628584
127	0x3c826402	0.015916828
128	0xba88c1ca	-0.001043373
129	0xbdc3a794	-0.09553447
130	0x3dc50e6d	0.09621892
131	0x3d124cd3	0.035717797
132	0xbe6958dd	-0.22787805
133	0xbe47dcc5	-0.1951781
134	0xbbe36acd	-0.006940222
135	0x3d1ec9e9	0.038766775
136	0xbd04d4d6	-0.03242954
137	0xbcfd4a22	-0.030919138
138	0xbe8adcb2	-0.27121502
139	0xbe5a336b	-0.21308677
140	0xbd01f4c3	-0.031727564
141	0x3d49d474	0.049274877
142	0xbdc87a12	-0.09788908
143	0xbe085a6e	-0.13315746
144	0xbf3a420e	-0.7275704
145	0xbe497801	-0.19674684
146	0xbd07ffb1	-0.03320283
147	0x3d6086ba	0.054815985
148	0x3dcb48ba	0.09925981
149	0xbeaa2e20	-0.33238316
150	0xbdb6182b	-0.088913284
151	0xbe523152	-0.20526627
152	0xbdc03b1b	-0.093862735
153	0x3dd74117	0.10510462
154	0x3dcb1b71	0.099173434
155	0xbe70a82f	-0.23501657
156	0xbe70ebc1	-0.23527433
157	0xbe279694	-0.16366035
158	0x3bfa597e	0.007640063
159	0x3c46b722	0.012128623
160	0xbcbc4ae4	-0.02298493
161	0xbddd4bfb	-0.10805508
162	0xbf4a71a4	-0.7907965
163	0xbdc0ab40	-0.09407663
164	0xbc9d13f4	-0.019174553
165	0x3ce5c4df	0.028047977
166	0x3d06a085	0.032867927
167	0xbf0ef42f	-0.55841345
168	0xbddb5094	-0.107087284
169	0xbdd8a464	-0.1057823
170	0xbd0200bb	-0.031738978
171	0xbbb90538	-0.005646374
172	0x3d9fcf29	0.078031845
173	0xbe781c22	-0.24229482
174	0xbe9947a0	-0.29937458
175	0xbdaeea0a	-0.08540733
176	0xbce854df	-0.028360782
177	0xbabc46d6	-0.0014364372
178	0x3dc28194	0.09497371
179	0xbecafda1	-0.39646628
180	0xbe5bd602	-0.21468356
181	0xbd7601f0	-0.06006044
182	0xbcb4c5ed	-0.022067035
183	0xbc557fe8	-0.0130309835
184	0x3bc2f23b	0.0059492863
185	0xbe8cfc3e	-0.27536196
186	0xbef0e7a2	-0.47051722
187	0x3cf01b44	0.029309876
188	0x3d1cac86	0.03825047
189	0xbd64f680	-0.055899143
190	0x3c33be31	0.010970638
191	0xbe669594	-0.22517997
192	0xbf1aca3b	-0.6046483
193	0xbe2fdeb6	-0.17174801
194	0xbca64f75	-0.02030156
195	0x3d1d8e03	0.03846551
196	0x3b598473	0.0033190518
197	0xbe02bd8d	-0.1276762
198	0xbf13c998	-0.5772948
199	0xbe933c23	-0.28756818
200	0x3df4dd97	0.119563274
201	0xbd3181e8	-0.04333678
202	0xbb93ee44	-0.0045144875
203	0xbd4337eb	-0.04766075
204	0xbe8d416a	-0.2758897
205	0xbe63c1d4	-0.22241908
206	0x3d81ae78	0.063321054
207	0xbb2c0c2b	-0.002625237
208	0xbd6a07b6	-0.05713626
209	0xbcf55fd1	-0.029952915
210	0xbdea5144	-0.114412814
211	0xbe301884	-0.17196852
212	0x3dbd2b1d	0.09236739
213	0xbcc410ab	-0.02393373
214	0xbde43960	-0.11143756
215	0xbe3c39f8	-0.18381488
216	0x3edfca02	0.43708807
217	0xbec99219	-0.39369276
218	0xbd5d2d2b	-0.053998154
219	0x3dd51adb	0.10405513
220	0xbd73cd42	-0.05952192
221	0xbeef109f	-0.46692368
222	0x3eab5d0a	0.3346942
223	0xbdf37408	-0.118873656
224	0xbd390f4d	-0.045180608
225	0x3d3779fe	0.044794075
226	0xbd05c6a1	-0.03266013
227	0xbe25994a	-0.16171756
228	0xbcfe1423	-0.031015461
229	0xbd5a6d30	-0.053326786
230	0xbdc3f6d2	-0.095685616
231	0x3e13f4cd	0.14448853
232	0xbdddcdb2	-0.10830249
233	0x3d2078c9	0.03917769
234	0xbe4a8e38	-0.19780815
235	0xbdafc656	-0.085827515
236	0x3da49459	0.080361076
237	0xbdb739da	-0.08946581
238	0xbe5e4e09	-0.21709456
239	0xbea61e02	-0.3244477
240	0x3e0b4c34	0.13603288
241	0xbdc73e8e	-0.09728728
242	0x3a840531	0.0010072348
243	0x3cda4303	0.026643282
244	0xbd84344b	-0.064552866
245	0x3e4681ec	0.19385499
246	0xbd4f42db	-0.050600868
247	0xbc83088b	-0.015995285
248	0x3c07a2e2	0.00827858
249	0xbd3772f0	-0.044787347
250	0xbd61ed33	-0.05515785
251	0x3d2c7778	0.04210612
252	0xbde5be2a	-0.112179115
253	0xbb0a1785	-0.0021071148
254	0x3b772c7a	0.003771572
255	0xbcf2c65b	-0.029635599

act_fun.0.scale_base f4 [3500]
0	0xbe5bf3e9	-0.21479763
1	0xbe52047c	-0.20509523
2	0xbd21e537	-0.039525237
3	0x3c36d197	0.011158369
4	0x3e91f40a	0.285065
5	0x3e39938a	0.18122688
6	0xbd25585d	-0.040367473
7	0xbebf9491	-0.37418035
8	0x3d423664	0.047415152
9	0xbeb5eac9	-0.3553069
10	0xbdd0d3c8	-0.10196644
11	0x3d42f0ba	0.047592856
12	0x3dbe181c	0.09281942
13	0x3e672852	0.22573975
14	0x3ec3b0d3	0.38220844
15	0x3e51859d	0.20461126
16	0xbe44abd8	-0.19206178
17	0xbe9ed5c4	-0.31022465
18	0x3deccb3c	0.115622014
19	0x3e12ab36	0.14323124
20	0x3e660262	0.22461846
21	0xbec2e5da	-0.38065988
22	0xbe0e8ade	-0.13920161
23	0x3e69d59e	0.22835395
24	0x3e45290d	0.19253941
25	0xbd48c121	-0.049012307
26	0xbdd49f9e	-0.10382007
27	0xbd3057d5	-0.043052513
28	0x3e91661f	0.28398225
29	0x3eaeb9a2	0.34126002
30	0x3e049d7d	0.12950702
31	0xbe8a3a87	-0.26997778
32	0xbe041997	-0.12900387
33	0xbd842414	-0.06452194
34	0xbe2f0836	-0.17092976
35	0xbe0258ca	-0.12729183
36	0x3bd2e31a	0.006435764
37	0xbd786fb2	-0.060653396
38	0x3e1edab4	0.15513116
39	0xbe33fa06	-0.17575845
40	0xbcbd7219	-0.023125695
41	0x3d8cf637	0.06882899
42	0xbde99fa5	-0.11407403
43	0xbd60256a	-0.05472318
44	0x3dde33f5	0.10849754
45	0x3f00c831	0.5030547
46	0xbeaadb54	-0.3337046
47	0xbece9aae	-0.40352386
48	0xbe696c72	-0.22795275
49	0x3d8cc17b	0.06872841
50	0x3e7f7dff	0.24950407
51	0xbd4e90c0	-0.050431013
52	0xbdd2db2d	-0.10295711
53	0xbe2962b1	-0.16541554
54	0x3d1e9c20	0.03872311
55	0xbdec717f	-0.11545085
56	0xbe37787a	-0.17917052
57	0x3d6d5e87	0.057951476
58	0x3e80bd4f	0.2514443
59	0x3f1576ea	0.58384573
60	0xbea595e3	-0.32340917
61	0xbeb55bce	-0.35421604
62	0xbb49ecdd	-0.0030811348
63	0xbe4623eb	-0.19349639
64	0xbe935611	-0.287766
65	0x3e1e1409	0.1543733
66	0x3e0ae567	0.13564073
67	0x3e575d8c	0.21031779
68	0xbf126395	-0.571832
69	0x3e999374	0.2999531
70	0xbe97b4ac	-0.2963003
71	0xbe74f0ab	-0.23919933
72	0xbf01dc64	-0.50726914
73	0xbe1d6f16	-0.15374407
74	0xbdde30de	-0.108491644
75	0xbd6dcbd8	-0.05805573
76	0xbe77e968	-0.24210131
77	0x3e5d42c6	0.21607503
78	0x3d0fee6e	0.035139494
79	0xbd810d04	-0.06301311
80	0x3ce02447	0.027361048
81	0xbd4276b6	-0.047476493
82	0xbe3859fc	-0.18003076
83	0x3e34151f	0.17586182
84	0x3e4a072e	0.19729301
85	0x3b373396	0.0027954332
86	0x3e5f490f	0.21805213
87	0x3b496c84	0.0030734846
88	0xbcbafbed	-0.022825206
89	0x3eb1c34b	0.3471931
90	0xbf20e24f	-0.6284532
91	0xbc16ba2e	-0.009199662
92	0xbece7a0a	-0.40327483
93	0xbe879280	-0.26478958
94	0xbd706f25	-0.058699746
95	0xbc282c01	-0.010264398
96	0x3eb0c5cc	0.34525907
97	0xbea0997f	-0.31367108
98	0x3c8fc83b	0.017551532
99	0x3e041750	0.12899518
100	0xbf05d79e	-0.5228213
101	0xbe848d32	-0.25888973
102	0xbe0d1f75	-0.13781531
103	0xbd4a3018	-0.049362272
104	0xbd189d32	-0.037259288
105	0x3c9b902b	0.018989643
106	0x3dd9c607	0.10633474
107	0x3e5dfbd7	0.216781
108	0x3e3165bd	0.17323966
109	0xbe14c377	-0.14527689
110	0x3db7341e	0.089454874
111	0xbe911241	-0.2833424
112	0xbde24d97	-0.11049955
113	0xbf177c0f	-0.59173673
114	0xbc846ea9	-0.016166048
115	0x3d4ed002	0.05049134
116	0xba572ee1	-0.00082085846
117	0xbd3f8a28	-0.046762615
118	0xbe807259	-0.2508724
119	0x3ea62fe5	0.32458416
120	0xbbeb74f5	-0.007185573
121	0x3e51cd97	0.20488583
122	0x3e9a58ef	0.30145976
123	0xbdac020b	-0.08398827
124	0x3d067775	0.032828767
125	0x3d89ac29	0.0672229
126	0xbd0039e6	-0.031305216
127	0xbd1b98fa	-0.037987687
128	0xbe269ace	-0.16269991
129	0x3d924868	0.07142717
130	0xbda2b309	-0.079443045
131	0x3e1c9fc3	0.1529532
132	0x3e74b6a1	0.23897792
133	0xbc1d10cb	-0.009586523
134	0x3f0e64a3	0.5562231
135	0xbe2505f7	-0.16115557
136	0xbdf729a3	-0.120684884
137	0xbdd80d77	-0.10549443
138	0xbdae76e6	-0.08518772
139	0xbe53d53c	-0.20686811
140	0xbe004daa	-0.12529626
141	0xbe824616	-0.25444096
142	0xbe4959f8	-0.19663227
143	0xbd9c144b	-0.07621058
144	0xbd960856	-0.07325809
145	0xbda7b20b	-0.08188256
146	0xbd813e3b	-0.06310698
147	0x3daec5be	0.0853381
148	0xbe93ee5a	-0.28892785
149	0xbea7d4ac	-0.32779443
150	0xbed62496	-0.41824788
151	0xbe2fe7e2	-0.171783
152	0xbd9eb4a8	-0.07749301
153	0xbe7522e3	-0.2393909
154	0xbf012392	-0.504449
155	0xbd85d172	-0.06534089
156	0xbeafe472	-0.34353977
157	0xbdbd7483	-0.092507385
158	0xbbb317b2	-0.005465471
159	0x3df50fca	0.11965902
160	0x3e91ede2	0.28501803
161	0xbe0ade5b	-0.13561384
162	0x3da5f568	0.08103448
163	0xbca302bf	-0.01989877
164	0x3e8ace9a	0.2711075
165	0xbdab3229	-0.08359177
166	0x3ddb5db0	0.10711229
167	0xbd85b04a	-0.06527765
168	0xbdf1e64c	-0.11811504
169	0x3b0f1130	0.0021830313
170	0xbe0aaa9b	-0.13541643
171	0xbd9694a4	-0.0735257
172	0xbe24c2f2	-0.1608999
173	0xbe6b0d7f	-0.22954367
174	0xbda2b8ca	-0.07945402
175	0xbea61b88	-0.3244288
176	0xbd4656b7	-0.04842254
177	0xbe4f249b	-0.20228808
178	0xbf06b76b	-0.52623624
179	0xbe886c82	-0.26645285
180	0xbe007262	-0.12543634
181	0xbe6aa2b6	-0.22913632
182	0x3e7dc5bc	0.24782461
183	0xbd06361c	-0.032766446
184	0xbe4c496e	-0.19949886
185	0xbe2fd54c	-0.1717121
186	0x3ddc4d00	0.10756874
187	0x3d8140b1	0.06311167
188	0x3e12ba3d	0.14328857
189	0xbe6efe3a	-0.23339167
190	0xbe4aaec5	-0.19793232
191	0xbe9c27ee	-0.30499214
192	0xbe6fda22	-0.23423055
193	0x3e2880a7	0.16455327
194	0x3e76a317	0.24085651
195	0x3e585805	0.21127327
196	0x3cd1e729	0.025622921
197	0x3e27afa6	0.16375598
198	0xbc6f40fa	-0.014602894
199	0x3e64d322	0.22346166
200	0x3d9d7a6f	0.07689368
201	0xbe77822c	-0.2417075
202	0x3d6617ad	0.056174923
203	0x3e0dc2ee	0.13843891
204	0x3e81fffc	0.25390613
205	0xbe8f1496	-0.27945393
206	0x3dc000b8	0.09375137
207	0xbe092ebb	-0.13396733
208	0x3eaa9751	0.3331857
209	0x3dc37d31	0.09545363
210	0x3ee5738b	0.44814715
211	0x3df09e03	0.11748888
212	0xbea2bb83	-0.31783685
213	0x3e0d0fbf	0.13775538
214	0xbdcf8edf	-0.101346724
215	0xbe98e6cf	-0.29863593
216	0x3bdd7827	0.006758708
217	0x3cc4b907	0.02401401
218	0xbe29518b	-0.16535012
219	0xbd7e86ae	-0.06214016
220	0xbe070a36	-0.13187489
221	0xbddb7db5	-0.10717336
222	0xbea44f74	-0.32091868
223	0x3d5c9f46	0.053862832
224	0xbdd78646	-0.105236575
225	0x3e859bdd	0.26095477
226	0xbd9529ea	-0.07283385
227	0x3b1ef986	0.0024257614
228	0x3caf30d6	0.021385591
229	0x3da92a47	0.08260017
230	0xbdb266a2	-0.08710982
231	0xbe9e2ca4	-0.30893433
232	0xbdb7e796	-0.089797184
233	0xbe77d533	-0.24202423
234	0xbd8f03dd	-0.06983159
235	0x3e28decd	0.16491242
236	0xbddb1006	-0.106964156
237	0x3e605d2c	0.21910542
238	0x3ddb899f	0.107196085
239	0xbed1ef80	-0.41003036
240	0xbecea2a3	-0.40358457
241	0xbeede47c	-0.46463382
242	0xbdf402c9	-0.11914594
243	0xbec6babd	-0.38814345
244	0x3e4de960	0.20108557
245	0x3d224cea	0.039624132
246	0x3e2048f0	0.15652823
247	0x3e2453c4	0.16047579
248	0x3d490d96	0.049085222
249	0x3ea41c4f	0.32052848
250	0x3eb4cdc8	0.3531325
251	0x3d0e83ae	0.03479355
252	0xbe5f53ee	-0.2180936
253	0x3d54bb57	0.051936474
254	0x3ebc4968	0.36774755
255	0x3db1c486	0.08680062

act_fun.0.scale_sp f4 [3500]
0	0x3f700be2	0.9376813
1	0x3f5a74b6	0.85334337
2	0x3f4ed326	0.80790937
3	0x3f734404	0.9502566
4	0x3f3d0728	0.73839045
5	0x3f5e87fe	0.8692626
6	0x3f283de9	0.6571947
7	0x3f46644b	0.77496785
8	0x3f667f94	0.9003842
9	0x3f63c129	0.88966614
10	0x3f708b69	0.93962723
11	0x3f6faef6	0.93626344
12	0x3f732a52	0.9498645
13	0x3f6301df	0.8867473
14	0x3f81bfb4	1.0136628
15	0x3f99e5c8	1.2023249
16	0x3f71cbee	0.94451797
17	0x3f928929	1.1448108
18	0x3f53a668	0.8267579
19	0x3f31bbe9	0.69427353
20	0x3f6c949d	0.92414266
21	0x3f69f990	0.9139643
22	0x3f80ac9c	1.0052676
23	0x3f83126b	1.0239996
24	0x3f98f2c9	1.1949092
25	0x3f8704f9	1.0548393
26	0x3f574972	0.84096444
27	0x3f9b05af	1.211111
28	0x3f4fb780	0.81139374
29	0x3f4fe643	0.81210726
30	0x3f4bee33	0.7966034
31	0x3f52f4af	0.8240461
32	0x3f52579f	0.8216495
33	0x3faedd6c	1.3661323
34	0x3f84ff9f	1.0390509
35	0x3f878485	1.0587317
36	0x3f96aab0	1.177084
37	0x3f4b5d6e	0.7943944
38	0x3f8259a6	1.0183609
39	0x3f7e4936	0.9933046
40	0x3f41fac9	0.7577329
41	0x3f48c9d7	0.78432983
42	0x3f19310e	0.59840477
43	0x3f4a1eb8	0.78953123
44	0x3f514807	0.8175053
45	0x3f7cfd26	0.98823774
46	0x3f45fa0c	0.77334666
47	0x3f5dc540	0.86629105
48	0x3f54ccac	0.83124804
49	0x3f4efa69	0.80850846
50	0x3f5b0ba7	0.85564655
51	0x3f553688	0.83286333
52	0x3f55e5d9	0.83553845
53	0x3f43cc2d	0.7648342
54	0x3f4d4758	0.80186987
55	0x3f3a49b2	0.727687
56	0x3f654b6b	0.89568204
57	0x3f58e92c	0.8473079
58	0x3f18098b	0.5938956
59	0x3f2ccc26	0.67499006
60	0x3f208dff	0.6271667
61	0x3f37357d	0.7156599
62	0x3f91a0c3	1.1377186
63	0x3f853c0e	1.0408952
64	0x3f67bc36	0.9052156
65	0x3f56c352	0.83891785
66	0x3f6ab65c	0.9168451
67	0x3f80c5ac	1.0060325
68	0x3fa1fa59	1.2654525
69	0x3f724507	0.9463658
70	0x3f567041	0.83765036
71	0x3f8bec67	1.0931519
72	0x3f4fc90a	0.81166136
73	0x3f28a831	0.6588164
74	0x3f414bab	0.75506085
75	0x3f663479	0.89923817
76	0x3f746f0b	0.9548194
77	0x3f6f977e	0.93590534
78	0x3f4f9fc6	0.8110317
79	0x3fa16fc2	1.2612231
80	0x3f704a7e	0.93863666
81	0x3f685363	0.9075224
82	0x3f51e465	0.8198913
83	0x3f76507e	0.9621657
84	0x3f30c96e	0.6905736
85	0x3f56fe58	0.8398185
86	0x3f59bffa	0.8505856
87	0x3f699517	0.9124312
88	0x3f5872ba	0.8455006
89	0x3f27dc82	0.65570843
90	0x3f66a80b	0.90100163
91	0x3f8a4d12	1.080477
92	0x3f800cd0	1.000391
93	0x3f2bffc5	0.6718715
94	0x3f49003e	0.78515995
95	0x3f6633e1	0.8992291
96	0x3f760f1b	0.961168
97	0x3f6cb50d	0.9246376
98	0x3f53ebb4	0.8278153
99	0x3f7148d8	0.94251776
100	0x3f51607f	0.81787866
101	0x3f940632	1.1564391
102	0x3f315ff7	0.69287056
103	0x3f9639ab	1.1736349
104	0x3f31dc05	0.6947635
105	0x3f64bab1	0.8934737
106	0x3f6c5bc5	0.9232753
107	0x3f685e00	0.9076843
108	0x3f73c7e3	0.9522688
109	0x3f4e286a	0.80530417
110	0x3f6a052d	0.9141415
111	0x3f29845c	0.6621759
112	0x3f6b3dd8	0.9189124
113	0x3f663d48	0.8993726
114	0x3f657985	0.8963855
115	0x3f70daff	0.9408416
116	0x3f6f2499	0.9341522
117	0x3fa47076	1.284682
118	0x3f6b6329	0.9194818
119	0x3f9e200d	1.2353531
120	0x3f7baac8	0.98307467
121	0x3fa193b9	1.2623206
122	0x3f3f0036	0.74609697
123	0x3f0933ca	0.5359465
124	0x3f1659c2	0.5873071
125	0x3f513db7	0.81734794
126	0x3f723b84	0.94622064
127	0x3f89e4d2	1.0772955
128	0x3f706272	0.93900216
129	0x3f89a70f	1.0754107
130	0x3f767064	0.96265244
131	0x3f853aae	1.0408533
132	0x3f9ad2a4	1.2095532
133	0x3f5958c8	0.84901094
134	0x3f812687	1.0089883
135	0x3f72abd8	0.9479346
136	0x3f32fe67	0.6991944
137	0x3f6d4fd6	0.92699945
138	0x3f620448	0.8828778
139	0x3f345d41	0.70454794
140	0x3f15a20a	0.58450377
141	0x3f5f5313	0.87236136
142	0x3fbc52fb	1.4712824
143	0x3f85022c	1.0391288
144	0x3f63b1da	0.88943255
145	0x3f6fd6ca	0.9368712
146	0x3f73dc57	0.95258087
147	0x3f5ee877	0.87073463
148	0x3f82be14	1.0214257
149	0x3fad4442	1.3536456
150	0x3fc4bf49	1.5370876
151	0x3f86cc83	1.0531162
152	0x3f9e4977	1.236617
153	0x3f9bb706	1.2165229
154	0x3f6bcb22	0.9210683
155	0x3f74be25	0.9560264
156	0x3faa3485	1.3297278
157	0x3f85eb74	1.046248
158	0x3f5ee5f7	0.8706965
159	0x3f66d3dc	0.9016702
160	0x3f7c1386	0.9846729
161	0x3f7d6e84	0.9899676
162	0x3f74fad3	0.9569523
163	0x3f77fb6b	0.9686801
164	0x3f796754	0.9742329
165	0x3f6c6018	0.9233413
166	0x3f5b8300	0.85746765
167	0x3f933fcb	1.1503843
168	0x3f76ac4b	0.9635665
169	0x3f80fc7a	1.007705
170	0x3f7b3a34	0.98135686
171	0x3f77f27d	0.9685438
172	0x3f4169d2	0.75552094
173	0x3f3f8b0b	0.7482154
174	0x3f84c96e	1.0373971
175	0x3f56622c	0.8374355
176	0x3f4d237f	0.8013229
177	0x3f8b9370	1.0904369
178	0x3f8a3a00	1.079895
179	0x3f8bc349	1.0918971
180	0x3f977767	1.1833314
181	0x3f78f36e	0.97246444
182	0x3f8172e2	1.0113184
183	0x3f929d91	1.1454335
184	0x3f8e25f9	1.1105338
185	0x3f5f8df4	0.8732598
186	0x3f709004	0.9396975
187	0x3f7cc553	0.9873859
188	0x3f5bdcea	0.85883963
189	0x3f5f04ee	0.871169
190	0x3f6741e8	0.9033494
191	0x3f6eb2c0	0.932415
192	0x3f5fbd9a	0.87398684
193	0x3f5b94b9	0.8577381
194	0x3f7cdad3	0.987714
195	0x3f85616e	1.0420358
196	0x3f542871	0.8287421
197	0x3f39fe10	0.72653294
198	0x3f39e4a9	0.7261453
199	0x3f42ac98	0.7604461
200	0x3f8110ea	1.0083287
201	0x3f3da59e	0.74080837
202	0x3f87d553	1.0611976
203	0x3f90a2fe	1.1299741
204	0x3f8a200b	1.0791029
205	0x3f94121f	1.156803
206	0x3f3258da	0.69666827
207	0x3f5398b4	0.8265488
208	0x3f8180f7	1.0117482
209	0x3f80d437	1.0064763
210	0x3f9184a3	1.1368603
211	0x3f5ded3a	0.86690104
212	0x3f7798cb	0.9671752
213	0x3f769360	0.96318626
214	0x3f6bde01	0.92135626
215	0x3f5fc44c	0.874089
216	0x3f5b2bec	0.85613894
217	0x3f6af1a4	0.91774964
218	0x3f61e948	0.88246584
219	0x3f73e1eb	0.952666
220	0x3f6ae0d2	0.917493
221	0x3f4ae3d9	0.7925392
222	0x3f821964	1.0163999
223	0x3f64c8ea	0.8936907
224	0x3f59af82	0.8503343
225	0x3f61cba7	0.88201374
226	0x3f58a1b6	0.8462175
227	0x3f54aab0	0.8307295
228	0x3f505b15	0.8138898
229	0x3f2ec70b	0.68272465
230	0x3f412276	0.7544321
231	0x3f39cdc2	0.72579587
232	0x3f46baf7	0.77629036
233	0x3f7cefb3	0.9880325
234	0x3f931c8f	1.149309
235	0x3f5da8b1	0.8658553
236	0x3f8b9b6e	1.0906808
237	0x3f3f0c7e	0.74628437
238	0x3f73c3c7	0.9522061
239	0x3f4712c6	0.7776302
240	0x3f398aa2	0.7247716
241	0x3f874285	1.0567175
242	0x3f4863c8	0.78277254
243	0x3f4f71b9	0.810329
244	0x3f44ce09	0.76876885
245	0x3f9a4ffa	1.2055657
246	0x3f933057	1.1499127
247	0x3f86ffb3	1.0546783
248	0x3f5214c5	0.8206294
249	0x3f764296	0.9619535
250	0x3f793d33	0.9735901
251	0x3f88a0a2	1.0674021
252	0x3f4603b4	0.773494
253	0x3f7e3272	0.99295723
254	0x3f7c61a6	0.985865
255	0x3f7b1bfe	0.9808959

act_fun.0.mask f4 [3500]
0	0x3f800000	1.0
1	0x3f800000	1.0
2	0x3f800000	1.0
3	0x3f800000	1.0
4	0x3f800000	1.0
5	0x3f800000	1.0
6	0x3f800000	1.0
7	0x3f800000	1.0
8	0x3f800000	1.0
9	0x3f800000	1.0
10	0x3f800000	1.0
11	0x3f800000	1.0
12	0x3f800000	1.0
13	0x3f800000	1.0
14	0x3f800000	1.0
15	0x3f800000	1.0
16	0x3f800000	1.0
17	0x3f800000	1.0
18	0x3f800000	1.0
19	0x3f800000	1.0
20	0x3f800000	1.0
21	0x3f800000	1.0
22	0x3f800000	1.0
23	0x3f800000	1.0
24	0x3f800000	1.0
25	0x3f800000	1.0
26	0x3f800000	1.0
27	0x3f800000	1.0
28	0x3f800000	1.0
29	0x3f800000	1.0
30	0x3f800000	1.0
31	0x3f800000	1.0
32	0x3f800000	1.0
33	0x3f800000	1.0
34	0x3f800000	1.0
35	0x3f800000	1.0
36	0x3f800000	1.0
37	0x3f800000	1.0
38	0x3f800000	1.0
39	0x3f800000	1.0
40	0x3f800000	1.0
41	0x3f800000	1.0
42	0x3f800000	1.0
43	0x3f800000	1.0
44	0x3f800000	1.0
45	0x3f800000	1.0
46	0x3f800000	1.0
47	0x3f800000	1.0
48	0x3f800000	1.0
49	0x3f800000	1.0
50	0x3f800000	1.0
51	0x3f800000	1.0
52	0x3f800000	1.0
53	0x3f800000	1.0
54	0x3f800000	1.0
55	0x3f800000	1.0
56	0x3f800000	1.0
57	0x3f800000	1.0
58	0x3f800000	1.0
59	0x3f800000	1.0
60	0x3f800000	1.0
61	0x3f800000	1.0
62	0x3f800000	1.0
63	0x3f800000	1.0
64	0x3f800000	1.0
65	0x3f800000	1.0
66	0x3f800000	1.0
67	0x3f800000	1.0
68	0x3f800000	1.0
69	0x3f800000	1.0
70	0x3f800000	1.0
71	0x3f800000	1.0
72	0x3f800000	1.0
73	0x3f800000	1.0
74	0x3f800000	1.0
75	0x3f800000	1.0
76	0x3f800000	1.0
77	0x3f800000	1.0
78	0x3f800000	1.0
79	0x3f800000	1.0
80	0x3f800000	1.0
81	0x3f800000	1.0
82	0x3f800000	1.0
83	0x3f800000	1.0
84	0x3f800000	1.0
85	0x3f800000	1.0
86	0x3f800000	1.0
87	0x3f800000	1.0
88	0x3f800000	1.0
89	0x3f800000	1.0
90	0x3f800000	1.0
91	0x3f800000	1.0
92	0x3f800000	1.0
93	0x3f800000	1.0
94	0x3f800000	1.0
95	0x3f800000	1.0
96	0x3f800000	1.0
97	0x3f800000	1.0
98	0x3f800000	1.0
99	0x3f800000	1.0
100	0x3f800000	1.0
101	0x3f800000	1.0
102	0x3f800000	1.0
103	0x3f800000	1.0
104	0x3f800000	1.0
105	0x3f800000	1.0
106	0x3f800000	1.0
107	0x3f800000	1.0
108	0x3f800000	1.0
109	0x3f800000	1.0
110	0x3f800000	1.0
111	0x3f800000	1.0
112	0x3f800000	1.0
113	0x3f800000	1.0
114	0x3f800000	1.0
115	0x3f800000	1.0
116	0x3f800000	1.0
117	0x3f800000	1.0
118	0x3f800000	1.0
119	0x3f800000	1.0
120	0x3f800000	1.0
121	0x3f800000	1.0
122	0x3f800000	1.0
123	0x3f800000	1.0
124	0x3f800000	1.0
125	0x3f800000	1.0
126	0x3f800000	1.0
127	0x3f800000	1.0
128	0x3f800000	1.0
129	0x3f800000	1.0
130	0x3f800000	1.0
131	0x3f800000	1.0
132	0x3f800000	1.0
133	0x3f800000	1.0
134	0x3f800000	1.0
135	0x3f800000	1.0
136	0x3f800000	1.0
137	0x3f800000	1.0
138	0x3f800000	1.0
139	0x3f800000	1.0
140	0x3f800000	1.0
141	0x3f800000	1.0
142	0x3f800000	1.0
143	0x3f800000	1.0
144	0x3f800000	1.0
145	0x3f800000	1.0
146	0x3f800000	1.0
147	0x3f800000	1.0
148	0x3f800000	1.0
149	0x3f800000	1.0
150	0x3f800000	1.0
151	0x3f800000	1.0
152	0x3f800000	1.0
153	0x3f800000	1.0
154	0x3f800000	1.0
155	0x3f800000	1.0
156	0x3f800000	1.0
157	0x3f800000	1.0
158	0x3f800000	1.0
159	0x3f800000	1.0
160	0x3f800000	1.0
161	0x3f800000	1.0
162	0x3f800000	1.0
163	0x3f800000	1.0
164	0x3f800000	1.0
165	0x3f800000	1.0
166	0x3f800000	1.0
167	0x3f800000	1.0
168	0x3f800000	1.0
169	0x3f800000	1.0
170	0x3f800000	1.0
171	0x3f800000	1.0
172	0x3f800000	1.0
173	0x3f800000	1.0
174	0x3f800000	1.0
175	0x3f800000	1.0
176	0x3f800000	1.0
177	0x3f800000	1.0
178	0x3f800000	1.0
179	0x3f800000	1.0
180	0x3f800000	1.0
181	0x3f800000	1.0
182	0x3f800000	1.0
183	0x3f800000	1.0
184	0x3f800000	1.0
185	0x3f800000	1.0
186	0x3f800000	1.0
187	0x3f800000	1.0
188	0x3f800000	1.0
189	0x3f800000	1.0
190	0x3f800000	1.0
191	0x3f800000	1.0
192	0x3f800000	1.0
193	0x3f800000	1.0
194	0x3f800000	1.0
195	0x3f800000	1.0
196	0x3f800000	1.0
197	0x3f800000	1.0
198	0x3f800000	1.0
199	0x3f800000	1.0
200	0x3f800000	1.0
201	0x3f800000	1.0
202	0x3f800000	1.0
203	0x3f800000	1.0
204	0x3f800000	1.0
205	0x3f800000	1.0
206	0x3f800000	1.0
207	0x3f800000	1.0
208	0x3f800000	1.0
209	0x3f800000	1.0
210	0x3f800000	1.0
211	0x3f800000	1.0
212	0x3f800000	1.0
213	0x3f800000	1.0
214	0x3f800000	1.0
215	0x3f800000	1.0
216	0x3f800000	1.0
217	0x3f800000	1.0
218	0x3f800000	1.0
219	0x3f800000	1.0
220	0x3f800000	1.0
221	0x3f800000	1.0
222	0x3f800000	1.0
223	0x3f800000	1.0
224	0x3f800000	1.0
225	0x3f800000	1.0
226	0x3f800000	1.0
227	0x3f800000	1.0
228	0x3f800000	1.0
229	0x3f800000	1.0
230	0x3f800000	1.0
231	0x3f800000	1.0
232	0x3f800000	1.0
233	0x3f800000	1.0
234	0x3f800000	1.0
235	0x3f800000	1.0
236	0x3f800000	1.0
237	0x3f800000	1.0
238	0x3f800000	1.0
239	0x3f800000	1.0
240	0x3f800000	1.0
241	0x3f800000	1.0
242	0x3f800000	1.0
243	0x3f800000	1.0
244	0x3f800000	1.0
245	0x3f800000	1.0
246	0x3f800000	1.0
247	0x3f800000	1.0
248	0x3f800000	1.0
249	0x3f800000	1.0
250	0x3f800000	1.0
251	0x3f800000	1.0
252	0x3f800000	1.0
253	0x3f800000	1.0
254	0x3f800000	1.0
255	0x3f800000	1.0

act_fun.1.grid f4 [5, 4]
0	0xc2008c97	-32.137295
1	0xc1b0c886	-22.097912
2	0xc140efba	-12.058527
3	0xc00139a8	-2.019144
4	0xc200e208	-32.220734
5	0xc1b3e0f3	-22.484838
6	0xc14bfbac	-12.748943
7	0xc040d5d0	-3.01305
8	0xc2220ba9	-40.511387
9	0xc1e43bf8	-28.529282
10	0xc184609e	-16.547176
11	0xc0921510	-4.565071
12	0xc2092f73	-34.296337
13	0xc1b9db0f	-23.231962
14	0xc142ae70	-12.167587
15	0xbf8d3620	-1.1032143
16	0xc22696a9	-41.64713
17	0xc1eaed36	-29.365826
18	0xc188ad1a	-17.084522
19	0xc099b3f8	-4.803219

act_fun.1.coef f4 [5, 6]
0	0x3db124d4	0.086496025
1	0xbcea56f9	-0.028605925
2	0x3c3f38d2	0.011671262
3	0x3cc46402	0.023973469
4	0xbe4d4bce	-0.20048448
5	0xbda3d58f	-0.079997174
6	0xbe16a2b1	-0.147105
7	0xbe1adcb5	-0.15123256
8	0x3de5fc76	0.11229794
9	0x3da2dcda	0.0795228
10	0xbe514a19	-0.20438422
11	0xbd3529ff	-0.044229504
12	0xbe0f5bd7	-0.13999878
13	0xbda8ca17	-0.082416706
14	0xbc17ff50	-0.00927718
15	0xbd8dc1ac	-0.069217056
16	0x3dda3bf0	0.106559634
17	0xbc71815d	-0.014740315
18	0x3dc0c39b	0.09412309
19	0x3cfcccb7	0.030859334
20	0xbd64840a	-0.055789985
21	0xbd13d496	-0.03609141
22	0x3dd36e7f	0.1032381
23	0x3cfdbe00	0.030974388
24	0x3dc39cbf	0.09551381
25	0x3e3dbbfc	0.18528742
26	0xbd0cdadd	-0.03438841
27	0xbde695fd	-0.11259077
28	0x3de95c0f	0.11394512
29	0x3e37b206	0.17939004

act_fun.1.scale_base f4 [5]
0	0x3eb94b8f	0.3619046
1	0xbcbc7324	-0.023004122
2	0x3f7a8244	0.9785502
3	0x3d85f873	0.065415286
4	0x3e2a539a	0.16633454

act_fun.1.scale_sp f4 [5]
0	0x3f3b3dcc	0.7314117
1	0x3f98ca53	1.1936744
2	0x3f42236e	0.7583531
3	0x3f23433d	0.6377447
4	0x3f684e1c	0.90744185

act_fun.1.mask f4 [5]
0	0x3f800000	1.0
1	0x3f800000	1.0
2	0x3f800000	1.0
3	0x3f800000	1.0
4	0x3f800000	1.0

act_fun.2.grid f4 [2, 4]
0	0xbe256b2c	-0.16154164
1	0xbdc9f2c4	-0.09860757
2	0xbd121e60	-0.0356735
3	0x3cdf5188	0.027260557
4	0xbe256b2c	-0.16154164
5	0xbdc9f2c4	-0.09860757
6	0xbd121e60	-0.0356735
7	0x3cdf5188	0.027260557

act_fun.2.coef f4 [2, 6]
0	0xbf52ea29	-0.8238855
1	0xbf1158d3	-0.5677616
2	0xbe3ac31d	-0.18238492
3	0x3d66f754	0.056388214
4	0x3e7f0014	0.24902374
5	0x3f0294d7	0.5100836
6	0x3f6e64fe	0.9312285
7	0x3f1ed6a3	0.6204626
8	0x3e68edf3	0.2274702
9	0xbd238fa5	-0.039931912
10	0xbe7f75dd	-0.24947305
11	0xbf0ec22c	-0.5576503

act_fun.2.scale_base f4 [2]
0	0x3fb84d36	1.4398563
1	0x3e5ba522	0.21449712

act_fun.2.scale_sp f4 [2]
0	0x3fefed88	1.8744364
1	0x3ff33afb	1.9002374

act_fun.2.mask f4 [2]
0	0x3f800000	1.0
1	0x3f800000	1.0

symbolic_fun.0.mask f4 [5, 700]
0	0x00000000	0.0
1	0x00000000	0.0
2	0x00000000	0.0
3	0x00000000	0.0
4	0x00000000	0.0
5	0x00000000	0.0
6	0x00000000	0.0
7	0x00000000	0.0
8	0x00000000	0.0
9	0x00000000	0.0
10	0x00000000	0.0
11	0x00000000	0.0
12	0x00000000	0.0
13	0x00000000	0.0
14	0x00000000	0.0
15	0x00000000	0.0
16	0x00000000	0.0
17	0x00000000	0.0
18	0x00000000	0.0
19	0x00000000	0.0
20	0x00000000	0.0
21	0x00000000	0.0
22	0x00000000	0.0
23	0x00000000	0.0
24	0x00000000	0.0
25	0x00000000	0.0
26	0x00000000	0.0
27	0x00000000	0.0
28	0x00000000	0.0
29	0x00000000	0.0
30	0x00000000	0.0
31	0x00000000	0.0
32	0x00000000	0.0
33	0x00000000	0.0
34	0x00000000	0.0
35	0x00000000	0.0
36	0x00000000	0.0
37	0x00000000	0.0
38	0x00000000	0.0
39	0x00000000	0.0
40	0x00000000	0.0
41	0x00000000	0.0
42	0x00000000	0.0
43	0x00000000	0.0
44	0x00000000	0.0
45	0x00000000	0.0
46	0x00000000	0.0
47	0x00000000	0.0
48	0x00000000	0.0
49	0x00000000	0.0
50	0x00000000	0.0
51	0x00000000	0.0
52	0x00000000	0.0
53	0x00000000	0.0
54	0x00000000	0.0
55	0x00000000	0.0
56	0x00000000	0.0
57	0x00000000	0.0
58	0x00000000	0.0
59	0x00000000	0.0
60	0x00000000	0.0
61	0x00000000	0.0
62	0x00000000	0.0
63	0x00000000	0.0
64	0x00000000	0.0
65	0x00000000	0.0
66	0x00000000	0.0
67	0x00000000	0.0
68	0x00000000	0.0
69	0x00000000	0.0
70	0x00000000	0.0
71	0x00000000	0.0
72	0x00000000	0.0
73	0x00000000	0.0
74	0x00000000	0.0
75	0x00000000	0.0
76	0x00000000	0.0
77	0x00000000	0.0
78	0x00000000	0.0
79	0x00000000	0.0
80	0x00000000	0.0
81	0x00000000	0.0
82	0x00000000	0.0
83	0x00000000	0.0
84	0x00000000	0.0
85	0x00000000	0.0
86	0x00000000	0.0
87	0x00000000	0.0
88	0x00000000	0.0
89	0x00000000	0.0
90	0x00000000	0.0
91	0x00000000	0.0
92	0x00000000	0.0
93	0x00000000	0.0
94	0x00000000	0.0
95	0x00000000	0.0
96	0x00000000	0.0
97	0x00000000	0.0
98	0x00000000	0.0
99	0x00000000	0.0
100	0x00000000	0.0
101	0x00000000	0.0
102	0x00000000	0.0
103	0x00000000	0.0
104	0x00000000	0.0
105	0x00000000	0.0
106	0x00000000	0.0
107	0x00000000	0.0
108	0x00000000	0.0
109	0x00000000	0.0
110	0x00000000	0.0
111	0x00000000	0.0
112	0x00000000	0.0
113	0x00000000	0.0
114	0x00000000	0.0
115	0x00000000	0.0
116	0x00000000	0.0
117	0x00000000	0.0
118	0x00000000	0.0
119	0x00000000	0.0
120	0x00000000	0.0
121	0x00000000	0.0
122	0x00000000	0.0
123	0x00000000	0.0
124	0x00000000	0.0
125	0x00000000	0.0
126	0x00000000	0.0
127	0x00000000	0.0
128	0x00000000	0.0
129	0x00000000	0.0
130	0x00000000	0.0
131	0x00000000	0.0
132	0x00000000	0.0
133	0x00000000	0.0
134	0x00000000	0.0
135	0x00000000	0.0
136	0x00000000	0.0
137	0x00000000	0.0
138	0x00000000	0.0
139	0x00000000	0.0
140	0x00000000	0.0
141	0x00000000	0.0
142	0x00000000	0.0
143	0x00000000	0.0
144	0x00000000	0.0
145	0x00000000	0.0
146	0x00000000	0.0
147	0x00000000	0.0
148	0x00000000	0.0
149	0x00000000	0.0
150	0x00000000	0.0
151	0x00000000	0.0
152	0x00000000	0.0
153	0x00000000	0.0
154	0x00000000	0.0
155	0x00000000	0.0
156	0x00000000	0.0
157	0x00000000	0.0
158	0x00000000	0.0
159	0x00000000	0.0
160	0x00000000	0.0
161	0x00000000	0.0
162	0x00000000	0.0
163	0x00000000	0.0
164	0x00000000	0.0
165	0x00000000	0.0
166	0x00000000	0.0
167	0x00000000	0.0
168	0x00000000	0.0
169	0x00000000	0.0
170	0x00000000	0.0
171	0x00000000	0.0
172	0x00000000	0.0
173	0x00000000	0.0
174	0x00000000	0.0
175	0x00000000	0.0
176	0x00000000	0.0
177	0x00000000	0.0
178	0x00000000	0.0
179	0x00000000	0.0
180	0x00000000	0.0
181	0x00000000	0.0
182	0x00000000	0.0
183	0x00000000	0.0
184	0x00000000	0.0
185	0x00000000	0.0
186	0x00000000	0.0
187	0x00000000	0.0
188	0x00000000	0.0
189	0x00000000	0.0
190	0x00000000	0.0
191	0x00000000	0.0
192	0x00000000	0.0
193	0x00000000	0.0
194	0x00000000	0.0
195	0x00000000	0.0
196	0x00000000	0.0
197	0x00000000	0.0
198	0x00000000	0.0
199	0x00000000	0.0
200	0x00000000	0.0
201	0x00000000	0.0
202	0x00000000	0.0
203	0x00000000	0.0
204	0x00000000	0.0
205	0x00000000	0.0
206	0x00000000	0.0
207	0x00000000	0.0
208	0x00000000	0.0
209	0x00000000	0.0
210	0x00000000	0.0
211	0x00000000	0.0
212	0x00000000	0.0
213	0x00000000	0.0
214	0x00000000	0.0
215	0x00000000	0.0
216	0x00000000	0.0
217	0x00000000	0.0
218	0x00000000	0.0
219	0x00000000	0.0
220	0x00000000	0.0
221	0x00000000	0.0
222	0x00000000	0.0
223	0x00000000	0.0
224	0x00000000	0.0
225	0x00000000	0.0
226	0x00000000	0.0
227	0x00000000	0.0
228	0x00000000	0.0
229	0x00000000	0.0
230	0x00000000	0.0
231	0x00000000	0.0
232	0x00000000	0.0
233	0x00000000	0.0
234	0x00000000	0.0
235	0x00000000	0.0
236	0x00000000	0.0
237	0x00000000	0.0
238	0x00000000	0.0
239	0x00000000	0.0
240	0x00000000	0.0
241	0x00000000	0.0
242	0x00000000	0.0
243	0x00000000	0.0
244	0x00000000	0.0
245	0x00000000	0.0
246	0x00000000	0.0
247	0x00000000	0.0
248	0x00000000	0.0
249	0x00000000	0.0
250	0x00000000	0.0
251	0x00000000	0.0
252	0x00000000	0.0
253	0x00000000	0.0
254	0x00000000	0.0
255	0x00000000	0.0

symbolic_fun.0.affine f4 [5, 700, 4]
0	0x00000000	0.0
1	0x00000000	0.0
2	0x00000000	0.0
3	0x00000000	0.0
4	0x00000000	0.0
5	0x00000000	0.0
6	0x00000000	0.0
7	0x00000000	0.0
8	0x00000000	0.0
9	0x00000000	0.0
10	0x00000000	0.0
11	0x00000000	0.0
12	0x00000000	0.0
13	0x00000000	0.0
14	0x00000000	0.0
15	0x00000000	0.0
16	0x00000000	0.0
17	0x00000000	0.0
18	0x00000000	0.0
19	0x00000000	0.0
20	0x00000000	0.0
21	0x00000000	0.0
22	0x00000000	0.0
23	0x00000000	0.0
24	0x00000000	0.0
25	0x00000000	0.0
26	0x00000000	0.0
27	0x00000000	0.0
28	0x00000000	0.0
29	0x00000000	0.0
30	0x00000000	0.0
31	0x00000000	0.0
32	0x00000000	0.0
33	0x00000000	0.0
34	0x00000000	0.0
35	0x00000000	0.0
36	0x00000000	0.0
37	0x00000000	0.0
38	0x00000000	0.0
39	0x00000000	0.0
40	0x00000000	0.0
41	0x00000000	0.0
42	0x00000000	0.0
43	0x00000000	0.0
44	0x00000000	0.0
45	0x00000000	0.0
46	0x00000000	0.0
47	0x00000000	0.0
48	0x00000000	0.0
49	0x00000000	0.0
50	0x00000000	0.0
51	0x00000000	0.0
52	0x00000000	0.0
53	0x00000000	0.0
54	0x00000000	0.0
55	0x00000000	0.0
56	0x00000000	0.0
57	0x00000000	0.0
58	0x00000000	0.0
59	0x00000000	0.0
60	0x00000000	0.0
61	0x00000000	0.0
62	0x00000000	0.0
63	0x00000000	0.0
64	0x00000000	0.0
65	0x00000000	0.0
66	0x00000000	0.0
67	0x00000000	0.0
68	0x00000000	0.0
69	0x00000000	0.0
70	0x00000000	0.0
71	0x00000000	0.0
72	0x00000000	0.0
73	0x00000000	0.0
74	0x00000000	0.0
75	0x00000000	0.0
76	0x00000000	0.0
77	0x00000000	0.0
78	0x00000000	0.0
79	0x00000000	0.0
80	0x00000000	0.0
81	0x00000000	0.0
82	0x00000000	0.0
83	0x00000000	0.0
84	0x00000000	0.0
85	0x00000000	0.0
86	0x00000000	0.0
87	0x00000000	0.0
88	0x00000000	0.0
89	0x00000000	0.0
90	0x00000000	0.0
91	0x00000000	0.0
92	0x00000000	0.0
93	0x00000000	0.0
94	0x00000000	0.0
95	0x00000000	0.0
96	0x00000000	0.0
97	0x00000000	0.0
98	0x00000000	0.0
99	0x00000000	0.0
100	0x00000000	0.0
101	0x00000000	0.0
102	0x00000000	0.0
103	0x00000000	0.0
104	0x00000000	0.0
105	0x00000000	0.0
106	0x00000000	0.0
107	0x00000000	0.0
108	0x00000000	0.0
109	0x00000000	0.0
110	0x00000000	0.0
111	0x00000000	0.0
112	0x00000000	0.0
113	0x00000000	0.0
114	0x00000000	0.0
115	0x00000000	0.0
116	0x00000000	0.0
117	0x00000000	0.0
118	0x00000000	0.0
119	0x00000000	0.0
120	0x00000000	0.0
121	0x00000000	0.0
122	0x00000000	0.0
123	0x00000000	0.0
124	0x00000000	0.0
125	0x00000000	0.0
126	0x00000000	0.0
127	0x00000000	0.0
128	0x00000000	0.0
129	0x00000000	0.0
130	0x00000000	0.0
131	0x00000000	0.0
132	0x00000000	0.0
133	0x00000000	0.0
134	0x00000000	0.0
135	0x00000000	0.0
136	0x00000000	0.0
137	0x00000000	0.0
138	0x00000000	0.0
139	0x00000000	0.0
140	0x00000000	0.0
141	0x00000000	0.0
142	0x00000000	0.0
143	0x00000000	0.0
144	0x00000000	0.0
145	0x00000000	0.0
146	0x00000000	0.0
147	0x00000000	0.0
148	0x00000000	0.0
149	0x00000000	0.0
150	0x00000000	0.0
151	0x00000000	0.0
152	0x00000000	0.0
153	0x00000000	0.0
154	0x00000000	0.0
155	0x00000000	0.0
156	0x00000000	0.0
157	0x00000000	0.0
158	0x00000000	0.0
159	0x00000000	0.0
160	0x00000000	0.0
161	0x00000000	0.0
162	0x00000000	0.0
163	0x00000000	0.0
164	0x00000000	0.0
165	0x00000000	0.0
166	0x00000000	0.0
167	0x00000000	0.0
168	0x00000000	0.0
169	0x00000000	0.0
170	0x00000000	0.0
171	0x00000000	0.0
172	0x00000000	0.0
173	0x00000000	0.0
174	0x00000000	0.0
175	0x00000000	0.0
176	0x00000000	0.0
177	0x00000000	0.0
178	0x00000000	0.0
179	0x00000000	0.0
180	0x00000000	0.0
181	0x00000000	0.0
182	0x00000000	0.0
183	0x00000000	0.0
184	0x00000000	0.0
185	0x00000000	0.0
186	0x00000000	0.0
187	0x00000000	0.0
188	0x00000000	0.0
189	0x00000000	0.0
190	0x00000000	0.0
191	0x00000000	0.0
192	0x00000000	0.0
193	0x00000000	0.0
194	0x00000000	0.0
195	0x00000000	0.0
196	0x00000000	0.0
197	0x00000000	0.0
198	0x00000000	0.0
199	0x00000000	0.0
200	0x00000000	0.0
201	0x00000000	0.0
202	0x00000000	0.0
203	0x00000000	0.0
204	0x00000000	0.0
205	0x00000000	0.0
206	0x00000000	0.0
207	0x00000000	0.0
208	0x00000000	0.0
209	0x00000000	0.0
210	0x00000000	0.0
211	0x00000000	0.0
212	0x00000000	0.0
213	0x00000000	0.0
214	0x00000000	0.0
215	0x00000000	0.0
216	0x00000000	0.0
217	0x00000000	0.0
218	0x00000000	0.0
219	0x00000000	0.0
220	0x00000000	0.0
221	0x00000000	0.0
222	0x00000000	0.0
223	0x00000000	0.0
224	0x00000000	0.0
225	0x00000000	0.0
226	0x00000000	0.0
227	0x00000000	0.0
228	0x00000000	0.0
229	0x00000000	0.0
230	0x00000000	0.0
231	0x00000000	0.0
232	0x00000000	0.0
233	0x00000000	0.0
234	0x00000000	0.0
235	0x00000000	0.0
236	0x00000000	0.0
237	0x00000000	0.0
238	0x00000000	0.0
239	0x00000000	0.0
240	0x00000000	0.0
241	0x00000000	0.0
242	0x00000000	0.0
243	0x00000000	0.0
244	0x00000000	0.0
245	0x00000000	0.0
246	0x00000000	0.0
247	0x00000000	0.0
248	0x00000000	0.0
249	0x00000000	0.0
250	0x00000000	0.0
251	0x00000000	0.0
252	0x00000000	0.0
253	0x00000000	0.0
254	0x00000000	0.0
255	0x00000000	0.0

symbolic_fun.1.mask f4 [1, 5]
0	0x00000000	0.0
1	0x00000000	0.0
2	0x00000000	0.0
3	0x00000000	0.0
4	0x00000000	0.0

symbolic_fun.1.affine f4 [1, 5, 4]
0	0x00000000	0.0
1	0x00000000	0.0
2	0x00000000	0.0
3	0x00000000	0.0
4	0x00000000	0.0
5	0x00000000	0.0
6	0x00000000	0.0
7	0x00000000	0.0
8	0x00000000	0.0
9	0x00000000	0.0
10	0x00000000	0.0
11	0x00000000	0.0
12	0x00000000	0.0
13	0x00000000	0.0
14	0x00000000	0.0
15	0x00000000	0.0
16	0x00000000	0.0
17	0x00000000	0.0
18	0x00000000	0.0
19	0x00000000	0.0

symbolic_fun.2.mask f4 [2, 1]
0	0x00000000	0.0
1	0x00000000	0.0

symbolic_fun.2.affine f4 [2, 1, 4]
0	0x00000000	0.0
1	0x00000000	0.0
2	0x00000000	0.0
3	0x00000000	0.0
4	0x00000000	0.0
5	0x00000000	0.0
6	0x00000000	0.0
7	0x00000000	0.0
